src/modeling/downstream_task/trained_models/modeling_gat_trained.pth (torch, 138652 bytes, 8 tensors)

conv1.att_src f4 [1, 8, 64]
000000 17 9b fe 3c 03 e7 e5 3d 84 8f e7 bd 47 6e 45 be
       0.031079812 0.112257026 -0.1130667 -0.19280349
000010 cd ba 26 3e 54 73 06 3e 20 c4 66 3e 5f 78 fd bd
       0.16282196 0.13129932 0.22535753 -0.123764746
000020 0b b6 18 3e 53 67 56 3e 3b 73 cd 3d 79 f3 19 bd
       0.14913194 0.20937853 0.10031744 -0.03758571
000030 b5 cb 3b be 43 8e 2b be ca 09 2d 3d 37 68 f2 3c
       -0.18339427 -0.16753487 0.042245664 0.02959071
000040 fe 4e 9c 3e e3 de 0c be 7a d7 c3 bb c2 02 4c be
       0.30529016 -0.137569 -0.0059766145 -0.19922927
000050 76 e5 16 be 25 41 58 3e 51 60 5b 3e 27 e5 05 be
       -0.1473597 0.211186 0.2142346 -0.13075696
000060 88 72 7b be 9f ee 64 3e 56 60 36 be 8c f8 3c 3e
       -0.24555409 0.22356652 -0.17810187 0.18454188
000070 57 33 1c 3e 37 bc ed bd b8 e4 89 bc a6 c4 4d 3e
       0.1525396 -0.11608165 -0.016832694 0.20094547
000080 08 61 26 be 8a 4e 72 bc 75 93 18 3e 73 a6 88 3e
       -0.16247952 -0.014789233 0.149 0.2668949
000090 06 09 73 be 8a 12 85 be 9a 0a 8f bc 8c db 08 3e
       -0.23733911 -0.25990707 -0.01746111 0.13365
0000a0 e5 56 e5 bd a5 d2 d1 bd 88 49 8d 3e 91 4c 0a 3e
       -0.111982144 -0.102452554 0.27595162 0.1350577
0000b0 74 9d 7a be 2c 36 ea bb ac 66 17 bd 31 bf 68 be
       -0.24474126 -0.007147571 -0.03696315 -0.22729184
0000c0 87 83 7f be 7f e0 79 3e 02 ce 14 be 70 7e 65 bd
       -0.24952517 0.24402045 -0.1453171 -0.056028783
0000d0 34 0d cb 3c 7e 18 88 3e d1 df 4c 3e 25 b2 c1 3d
       0.02478657 0.26581186 0.20007254 0.094578065
0000e0 7f 12 61 3e d9 c3 8b bd d1 c6 6a be cc 4e ca 3c
       0.21979712 -0.06824464 -0.22927405 0.024695776
0000f0 ee c3 0e be db e9 09 be db 7f 00 3e ec b4 e1 3d
       -0.13941929 -0.13468115 0.12548773 0.11020836
000100 70 cf 6d 3e 91 12 10 be 7b 34 59 be 5f 65 f7 3c
       0.23223662 -0.14069583 -0.21211426 0.030199705
000110 ac 17 be 3d be 2f a1 bd 4f bf 16 be 1e 5f 86 be
       0.09281859 -0.07870434 -0.14721416 -0.26244444
000120 24 99 c2 bd b4 d5 72 3e 54 8a 44 bc 3c 36 77 bc
       -0.095018655 0.23714334 -0.011995871 -0.015088614
000130 07 dc 4b be 24 a2 1f bd da 0b 22 3e 38 bc 16 3d
       -0.19908153 -0.03897299 0.15824834 0.036800593
000140 d6 fa 46 3e 47 90 a4 3d 16 ab 8f 3e 2c ed 81 3d
       0.19431624 0.08035331 0.28060216 0.06344065
000150 d3 a6 92 3d 2e ac 31 3e 37 43 00 bd fa 4d 38 3e
       0.071607254 0.17350838 -0.0313141 0.17998496
000160 5c 80 30 be 55 e7 77 3e b9 fa 33 be 4c 45 59 bd
       -0.17236465 0.2420934 -0.17576112 -0.053044602
000170 95 ed e0 3d 8d 35 30 3d 69 3c aa bd 3a eb ba bc
       0.10982815 0.04301982 -0.083123036 -0.022817243
000180 03 db 40 3e 35 ce 84 3e 8f f5 12 be 12 c7 c4 bd
       0.18833546 0.25938573 -0.14351486 -0.09608282
000190 03 07 45 be 14 35 93 be 69 21 f6 3c a8 46 43 3c
       -0.19240956 -0.28751433 0.030045228 0.011918701
0001a0 22 d9 e3 bc a6 ce 1c 3d 1e ec 89 3d 85 33 d6 bc
       -0.027813498 0.038283013 0.06734489 -0.026147613
0001b0 e2 aa 55 bc de ea 1a bd d3 16 e4 bd 93 28 47 bd
       -0.01304123 -0.037821643 -0.11137166 -0.04862268
0001c0 07 7c ab 3d 20 92 a0 3e 7c 89 33 bc a4 7a 45 3e
       0.08373266 0.31361485 -0.010958072 0.19285065
0001d0 54 c9 58 3e 28 a9 6b 3e fd 5d d7 3d c0 b8 5c be
       0.2117055 0.23013747 0.10515974 -0.21554852
0001e0 a9 8d 08 be fb 0c e1 3d 7e bd 7a 3d a5 10 72 bd
       -0.13335289 0.10988804 0.06121587 -0.059097905
0001f0 2a 8d 21 be ed 4b 71 be e6 90 60 be f3 c3 a4 bc
       -0.15776506 -0.2356412 -0.21930274 -0.020112967
000200 f1 16 8f be 8b f3 2b 3e 5a 69 d7 bd c5 b3 3f 3e
       -0.2794719 0.16792123 -0.10518141 0.1872092
000210 03 38 b6 bd 62 ed 2d 3d b2 17 5b be 12 c2 5b be
       -0.08897402 0.042462714 -0.21395758 -0.2146075
000220 55 be 79 3b 5e 4c 3e be 2f 15 24 be 3d 3e 21 3d
       0.0038107831 -0.1858382 -0.16023706 0.039365996
000230 3a 02 4c 3e d1 ad 51 be 46 e3 5f 3e a2 eb 4e bc
       0.19922724 -0.20476462 0.21864042 -0.012629421
000240 bd a9 a2 3c f8 aa 13 bd 0e 8c 71 be 28 60 a3 3d
       0.019856328 -0.03605172 -0.23588583 0.07977325
000250 c0 3a d6 3d dc 8c 6d be ab 7f 71 3c 61 a0 09 be
       0.104604244 -0.23198265 0.014739911 -0.13440086
000260 7f fd c6 bd 8a 04 81 3d 52 58 54 be 3f 62 ff bc
       -0.09716319 0.06299694 -0.20736817 -0.031174777
000270 e8 d3 76 3e fd 03 47 be f1 4f 52 be 16 37 20 be
       0.24104273 -0.19435115 -0.20538308 -0.15646014
000280 bd 71 ee bb 33 79 6e 3d ea 9f 4f be 6b b3 22 3e
       -0.0072767423 0.058221053 -0.20275846 0.15888755
000290 6b de 49 be 86 aa a1 3d 22 4e 81 3a a5 fe d6 bc
       -0.19713752 0.07893853 0.0009865204 -0.02624447
0002a0 c7 2c f8 bc 0c 6c e9 3d 62 56 02 3e d9 2e b4 bd
       -0.030294789 0.113975614 0.12728265 -0.08797998
0002b0 03 0e 54 be af 0b 43 be 34 55 7d 3e a0 a3 22 3e
       -0.2070847 -0.19047426 0.24739534 0.1588273
0002c0 c9 af 7d 3d e4 16 80 3d 4f 06 58 3d 95 f3 88 3e
       0.06193522 0.06254366 0.05274039 0.26748338
0002d0 fc 27 85 3d 99 30 1f be 9f 5d 63 bb 8a 28 15 bd
       0.06501767 -0.15545882 -0.0034693254 -0.036415614
0002e0 61 08 3d be 2a 41 4c be c7 48 09 bc a2 63 b5 3d
       -0.18460228 -0.19946733 -0.008379168 0.08856894
0002f0 67 5e 13 be 70 f5 b9 bd bb ac 8e 3e 61 ce 24 3e
       -0.1439148 -0.090800166 0.27866158 0.16094352
000300 59 74 9b be f9 e5 87 be 1c 73 76 be 3e 8b 6c be
       -0.30362204 -0.26542643 -0.24067348 -0.23099992
000310 34 b7 52 3e b0 15 85 3e 95 74 17 be 91 16 33 bd
       0.20577699 0.2599311 -0.14790566 -0.043722693
000320 1b 13 69 3e 9c 01 3c 3c ee 30 5e 3e 4b 89 61 be
       0.22761194 0.011474993 0.21698353 -0.2202503
000330 eb 3e 03 3e 33 06 69 bd 16 59 c9 bd fb 6d 7a bd
       0.1281697 -0.056890678 -0.09831445 -0.06114004
000340 fc 35 77 be a1 4c 4a 3e 59 e1 4f be 0e b6 28 be
       -0.24141687 0.19755794 -0.20300807 -0.16475698
000350 44 99 bd 3d d8 8c 2d 3b a4 ef 80 be 7f c8 9b bc
       0.09257749 0.0026481654 -0.2518283 -0.019016502
000360 fa 13 13 bd 81 a3 ea bd ba 8f 2d 3e 6c 33 30 be
       -0.035907723 -0.11456967 0.16949359 -0.17207116
000370 be c5 b0 3c 27 52 51 be f8 3a 93 3e e7 f3 55 be
       0.021578666 -0.20441495 0.28755927 -0.20893823
000380 e5 54 14 be 8d 52 76 bd 68 a8 94 3e 57 0c 52 3e
       -0.1448551 -0.06013732 0.29034734 0.2051252
000390 a6 43 79 3d 09 41 a3 bc 84 a5 88 3d f6 a3 d0 bd
       0.06085553 -0.019928472 0.066721946 -0.10187523
0003a0 5f 4b de 3c 46 eb 74 bd 86 62 6e 3e 61 8d 12 be
       0.02713555 -0.059794687 0.23279771 -0.14311744
0003b0 23 ae 08 be 37 6c 8c 3c 2a 2e f7 3d fd bb 3d 3e
       -0.13347678 0.017141445 0.12069352 0.18528743
0003c0 c1 22 70 be 41 9e 19 be b7 12 95 be f5 c4 51 be
       -0.23450758 -0.15001775 -0.2911584 -0.2048529
0003d0 99 12 9b be c9 c8 56 3e 99 80 7e be f6 e7 22 3e
       -0.30287626 0.20975031 -0.24853744 0.15908799
0003e0 77 40 31 be 86 64 65 be 5a 93 64 3e 02 de 91 bd
       -0.17309748 -0.22401628 0.22321835 -0.07122423
0003f0 fd 16 2c 3e 95 bc bb bd c1 6c d1 3d 6f 68 f5 3c
       0.16805644 -0.091668285 0.10225821 0.029957024

conv1.att_dst f4 [1, 8, 64]
000000 b6 54 3d 3e f8 d3 6d be ff ae 6b be aa c8 8e bd
       0.18489346 -0.23225391 -0.23015974 -0.069718674
000010 05 32 8c be a4 7f 7f 3e 76 87 22 3e 7a a4 2b 3e
       -0.27381912 0.24951035 0.15871987 0.16761962
000020 c7 ee 90 bd 2c e2 42 3e 85 8c fa bd b0 e4 53 3c
       -0.07076793 0.1903159 -0.12233833 0.012932941
000030 01 2d 11 bd 14 be 80 be 2e 71 04 be 6f 90 40 3e
       -0.03544331 -0.25145018 -0.129338 0.18805097
000040 02 71 0b 3c dd d7 73 be c4 96 6e 3e eb f8 f7 3d
       0.00851083 -0.23812814 0.232997 0.12108024
000050 42 a0 15 3e 19 98 f0 3d cf 67 95 bd 11 f6 04 be
       0.14611915 0.1174776 -0.072951905 -0.12984492
000060 e7 1e 05 be 9f f5 56 3e 35 12 21 3e 2c cd 19 bd
       -0.1300007 0.20992135 0.15729602 -0.037549183
000070 9d d3 1a 3e 43 1e 60 3d 7f 08 96 bc cb 1f 5b 3e
       0.15119787 0.05471636 -0.018314598 0.21398847
000080 a5 5d 26 3e 82 bd 89 3d 57 8c 67 3c 99 4c 61 3d
       0.1624666 0.06725599 0.014132581 0.05500469
000090 a3 ad 4d 3e 63 44 24 3e cd 66 4d be b9 11 60 be
       0.20085768 0.16041712 -0.20058747 -0.2188176
0000a0 40 1f 10 be d5 16 5c 3e c6 b8 39 3e 90 7f db 3d
       -0.14074421 0.21493085 0.18136892 0.1071769
0000b0 c4 7b c5 3d 53 9c 88 3d 1a 49 ae 3b 7e e9 6a 3e
       0.09642747 0.066704415 0.005318773 0.22940633
0000c0 f1 4f 32 3e 71 42 8b bd f2 6a 51 3e f6 b8 89 3d
       0.17413308 -0.06799782 0.20450953 0.067247316
0000d0 24 33 fd bc cf 73 4b 3d 0a 44 88 be 67 9c a5 3d
       -0.030908175 0.04967099 -0.2661441 0.08086472
0000e0 92 e6 77 be 53 31 79 3e cf ec 49 3e df fb bc 3b
       -0.2420905 0.24335222 0.19719242 0.00576733
0000f0 2e 46 6d 3e 48 84 3f be f9 3b 8a 3e f4 67 1d 3e
       0.23171303 -0.18702805 0.2699888 0.15371686
000100 cd 9a 27 be 2e b3 12 be 52 f1 55 3e fd 49 12 bd
       -0.16367646 -0.14326164 0.20892838 -0.035715092
000110 3e bf 21 bb e1 93 0e 3e 80 ad 1f bc 53 a6 00 3d
       -0.002468064 0.13923599 -0.0097459555 0.03140862
000120 b1 98 04 be 88 e6 df 3c df 89 eb bb 8c 72 74 3d
       -0.12948872 0.027331606 -0.0071880664 0.059679553
000130 4c cc 8c be 4d ea 8c 3c 7b bf dc bd 68 f1 38 3e
       -0.27499616 0.017201567 -0.107787095 0.18060839
000140 7d 53 50 3d ff f5 62 be bc 42 b2 3d d0 e7 73 3e
       0.05086087 -0.22164153 0.08704135 0.23818898
000150 4b 0e 3b be 4d 9d 7e be 44 14 62 bc 03 c3 12 3e
       -0.18267171 -0.24864693 -0.013798777 0.14332204
000160 a4 df 4e 3e 05 cf d0 bd 54 b0 69 3e e1 5e 9a 3c
       0.202025 -0.10195736 0.2282117 0.01884407
000170 3f 70 c7 bc 10 4d 78 3d d6 1d c0 bd fd 2a 00 3e
       -0.024345515 0.060620368 -0.09380691 0.12516399
000180 fc 43 81 be 79 06 7b 3e ed 2b 05 bd ae 34 4d 3e
       -0.2524718 0.24514188 -0.032512594 0.20039627
000190 01 53 7a bd a5 7d 25 3e e4 0e 13 3e 3f 94 45 be
       -0.061114315 0.16161211 0.14361149 -0.19294833
0001a0 16 ba cf 3d ab de 0f be dc 42 99 3d 0f c6 54 be
       0.10142915 -0.14049785 0.074834555 -0.20778678
0001b0 ef 7f 63 3e 67 0f 44 be c5 e8 fc 3d 52 9b 6f bd
       0.22216772 -0.191465 0.12349085 -0.058497734
0001c0 57 12 2a be db 06 90 bd 33 ca 8f be 56 eb 72 be
       -0.16608559 -0.070325576 -0.28083953 -0.23722586
0001d0 bf be 1e bd 05 b5 52 be b0 d0 84 3e 7d 18 04 3e
       -0.03875613 -0.20576866 0.25940466 0.12899967
0001e0 7f d4 50 3e 10 7f 95 3e 56 95 31 be c2 d3 74 3e
       0.20393561 0.29198503 -0.17342123 0.23908904
0001f0 ed 96 82 3e df d7 16 3e 42 cc be 3d f4 7e ec bd
       0.25505772 0.14730786 0.09316303 -0.11547652
000200 5c 0c 43 bd 7d d9 8e bd ce 57 cc bd 59 47 53 3e
       -0.04761921 -0.06975076 -0.09977685 0.20632686
000210 72 b0 af bc 33 0d 87 be f6 93 35 bd e2 d0 25 3c
       -0.02144644 -0.26377258 -0.04433056 0.010120602
000220 ac 71 21 be d0 c7 98 3d 9d d3 6b 3e 56 a1 23 bd
       -0.15766019 0.07459986 0.23029943 -0.039948784
000230 95 13 39 be 81 0b 89 bd e5 4f 12 3d de b3 79 3c
       -0.18073876 -0.06691647 0.035720725 0.015240638
000240 19 62 09 be ce 3c 10 3d 25 78 7c 3d 96 e7 12 3e
       -0.13416328 0.035214238 0.061638016 0.14346156
000250 50 4a 7d 3d 2e 99 2c be f3 13 94 3d 52 7d c8 3d
       0.061838448 -0.16855308 0.072303675 0.09789528
000260 41 8f 0f 3e 75 f3 a5 bd 00 5e 64 be 21 a8 84 3d
       0.14019491 -0.08103076 -0.22301483 0.064773805
000270 ee c4 67 be 26 6b 13 be 2f 6d 2e 3e 24 06 29 3e
       -0.22633716 -0.14396343 0.17033838 0.16506249
000280 d6 ae 90 bd 4f 02 97 3e b7 de d0 3b 09 dd c5 bd
       -0.07064597 0.2949395 0.006374206 -0.096613
000290 55 7d 00 3e 5a 76 43 be 4a e1 07 bd b2 94 79 3e
       0.1254781 -0.19088116 -0.033173837 0.24373129
0002a0 a6 a0 be 3d 2e 96 7a 3e 79 54 25 3e 73 37 68 bd
       0.09307985 0.24471352 0.16145505 -0.056693505
0002b0 cf ef 55 3e aa 5e 50 3d c5 00 46 3e b5 22 94 bc
       0.20892261 0.05087153 0.19336231 -0.018082956
0002c0 a9 09 2c 3e bd f0 46 3e 5c c0 61 3e c8 c2 ca bc
       0.1680056 0.19427772 0.22046036 -0.024751082
0002d0 b3 1d af 3d 0b 2f a2 3c 81 03 38 3e af 8e 9d 3c
       0.085505866 0.019797822 0.17970087 0.019233076
0002e0 67 14 ec bd 63 ac 40 be 89 53 6e 3e d9 2b 19 be
       -0.11527329 -0.1881576 0.23274054 -0.14958133
0002f0 f3 c2 95 3d 39 c9 b9 bc 6f fd 31 3e 71 7e b5 bd
       0.07312574 -0.022678958 0.17381833 -0.088620074
000300 b3 3c 73 be c6 d5 27 3d 0d b8 44 3d 02 48 0f ba
       -0.23753624 0.040975355 0.048027087 -0.0005465747
000310 14 5f 21 3e 44 b6 8f 3d 2d be 0c be 5d ef 06 3e
       0.15758926 0.07017186 -0.13744421 0.13177247
000320 ee df 62 3e f6 9e e6 bd 27 d2 7f be 7b 89 f1 3c
       0.22155735 -0.11260788 -0.2498251 0.029484501
000330 a5 57 06 3e 34 36 86 3e 4d 0d 35 3d 3b 8f 5f 3e
       0.13119371 0.2621323 0.044202138 0.21831982
000340 e3 a8 20 be d3 2f fd 3d a9 69 61 be 82 26 76 3e
       -0.15689425 0.12362637 -0.22012962 0.24038127
000350 fd 1e 6d be 47 1c a0 bd 75 f5 98 be 2a f5 ae bc
       -0.23156352 -0.078178935 -0.2987477 -0.021357138
000360 c0 51 5c 3e 1b c8 94 3c 13 1f ab bd bd 6a 5c 3e
       0.2151556 0.018161824 -0.08355536 0.21525092
000370 1c 12 17 be c5 f4 3d be 40 08 51 3d 5d 3a ce 3d
       -0.14753002 -0.18550403 0.05103326 0.10069726
000380 1d 68 6a be 66 c5 b3 bd 05 b8 0b 3d 81 31 ec bc
       -0.22891279 -0.08777885 0.03411104 -0.028832199
000390 7f b7 4a bc 8d 02 5f 3e 05 9d eb bd 0a ea 21 be
       -0.01237285 0.21778317 -0.115045585 -0.15811935
0003a0 54 4c b5 bd 2d 36 39 be ac 73 00 be 25 34 91 bd
       -0.08852449 -0.18087073 -0.12544125 -0.07090024
0003b0 d4 ea 88 3c 2d 90 2e 3c a7 06 1c 3e 10 1b 99 3d
       0.016713537 0.010654491 0.15236913 0.07475865
0003c0 f9 e4 15 be 7a b7 b4 3d f1 0e 8b be a1 05 5a 3c
       -0.14638127 0.08824058 -0.27159837 0.013307006
0003d0 37 2e 0b 3e 3b c2 f7 bd 0c cc 45 be 9d 51 e0 bd
       0.13591848 -0.120975934 -0.19316119 -0.109530665
0003e0 a5 83 01 3e 1b 87 9c be 6b 0a 78 be 51 97 0b be
       0.12647875 -0.30571827 -0.24222724 -0.13631941
0003f0 c6 c2 39 be b2 c2 5b 3e da db ea 3d c6 fd 76 3e
       -0.18140706 0.21460989 0.114677146 0.24120244

conv1.bias f4 [512]
000000 ff d5 32 3c 2e e0 be 3c ad 19 78 bb 62 c6 f8 3c
       0.010915278 0.023300257 -0.00378571 0.030368034
000010 e0 b4 48 3c f8 c9 ab 3c 4a 60 49 3d 45 4c ec 3c
       0.012250155 0.02097033 0.049164094 0.028844962
000020 2b dc 5a bb fb b5 d4 3c 58 32 20 bd 2b 45 2d 3a
       -0.003339539 0.025965681 -0.03911051 0.0006609733
000030 0f 4d 5e bc 86 3c b3 bc 11 c1 8f bc 25 30 12 3c
       -0.013568177 -0.021879446 -0.017548116 0.008922611
000040 37 2b c0 bc fc c8 f6 3c 81 26 3e 3c 86 c4 ca 3b
       -0.023458106 0.030125134 0.01160586 0.006187978
000050 cf b3 92 bc d8 b0 83 bc 31 78 0e 3d f4 5c b1 3c
       -0.017908005 -0.016075537 0.034782592 0.021650769
000060 dc 46 9c 3b 3e a8 91 bc 2a 8d 63 bd c8 ff cd bc
       0.0047691893 -0.01778042 -0.055554546 -0.02514638
000070 b9 b4 dc bc a8 d7 4c bc 0d f5 03 bd cd 61 05 3d
       -0.026941644 -0.012502588 -0.03221612 0.032563973
000080 a2 61 95 3c bb 78 04 bd bf 3b 21 bd 8b c4 d4 3c
       0.018235032 -0.0323417 -0.03936362 0.025972625
000090 c8 35 00 bd 36 6e 1a bd 65 a2 e9 bc 18 fb 87 3c
       -0.03130129 -0.03770276 -0.028519819 0.016599223
0000a0 49 3c 5c bb 8d 6e b0 bb 38 7e ca bb a4 00 0f 3d
       -0.0033605269 -0.0053842724 -0.006179597 0.03491272
0000b0 f0 1c 54 bc e2 04 4a bc 7d 34 1f bd 50 d2 b9 bb
       -0.012946352 -0.012330266 -0.038868416 -0.005670823
0000c0 ac d8 21 bc e3 45 1b bd 9b 56 01 bb 84 a0 cd b9
       -0.009878319 -0.037908446 -0.0019735459 -0.0003922024
0000d0 d1 4c 16 bd 10 9f d2 bc f3 35 4a bd b2 b7 09 bd
       -0.03669435 -0.025710613 -0.049367856 -0.03362245
0000e0 26 3c cc bc a6 f0 a5 3c ae 81 b8 bc af 9a f2 bc
       -0.024931025 0.020256352 -0.022522774 -0.029614775
0000f0 45 7e e8 3c fd 23 f5 3b f6 2a 52 bc 0c 0e f1 bb
       0.028380523 0.007481097 -0.0128276255 -0.007356411
000100 2b 30 2d bd 60 68 57 bc eb 43 d0 bc 83 fa 18 3b
       -0.042282265 -0.0131474435 -0.02542301 0.0023342676
000110 d8 83 21 bc b7 95 8e bb 50 27 87 3c 9d 64 87 3c
       -0.009858094 -0.0043513435 0.016498238 0.016527468
000120 ad 21 21 bd 0a 1f 5c bc 5d ac 12 bb 75 fd ed bc
       -0.039338756 -0.013435135 -0.0022380569 -0.029051522
000130 e9 e9 66 bc f5 28 42 bd f1 cf d7 bc b2 46 7f bd
       -0.014093854 -0.04740234 -0.026344271 -0.06232328
000140 63 54 03 3d 48 61 c4 bb 8f f0 20 bc 10 06 fe b9
       0.0320629 -0.005993042 -0.009822979 -0.00048451172
000150 60 4e 1b 3c 14 21 6e bc 85 70 d0 bc 92 8c f6 3b
       0.009479135 -0.014534254 -0.025444278 0.0075240815
000160 9f 36 5b 3c 2d 1f 10 3d fa 80 49 bc f5 be 03 bd
       0.013379722 0.03518598 -0.012298817 -0.032164533
000170 d9 57 f2 3a fe e2 40 bc ff f6 49 bd 31 d7 fa 3b
       0.0018489315 -0.011772869 -0.04930782 0.0076550473
000180 64 d5 db bc e2 ef 9a 3b e4 6b b4 3c e6 05 1f bb
       -0.026835151 0.0047283033 0.022024103 -0.002426499
000190 b6 f9 87 3a c8 ef 82 bc 2d 01 b2 3b 90 dc a8 3a
       0.0010374102 -0.015983477 0.005432269 0.0012883116
0001a0 0f 1a 9f bc 35 24 93 bc 6c f5 dd 3a 47 17 95 bc
       -0.019421605 -0.0179616 0.0016934103 -0.018199576
0001b0 70 c7 fc bb 13 3a cb bc 41 df 18 bd a3 e6 89 3c
       -0.0077142045 -0.024807965 -0.037322287 0.016833609
0001c0 77 48 99 3b 18 af c7 bb f3 e0 22 3c 0f 65 f8 bc
       0.004677828 -0.006093871 0.009941327 -0.030321626
0001d0 35 ff 65 3b 0b 65 a2 3c d8 8a 33 3d 42 74 c4 bc
       0.0035094742 0.019823572 0.043833584 -0.023981217
0001e0 c3 c1 8d 3c 2d f9 2a bd 1c 5c 9b 3c 11 41 19 3d
       0.017304307 -0.04174154 0.01896482 0.037415568
0001f0 9d 28 9f bc e4 10 ef bc d7 d9 96 bc a0 75 ff bc
       -0.019428546 -0.029182859 -0.018414421 -0.031184018
000200 32 b3 2b bc 86 98 21 bc ea 1f c9 3c e8 1b b0 bc
       -0.010479735 -0.009863025 0.02455135 -0.021497682
000210 e7 5c 0e b9 3b 1d 1a 3d ea e6 27 bd ab 7e 9a 3c
       -0.00013576784 0.037625533 -0.0409917 0.018859228
000220 5a 21 ed 3b 66 9e 6d 3c b3 66 9a bc 19 d0 e8 bc
       0.007236642 0.014503097 -0.018847799 -0.028419541
000230 a0 41 f7 bc 18 36 08 bd 71 e2 ee 3c 35 6c 5f 3c
       -0.03018266 -0.033254713 0.02916071 0.013636638
000240 1a 74 c0 bc be d9 33 bd b2 fe 16 ba 97 98 d6 bb
       -0.023492862 -0.043908827 -0.00057599985 -0.006548952
000250 b5 dc 74 3b 2e ad 6b bc 29 dd b0 bc e8 e5 61 3c
       0.0037362997 -0.014384551 -0.021589832 0.013787724
000260 be 6e 1b 38 35 88 07 bd a1 66 9b bc 4a 54 a2 3c
       3.7058016e-05 -0.03308888 -0.018969836 0.019815583
000270 be 02 fe 3b 66 f9 ae 3a ff de 25 bc db b8 c4 3c
       0.0077517917 0.0013349473 -0.010123967 0.024013927
000280 56 6d b3 3c a4 23 4e bc 62 e2 e1 3c 44 07 c4 bc
       0.021902721 -0.01258174 0.027573768 -0.023929246
000290 86 70 ba 3b 4d 12 10 bc 92 50 34 bd b7 d8 b8 ba
       0.0056896834 -0.008793426 -0.04402215 -0.0014102672
0002a0 56 27 26 b9 0f a0 8d bc 26 3f d0 bc 89 b4 c2 3b
       -0.00015845647 -0.017288236 -0.025420737 0.0059419316
0002b0 4d 6d 1e bc a3 32 05 bd b4 dd 4c 3d fc a4 89 ba
       -0.009669614 -0.032518994 0.05001612 -0.001050144
0002c0 66 49 07 3d e7 fb 02 bd 8c 24 21 3d fd 38 d3 bc
       0.033028983 -0.031978514 0.039341494 -0.02578401
0002d0 b2 80 e9 bb f4 3d 0a bd 0d 2d f3 bc a2 ce ee bc
       -0.0071259374 -0.03375049 -0.029684568 -0.029151265
0002e0 f4 c6 0d bd 83 49 46 bd 63 c8 a1 3c 5f 7f 45 bc
       -0.034613565 -0.04840995 0.019748872 -0.012054293
0002f0 0f c4 f6 bc a5 7d 66 bd 71 12 7a 3c 51 3f f2 3c
       -0.030122785 -0.056272168 0.015263186 0.029571207
000300 71 c9 f8 bc 14 ac 64 3a 65 fa 3e bb 43 86 01 bc
       -0.030369492 0.00087231514 -0.0029140946 -0.007905546
000310 9f b6 32 3b 00 1e a2 3b 51 31 40 bd b2 f2 9a 3c
       0.0027269495 0.004947424 -0.04692203 0.018914554
000320 bf 84 12 3a 9f 5d 65 3c 4d 31 0f bd 1a 87 b5 bc
       0.0005589239 0.013999372 -0.034959126 -0.022159148
000330 f9 02 43 bc c8 a3 80 bc 8a 52 56 3c 41 80 85 3c
       -0.011902564 -0.015703097 0.013081202 0.016296508
000340 96 f4 94 bb 5e d1 cb 3b a1 73 af 37 d9 21 cd 39
       -0.0045457585 0.006220027 2.091547e-05 0.00039125865
000350 0a 8b 2d bc cc bd 01 bd d5 16 f5 bb 6d 30 29 3d
       -0.0105922315 -0.031675145 -0.0074795284 0.041305948
000360 ae be a0 38 1a 96 ce bb f4 25 75 3c 67 60 49 bc
       7.6649114e-05 -0.0063045146 0.014962662 -0.0122910505
000370 c7 32 e3 bc 49 db 35 bd 5b 37 0b ba c3 b8 f3 bb
       -0.027734173 -0.04439858 -0.0005310678 -0.007437797
000380 d3 ca 44 3b 56 45 2c 3c fe 6a d3 3b 19 27 cc bc
       0.003002812 0.010514578 0.0064519634 -0.024920987
000390 ed 82 f1 3c 22 70 e0 3a 9d 32 be bc dc 26 7f bc
       0.029481376 0.0017123262 -0.023217494 -0.01557323
0003a0 1b 7f cb 3c d8 66 ea bc f2 9d 05 bd 4a 4c a3 bb
       0.024840882 -0.028613493 -0.03262133 -0.0049834596
0003b0 7d d1 08 bd 04 f8 96 3c 80 52 bc bc ce 92 8a 3c
       -0.03340291 0.01842881 -0.022988558 0.016915705
0003c0 70 d2 0b bc ca 7d 8a bc ba 06 10 bd 9a 5a 54 3c
       -0.008534059 -0.016905684 -0.035162665 0.012961054
0003d0 e8 92 ff bc 1b 74 28 3c 4e 25 dd bb 08 42 69 3c
       -0.03119798 0.010281588 -0.006748832 0.0142369345
0003e0 08 a2 90 bc 62 ff 27 3b 97 e6 2b bc c0 ee 14 3c
       -0.017655388 0.0025634398 -0.010491989 0.009090126
0003f0 3e de 5b 3c f9 99 eb 3b 9c 0a 64 3c 1d 07 df bb
       0.013419686 0.007189986 0.013918545 -0.006806268

conv1.lin.weight f4 [512, 60]
000000 b6 87 ec bd c6 3d e4 3d 31 19 16 bb 91 f5 db bb
       -0.11549322 0.11144595 -0.00229032 -0.0067126234
000010 a1 a3 45 3d 20 13 8b 3c 87 19 20 3d cd c2 28 3d
       0.04825175 0.016976893 0.039086845 0.0412014
000020 db a8 bb 3d a3 67 e4 bd 27 74 08 bd 3a a5 dc 3c
       0.09163066 -0.1115258 -0.033313897 0.026934255
000030 ee b2 f9 bc 9a 8a 99 bd b5 7e 1a 3d 0d 2f f2 bd
       -0.030480828 -0.07497139 0.037718493 -0.118253805
000040 0a a2 17 bd 01 9e f6 bc da 4f 65 bd 36 0b d0 bc
       -0.037019767 -0.030104639 -0.055984356 -0.02539597
000050 03 fd 2a 3c f8 b5 20 bd 5f 4a cc bd 74 20 0c 3d
       0.010436299 -0.03923604 -0.09975123 0.034210637
000060 8a 41 7d bd 7c e8 49 3c d2 1a 5c bd 02 34 5c 3d
       -0.06183008 0.012323495 -0.053736515 0.053760536
000070 a7 b2 c9 bd 98 4d a7 bc 33 44 63 bd 8b 18 b6 bc
       -0.09848528 -0.020422742 -0.05548496 -0.0222285
000080 70 c0 5e bd 8b 81 66 3d 54 b4 9f bb f0 61 3a 3c
       -0.05438274 0.056275886 -0.0048737917 0.011375889
000090 f5 f7 c3 3c 72 47 3b 3d 3d 91 af 3d 5d 4a ca bc
       0.023921946 0.045722432 0.08572624 -0.024693662
0000a0 67 ff ba 3d be 79 b7 bc 76 3f 84 bd bf b9 b6 3c
       0.091307454 -0.022396918 -0.06457417 0.022305368
0000b0 b3 98 72 ba fb 17 5c bd bf 03 1c bc 14 11 67 bd
       -0.00092543213 -0.053733807 -0.0095223775 -0.05641277
0000c0 d6 f5 18 bd af 6e 69 3d 76 72 00 b9 87 ee 6c bd
       -0.037343822 0.05699032 -0.00012249671 -0.057844665
0000d0 cd ff 0b bc 79 61 de bc df 47 b2 bd 05 38 2c bd
       -0.008544874 -0.027146088 -0.087051146 -0.042045612
0000e0 ad ef 72 3d 21 43 8d 3d a5 af 58 bd cb 6d f3 3b
       0.059310604 0.068975694 -0.052901883 0.00742886
0000f0 57 ef db 3c 4d 8e c6 3c d5 c4 82 bb a2 24 f2 bc
       0.026847525 0.024237776 -0.0039907494 -0.029558484
000100 84 09 d7 bb 49 39 82 3c a6 0c 64 bd 48 44 1d bc
       -0.0065624136 0.015896456 -0.055676125 -0.009598799
000110 a5 4f 6e bc 8d f5 61 bd a0 53 91 bd f2 24 0f 3d
       -0.014545356 -0.055165816 -0.07096028 0.034947343
000120 76 58 c6 bd 6f 90 fe 3b 7e 92 c9 3c 09 3a b3 3c
       -0.09684841 0.0077686827 0.024605986 0.02187826
000130 c8 88 57 3d 1d 15 45 3c ce 46 c9 3d bb 3e 95 3d
       0.05262068 0.01202896 0.09827958 0.072873555
000140 ec 79 29 3d fa b5 2c bd ca fc a8 b9 0d de 8d 3d
       0.04137604 -0.042165734 -0.000322318 0.069271185
000150 23 a7 05 bd b0 bb 8f 3b 76 02 8d bd b9 38 41 3d
       -0.032630097 0.0043863878 -0.06885235 0.047173236
000160 38 2b 8a 3d 4a b5 37 bd 34 6d 4d 3d 8e 84 83 bc
       0.067465246 -0.044850625 0.050152972 -0.016054418
000170 a5 11 15 3d 1b 6a 43 3d 82 2a bc bc 1b 75 48 3c
       0.03639378 0.047708612 -0.022969488 0.012234951
000180 ca f0 00 3d f2 b7 21 3d 9b 01 80 3c 92 c0 94 bc
       0.031479634 0.039482065 0.015625766 -0.01815823
000190 6e 54 da 3d 6f 06 7a 3d 7b fc 20 3a f0 76 5e 3d
       0.10660635 0.06104129 0.0006141138 0.054312646
0001a0 91 88 35 3c a5 38 03 bd 3d f9 d9 3a dc 90 48 3c
       0.011079923 -0.032036442 0.0016630065 0.012241568
0001b0 c8 29 65 bd 8e 89 41 3c 20 4d a5 bb a2 e8 9c 3c
       -0.05594805 0.011812581 -0.0050445944 0.019153897
0001c0 4f 97 5c bc 8a 4f ab bb 72 a5 a2 39 78 f1 b4 bc
       -0.013463809 -0.0052279877 0.00031022314 -0.022087798
0001d0 d2 c1 5e 3d 08 c5 af 3d b7 b9 5e bb f4 3a bc 3b
       0.05438406 0.085825026 -0.0033985206 0.0057443324
0001e0 44 dc 9c 3d fe 01 6d bc 30 f8 31 bb fc e1 a9 bb
       0.076592 -0.014465807 -0.0027155988 -0.00518441
0001f0 65 e3 26 3d 54 cc ce bc 29 72 e4 bd 0d 7a f4 3c
       0.040744204 -0.025243916 -0.11154587 0.029843355
000200 84 21 50 bd 0a d7 03 bc 17 e5 9c 3c f3 96 12 3c
       -0.050813213 -0.008046875 0.019152207 0.008947122
000210 66 73 a0 bd 57 8a 87 bd a4 e1 fc 3d 34 d1 58 3c
       -0.078345105 -0.06618183 0.12347725 0.013233472
000220 87 22 38 3d 20 1f 98 3c 70 fc 8f bd 9c 37 bf bc
       0.044954803 0.018569529 -0.070305705 -0.023341946
000230 68 01 c4 bc b1 df a0 3b 4f be 86 bd cf c4 d5 3c
       -0.023926452 0.0049094786 -0.06579267 0.026094822
000240 2b eb 95 3d 16 f3 b8 3a 62 61 95 3d 07 3a 02 3d
       0.07320245 0.0014110531 0.07293965 0.03179362
000250 8a 8b 71 bd b9 bd 9a bd f8 5b 11 bc 37 2a ef 3c
       -0.058970965 -0.07555718 -0.008872025 0.029194934
000260 cd b4 80 bd 4b 5f 9f bd 1f 48 16 3d fa 34 53 bd
       -0.06284485 -0.077818476 0.036689874 -0.051564194
000270 c6 13 db 3d 43 f1 73 bc 6b 73 4d bc b4 d5 eb 3c
       0.10697131 -0.014889064 -0.012539725 0.028788425
000280 13 7c bd 3c b0 ab da bb f4 a9 3d bd 8b 7b 0b bc
       0.023130452 -0.006673299 -0.046304658 -0.008513342
000290 ec bc 99 bc 80 42 4b bc 91 1b 45 bc e1 96 21 3c
       -0.018766843 -0.012405992 -0.012030498 0.0098626325
0002a0 4e 3a 97 bc 91 66 2b 3b 1a 1c fa bb b9 e7 63 bc
       -0.018460419 0.0026153664 -0.0076327445 -0.013910227
0002b0 6a 77 3f bc cf ee 82 bc 2e 27 d0 bc ae 2b 37 bd
       -0.011686185 -0.015983013 -0.025409307 -0.04471939
0002c0 8e 4f 81 3d 32 18 82 3d 8f f8 4e bd 74 70 57 bd
       0.06314002 0.06352271 -0.050530013 -0.052597478
0002d0 dc 49 f7 3c 47 f9 64 bd 92 13 41 3c 0d 95 37 bc
       0.030186586 -0.055901792 0.011784451 -0.01120497
0002e0 81 6a 75 bc 96 be ad 3c e7 b9 10 3c a2 79 2e bb
       -0.014979006 0.021209043 0.008833385 -0.0026622792
0002f0 1b 89 06 bc 58 b1 06 3d c5 fb b6 bd 6c 1b 75 3d
       -0.008211399 0.032883972 -0.0893474 0.059840605
000300 80 fc 99 3c 9b d6 b1 bd d6 cf 97 3c ac ea 63 3d
       0.01879716 -0.08683511 0.018531721 0.055643722
000310 8a ac 1d bd 77 ba ce 3c e7 d0 f8 3c d7 b0 31 3b
       -0.038494624 0.025235398 0.03037305 0.0027113461
000320 34 7a 51 3d 2f 89 9c bd 98 33 7b 3d de 18 a2 bc
       0.051141933 -0.07643353 0.0613285 -0.019787248
000330 37 42 b4 3d b3 74 6a bb 24 0b 99 3d ed ab ce bc
       0.08801692 -0.0035775125 0.07472828 -0.025228465
000340 34 51 2d 3b c6 d3 6d 3c 84 5d 91 bd eb 4a 3b 3c
       0.0026446106 0.014515823 -0.07097915 0.011431436
000350 3c 15 7c bd be b5 34 3c 96 07 e9 bc a7 13 6c bc
       -0.06154369 0.011029659 -0.028446 -0.014408982
000360 26 ea b4 3c 1b 3a a9 bc fe 4f e5 bc 58 35 53 3b
       0.022084307 -0.02065759 -0.027992245 0.003222784
000370 c1 20 03 bd 6f 24 49 3c 1b f9 36 3c c9 06 33 b9
       -0.03201366 0.012276753 0.01116779 -0.00017073298
000380 f2 cd ce 3c 3b 4d 09 3d 07 ad 6e 3c ff 81 50 3c
       0.025244687 0.03352092 0.01456762 0.012726306
000390 22 43 90 3c b1 bd 81 3c a9 f9 63 3c b4 13 e1 3c
       0.017610136 0.015837522 0.013914504 0.027475215
0003a0 4d be 16 3c 4b db 16 3d 1a 7c 93 3c 6e 5f a2 bc
       0.009200645 0.036830228 0.018003512 -0.019820895
0003b0 46 3d a8 bd ce 4c 9a bb 76 79 1a 3d 18 82 79 3a
       -0.08214812 -0.004708863 0.03771349 0.00095179817
0003c0 c0 fe 27 bd b1 f7 0a 3d 87 f2 31 3c 26 8d ce 3c
       -0.041014433 0.033927623 0.010861046 0.02521379
0003d0 fd 2a 98 bc 1c 23 c4 bb 79 4e 64 bc d1 03 bd 3d
       -0.018575186 -0.0059856307 -0.013934725 0.092292435
0003e0 67 24 d7 bd db 45 10 3d 38 15 07 bd 63 a7 99 bc
       -0.1050499 0.03522287 -0.03297922 -0.018756574
0003f0 94 99 58 bd 28 63 a4 3d 74 7a 1e 3d a2 cd d3 bd
       -0.05288084 0.08026725 0.038691 -0.10341956

conv2.att_src f4 [1, 1, 3]
000000 bf 8b 96 3f fe 99 58 bf 66 53 4d 3f
       1.1761397 -0.84609973 0.8020538

conv2.att_dst f4 [1, 1, 3]
000000 ae 0f 26 bf 72 c0 be be 0b f5 90 3f
       -0.64867675 -0.372562 1.1324781

conv2.bias f4 [3]
000000 e9 f9 7e 3b 8b 64 23 bc b7 61 69 3b
       0.0038906282 -0.009972702 0.003561122

conv2.lin.weight f4 [3, 512]
000000 df 4e d2 3c b2 b4 6a 3d 2f 76 37 3d 4f 1e f1 3c
       0.025672374 0.05730123 0.044790443 0.029433398
000010 da ac 5a 3d 8e 98 0c 3d fe 6a 7d bd ba a8 ce bd
       0.0533875 0.034325175 -0.061869614 -0.10090776
000020 e9 e3 db 3d 56 de 09 3d e0 af 5c 3d e6 c8 13 3d
       0.1073683 0.0336593 0.053878665 0.036080264
000030 fe ab 82 bc fe 66 43 3d 0b 9a 6a 3d 52 5a 80 bd
       -0.015951153 0.047705643 0.057275813 -0.06267227
000040 54 75 96 bc 27 21 b1 bd 86 91 8a 3d 43 a7 8a 3b
       -0.018366493 -0.086489014 0.06766038 0.004231365
000050 ae 37 cf bc d4 88 b1 bd 04 ca 99 bd 2f 53 ad bc
       -0.025295105 -0.08668676 -0.075092345 -0.02115783
000060 1a b4 28 bd 73 28 43 bc 49 8c ce bd 27 94 92 bd
       -0.041187383 -0.011911499 -0.10085351 -0.07157164
000070 a1 17 c0 bd 6e eb 82 3d f0 30 30 3d f3 74 6f 3d
       -0.09379507 0.06392561 0.04301542 0.05846114
000080 71 bf b8 3d 6c 6b 6e 3d 6b 06 1e bd a7 41 7b 3d
       0.090208896 0.058207914 -0.03858034 0.061341908
000090 6b 73 c4 bc 30 b2 80 3d aa 13 1c 3d b4 21 0a bd
       -0.023980817 0.062839866 0.03810469 -0.033723548
0000a0 20 ae 2e 3d 4f 95 49 3c a6 fe 0e 3d 94 97 8c bd
       0.042646527 0.012303664 0.03491082 -0.06864849
0000b0 e4 a4 85 3d 25 01 5e 3d ce 3e 8e 3d 6e bc b2 3d
       0.06525591 0.05420031 0.06945573 0.08727346
0000c0 04 26 67 3b f1 1d 05 3d c7 77 aa 3d df ea 16 bd
       0.0035270462 0.032499257 0.08323627 -0.036845084
0000d0 f7 f0 93 3d 1d b4 b0 3d 6e 4b 2d bd 4e b1 89 3c
       0.07223695 0.08628104 -0.042308263 0.016808178
0000e0 f2 a1 ea 3c b2 a1 0d bc 31 ec 3e 3b a2 cc 3c bd
       0.028641675 -0.008644508 0.002913248 -0.04609359
0000f0 68 c3 80 3d 94 56 cf 3c 68 80 7a 3b 8d f3 de bd
       0.06287271 0.025309838 0.0038223509 -0.108862974
000100 af 5a ba bc 81 44 bc 3d 8a bc 18 bd bc de 8c bd
       -0.02274832 0.091927536 -0.03728918 -0.06878421
000110 b2 9e bb 3d f9 79 60 bd b5 cc 22 bd e5 3a e8 3d
       0.09161128 -0.054803822 -0.039746005 0.11339358
000120 0d 7f 2b 3d f4 7c 49 bc 1e 84 72 3d a7 7e c4 3c
       0.041869212 -0.012297858 0.059208028 0.023986174
000130 ae 19 2b bd 7e 64 79 bc b2 c1 c4 bc d6 75 e0 bd
       -0.041772537 -0.015221713 -0.024018142 -0.109599754
000140 11 1a cc 3b 5f 45 83 bc 74 82 4f 3c dd 76 4b 3d
       0.0062286933 -0.01602429 0.01266538 0.049673904
000150 20 fb 82 bd fe 68 bb bc a6 ec 11 bd 37 51 b6 3d
       -0.063955545 -0.022877213 -0.035626076 0.08902209
000160 18 09 a4 bd 0e f9 d5 bc 96 a9 42 37 a7 2a ae 3b
       -0.08009547 -0.026119735 1.1602786e-05 0.005315143
000170 a7 88 73 3b 58 46 a1 3a ec 42 3d bd 03 4c 45 3c
       0.0037160309 0.0012304289 -0.0462064 0.012042048
000180 81 ea 8b bd f0 a9 c6 bc 10 3b b5 ba 4c 37 ed bc
       -0.068318374 -0.024250954 -0.0013826806 -0.028957032
000190 40 14 80 3d 98 be 74 bd c3 aa b2 3c 92 f6 54 bd
       0.062538624 -0.059752077 0.021809941 -0.05199296
0001a0 51 d5 85 3d 5f 53 b7 bc c6 29 c9 3d 79 fb e8 3c
       0.065348275 -0.022378622 0.09822421 0.028440224
0001b0 a4 3c bf 3c e5 ea 11 bc 7c b5 5b bd 3e 82 43 bd
       0.023344345 -0.008906101 -0.053639874 -0.04773163
0001c0 4a d5 4b bd a0 4c 87 3d b5 30 4f 3d 13 21 54 3c
       -0.049763955 0.06606412 0.05058356 0.012947339
0001d0 59 e9 13 bd 12 1f bd bd ae d9 63 3d eb e9 d0 3c
       -0.03611121 -0.09234442 0.055627517 0.025502166
0001e0 c2 0d a9 3d 00 76 3e 3d c9 23 85 3d e5 e7 c3 3d
       0.08254577 0.046499252 0.06500966 0.09565715
0001f0 f0 db ab 3d 83 c4 01 3c 34 5b 07 3d a5 e7 70 3d
       0.08391559 0.007920387 0.033045962 0.058814663
000200 9a 65 10 3d 0b 2a 66 3d af ec 63 bd e8 fd a5 bd
       0.035253145 0.05619244 -0.05564564 -0.081050694
000210 c1 51 83 bc aa 06 f3 3b 71 20 c7 bc e7 2a d3 3d
       -0.016030194 0.007416566 -0.024307461 0.10310917
000220 1e a2 db bc 80 e7 9a bd 6a e3 a7 3d f8 ff ef bb
       -0.026810702 -0.07563686 0.08197673 -0.007324215
000230 22 3b 85 bd 58 88 b9 3d ea 0a dd bd 9a b8 fc bc
       -0.06505419 0.09059209 -0.10793097 -0.030849744
000240 7b 2c b9 3d a9 d4 8e bd 04 f8 0c bd 65 be ac bd
       0.09041687 -0.069741555 -0.034416214 -0.084347524
000250 33 c5 68 3d ae 09 7d bc df 4c 31 ba 21 65 c7 bd
       0.05682869 -0.015444202 -0.0006763469 -0.09736086
000260 06 7d dc bc 5d da 7e 3d 38 c4 51 3c dc a3 69 bd
       -0.026915085 0.062219966 0.01280313 -0.057041034
000270 08 bb c5 3c ea 12 66 bd ea 43 88 bc ca ce 84 3b
       0.024137035 -0.05617038 -0.016633946 0.0040529715
000280 71 a2 48 bd 25 9b 28 bd d0 65 db bc 54 06 0f bd
       -0.04898304 -0.041163582 -0.026781946 -0.034918144
000290 83 89 8a bd ad 4e f8 bd 10 02 b4 3c 6c 4f 9a 3d
       -0.067645095 -0.12124381 0.02197364 0.0753468
0002a0 37 e1 e3 3d a5 4e ac bd e0 fe 9f bc 5e 0f 0c be
       0.11126941 -0.08413438 -0.019530714 -0.13677737
0002b0 5c 10 6b bd a0 41 6d bd 30 b2 0f bd 2d bd dd bc
       -0.05738865 -0.057923913 -0.035082042 -0.027067745
0002c0 8c 36 50 bd 9f 31 82 bd bf 07 2a bd fd 5b fd bd
       -0.05083327 -0.06357121 -0.041511294 -0.12371061
0002d0 79 c6 49 3d a2 c9 ef 3c 75 5a e3 bc 78 e1 cf 3d
       0.049261544 0.02927095 -0.027753094 0.101504266
0002e0 b6 29 ae bd fe 39 9e bd 7b 12 54 3d 23 30 b5 3d
       -0.085040495 -0.07725905 0.051775437 0.08847072
0002f0 ab d2 53 3d 2b ba 32 3d a7 f7 88 3d f7 fa 42 bd
       0.05171458 0.043634575 0.06687861 -0.04760262
000300 58 6c 01 3d 39 92 9f bc e1 bf 95 3d ca 26 55 bd
       0.031597465 -0.019478904 0.073119886 -0.052038945
000310 17 42 23 bd bb ff 60 bc 4c 64 89 3d aa ba ae 3d
       -0.03985795 -0.013732846 0.06708583 0.08531697
000320 b0 a0 f9 3d 6d 39 ae bd 03 9f 53 bd 67 df bc 3c
       0.12188852 -0.08507047 -0.051665317 0.023055745
000330 5a 8c 92 3c ef 86 a0 3d 0a d0 e5 3b 6f 78 96 3c
       0.01788919 0.078382365 0.0070133256 0.018367974
000340 ca 78 c8 bd 3d 1f 8d 3d f5 35 cc 3c fa 18 af bd
       -0.09788664 0.06890724 0.024928072 -0.08549686
000350 51 79 48 3d d5 5d 47 3d 26 a9 8b bd 37 64 b0 bd
       0.04894382 0.04867347 -0.06819372 -0.086128645
000360 4c 21 61 bd 39 a6 6b 3c a2 b5 35 bd 37 be f1 3b
       -0.054963395 0.014382892 -0.04436267 0.0073774117
000370 a1 74 54 bd 91 39 79 3d c3 0c fa bc 1a 4d 9d bc
       -0.05186904 0.060845915 -0.030523663 -0.019201804
000380 be 76 12 3d e2 97 7f bd 9e 91 70 bb 0e 77 08 3d
       0.035757773 -0.062400706 -0.0036707888 0.033316664
000390 1c bb bf 3d c7 6a 81 3d 67 52 18 bd 87 7e 0c 3c
       0.0936186 0.06319194 -0.03718796 0.008575088
0003a0 d4 2c 1c bd 8a ec 1b 3d c8 9a b9 3d a8 4b 80 3d
       -0.03812869 0.038067378 0.09062725 0.0626443
0003b0 8f 87 f7 bd 4c db d5 bd e4 c0 c3 bc 68 2c 20 bd
       -0.120864026 -0.10442218 -0.023895688 -0.03910485
0003c0 91 fc 92 bd f8 15 7d 3d e7 be 6a bd 50 63 51 3d
       -0.071770795 0.06178853 -0.057310965 0.051120102
0003d0 65 27 08 3c 43 ea 3c bd f9 8b 74 bd 5c 09 05 bd
       0.008310174 -0.046121847 -0.0597038 -0.03247963
0003e0 f3 59 83 bd e5 fd b4 bb 07 fa 7a 3d 5f a8 1f bd
       -0.06413641 -0.0055234306 0.0612736 -0.03897893
0003f0 06 44 9b 3d 04 b8 62 bd e1 3e 21 be 65 36 e1 bb
       0.07581334 -0.055351272 -0.15746643 -0.0068729394
