src/modeling/downstream_task/trained_models/modeling_gat_trained.pth (torch, 138652 bytes, 8 tensors)

conv1.att_src f4 [1, 8, 64]
0.060163204 0.16852614 0.22617312 0.27935988 0.24415986 0.18190472 0.07042213 -0.25679067
-0.08567911 -0.2603082 0.2189711 -0.05937761 -0.0051071127 -0.17075147 0.0641983 0.0484387
0.24723502 0.0015670343 0.14258344 -0.08508786 -0.27816018 0.19494689 0.01766888 0.2752384
-0.013409247 0.16680925 -0.02099481 -0.14570299 0.015057484 0.3026648 -0.042938728 0.29768008
0.033992622 -0.020972077 0.28822598 -0.023705473 0.22451925 -0.042802744 -0.1526311 -0.23478432
0.22658646 0.20683168 -0.13569362 -0.06967853 -0.18533391 0.11637878 -0.25051424 0.24895956
-0.15981996 0.07742735 -0.20523193 0.07674514 -0.31777102 0.16812377 0.13865459 -0.22663079
-0.10503539 0.1415731 -0.18222123 0.26038134 0.24672817 -0.005610145 0.32638502 0.04386707
-0.23605372 0.009189826 0.20716561 -0.009462163 -0.21017031 0.026399417 0.14116119 -0.17822184
0.20451443 -0.2904031 0.0033870153 -0.013243054 0.023771917 0.2891508 0.240426 -0.064296655
0.2433457 0.23172674 -0.15731469 0.16354145 -0.011010035 0.08780125 -0.08518177 -0.038341235
0.08262677 -0.24724616 -0.05569147 0.26556686 -0.1434946 0.2983825 -0.00263135 -0.16110893
0.12735364 -0.07650867 0.238221 0.2439744 0.045537632 0.2108109 -0.014775733 0.0747016
-0.084122695 -0.057774473 0.07996477 0.1951713 0.26660287 -0.079102695 0.16165929 -0.013662854
0.11896049 -0.21070372 -0.2809797 -0.19556822 0.26087296 -0.019917121 -0.08998868 -0.029550966
0.19634366 0.051846236 -0.07030771 -0.13614845 0.27299166 -0.098436415 0.22378203 0.09696114
-0.13450904 -0.10722381 -0.0733613 -0.22388506 -0.1302338 -0.092010975 -0.12234373 -0.042313304
0.30160084 -0.27100354 0.025417661 0.24044089 0.26004434 0.1506469 -0.13304642 0.10594846
0.10403934 0.27341488 0.023583455 0.175763 -0.10637548 0.23979074 0.2526439 0.056216918
0.26552805 0.23206255 -0.28495413 -0.001667528 -0.007859934 0.21253797 -0.07041021 -0.15816656
-0.14486434 -0.20595077 -0.019197125 0.06504542 0.23383196 0.016036248 -0.14838971 0.120999105
-0.18250318 -0.06800826 0.27207848 -0.08284204 -0.095542885 0.198916 0.19994293 0.1403316
-0.06819784 -0.0040372345 -0.117170066 0.1611712 0.07500098 0.20688331 0.23363441 -0.07780505
-0.008387148 0.21965626 -0.22965096 0.14924636 -0.022113055 -0.15114206 -0.0064683105 0.12928328
-0.042773332 -0.17717291 -0.11278298 0.006007428 -0.15155017 0.22448547 -0.18559797 0.14901286
-0.06918179 0.14471455 -0.29403314 -0.28843546 0.30631167 -0.005158502 -0.030497124 -0.0019330023
-0.21723267 -0.16372316 -0.033619866 0.20049252 -0.12616129 0.013316904 -0.05119592 0.14454962
-0.18411909 0.23835422 -0.09890454 0.12456931 0.04253871 0.24889666 0.19485642 0.20721705
0.2348617 -0.14687811 -0.1433756 -0.015305164 0.1103282 -0.05286737 -0.043377277 0.16816065
0.07077884 0.30156806 -0.20745298 -0.14364305 0.21922827 -0.0003224751 0.09175597 0.15963927
0.244467 -0.17295228 -0.0054724375 -0.0037053614 -0.2578409 -0.17930654 -0.09115172 0.14745796
0.052371453 0.22369328 -0.11169699 0.12949035 0.13012886 -0.31064504 0.0030870023 -0.1850886
00000000: b16d 763d 1e92 2c3e ed99 673e 4208 8f3e
00000010: 0b05 7a3e 3b45 3a3e 7a39 903d 117a 83be
00000020: 8778 afbd 1e47 85be f639 603e f035 73bd
00000030: 9159 a7bb 79d9 2ebe 667a 833d a967 463d
00000040: 2d2b 7d3e f264 cd3a 6501 123e 8b42 aebd
00000050: 036b 8ebe 28a0 473e 54be 903c 0cec 8c3e
00000060: 75b2 5bbc 0bd0 2a3e 4ffd abbc 2a33 15be
00000070: aab3 763c e1f6 9a3e 85e0 2fbd 8669 983e
00000080: d93b 0b3d a2cd abbc 5b92 933e fb31 c2bc
00000090: 60e8 653e ee51 2fbd 544b 1cbe 4d6b 70be
000000a0: 4806 683e afcb 533e 45f3 0abe 9eb3 8ebd
000000b0: 2cc8 3dbe ff57 ee3d 6743 80be 41ef 7e3e
000000c0: d8a7 23be 3b92 9e3d 5228 52be 8e2c 9d3d
000000d0: e2b2 a2be a328 2c3e 78fb 0d3e e711 68be
000000e0: cb1c d7bd 8af8 103e 3498 3abe b450 853e
000000f0: 4fa6 7c3e 4fd5 b7bb f01b a73e f5ad 333d
00000100: 11b8 71be ed90 163c 3923 543e 3007 1bbc
00000110: e336 57be 9743 d83c 8f8c 103e c97f 36be
00000120: 3b6c 513e b7af 94be b0f8 5d3b 65f9 58bc
00000130: 53bd c23c 930b 943e 3c32 763e f7ad 83bd
00000140: 9d2f 793e c649 6d3e 1a17 21be 6977 273e
00000150: 6f63 34bc 24d1 b33d c873 aebd b30b 1dbd
00000160: 3938 a93d 192e 7dbe bd1c 64bd 61f8 873e
00000170: 40f0 12be 97c5 983e ba72 2cbb bdf9 24be
00000180: fe68 023e 94b0 9cbd 35f0 733e 6dd4 793e
00000190: ab85 3a3d d0de 573e eb15 72bc 27fd 983d
000001a0: 8548 acbd eda4 6cbd 92c4 a33d fcda 473e
000001b0: 2c80 883e 9800 a2bd 038a 253e 2ada 5fbc
000001c0: 8fa1 f33d b7c2 57be 92dc 8fbe 0943 48be
000001d0: 2491 853e 3b29 a3bc fc4b b8bd de14 f2bc
000001e0: 500e 493e b85c 543d 7dfd 8fbd 806a 0bbe
000001f0: 90c5 8b3e 0899 c9bd 1e27 653e 9093 c63d
00000200: bdbc 09be 2898 dbbd 733e 96bd 2042 65be
00000210: 025c 05be 4070 bcbd 598f fabd b750 2dbd
00000220: 6d6b 9a3e fac0 8abe b338 d03c 2336 763e
00000230: 8824 853e 2e43 1a3e 523d 08be 82fb d83d
00000240: 9412 d53d 09fd 8b3e 1732 c13c 37fb 333e
00000250: 63db d9bd b48b 753e 8b5a 813e b643 663d
00000260: 4bf3 873e cea1 6d3e 82e5 91be f490 daba
00000270: f4c6 00bc 8ea3 593e 3a33 90bd 6af6 21be
00000280: 5157 14be c2e4 52be 4a43 9dbc 8836 853d
00000290: a571 6f3e 735e 833c 79f3 17be 61ce f73d
000002a0: 1de2 3abe ea47 8bbd df4d 8b3e 16a9 a9bd
000002b0: fdab c3bd a3b0 4b3e d7bd 4c3e 16b3 0f3e
000002c0: 4fab 8bbd c74a 84bb dcf6 efbd 100a 253e
000002d0: 1d9a 993d 38d9 533e dc3d 6f3e 4158 9fbd
000002e0: 406a 09bc 92ed 603e 9f29 6bbe 0ad4 183e
000002f0: 7026 b5bc fcc4 1abe 1ff4 d3bb d662 043e
00000300: 1733 2fbd d16c 35be c3fa e6bd f5d9 c43b
00000310: f82f 1bbe 85df 653e 650d 3ebe d496 183e
00000320: 2faf 8dbd 0d30 143e 838b 96be d0ad 93be
00000330: e2d4 9c3e a708 a9bb 1bd5 f9bc cb5c fdba
00000340: 3e72 5ebe 0ba7 27be fcb4 09bd e94d 4d3e
00000350: 6d30 01be 252f 5a3c d0b2 51bd d104 143e
00000360: b789 3cbe 2113 743e 778e cabd 321e ff3d
00000370: 123d 2e3d c4de 7e3e 7188 473e b530 543e
00000380: 967f 703e 3767 16be 0ed1 12be 83c2 7abc
00000390: c0f3 e13d 758b 58bd 5fac 31bd 4e32 2c3e
000003a0: 7ff4 903d 2167 9a3e 8e6e 54be 2a17 13be
000003b0: 607d 603e e011 a9b9 8eea bb3d 7a78 233e
000003c0: 8f55 7a3e 671a 31be 2252 b3bb a6d5 72bb
000003d0: b903 84be 229c 37be c1ad babd 38ff 163e
000003e0: 7383 563d da0f 653e 64c1 e4bd 1e99 043e
000003f0: 8040 053e de0c 9fbe 4e4f 4a3b de87 3dbe

conv1.att_dst f4 [1, 8, 64]
0.24309833 -0.2688383 0.10067703 -0.17115311 0.24514823 0.056027073 0.03623743 0.025133662
0.19084735 -0.099541776 0.18322097 -0.18302919 0.23245879 -0.06536121 0.21911846 0.17850818
0.051180366 0.20516647 0.141625 0.15976956 0.044208717 -0.2745495 0.07923978 -0.22453745
-0.06679413 0.16864356 -0.046507586 -0.12398464 -0.12854627 0.13600752 0.007136375 0.16855468
0.0049826913 0.0020156677 0.09166181 -0.2285552 0.0093373405 0.04214818 -0.14634688 -0.08605113
0.21707536 -0.020502273 0.15811631 -0.15578581 0.15239997 -0.28609568 -0.18754035 0.07502892
-0.08526982 0.16747442 0.007518968 0.28319538 -0.025904905 0.05239269 -0.02160987 -0.18203995
-0.050500695 0.025141563 -0.11868404 -0.077761 0.17820942 0.11456021 0.2734079 0.13222075
0.0344531 0.07782843 -0.009309834 0.19082914 -0.18198593 -0.052334413 0.064380586 -0.23511094
-0.08133463 0.08919049 0.12695274 -0.010588981 0.0763112 0.10016947 0.22444649 0.010663754
0.15837166 -0.2116108 -0.18465015 0.16049448 -0.1943907 -0.105103955 0.059325438 0.089077726
0.21642306 -0.16273715 0.21051586 -0.09177606 -0.2957986 0.30576456 -0.25331607 0.23426539
0.23616849 -0.15071689 0.016211377 0.2589966 0.30561006 -0.14933643 0.072457954 -0.042099662
-0.20863543 0.13118519 0.03229103 0.20198636 -0.14881402 0.094842665 -0.27005067 -0.098419555
-0.24469271 0.07191605 0.030477295 -0.030093221 0.102169536 -0.15731807 -0.23092693 -0.18035631
0.1664533 0.06500822 0.23365785 -0.03588683 0.21352358 -0.29497826 -0.30846092 0.061601046
-0.012575732 0.04887246 0.016373174 -0.073852226 0.17586079 0.21477163 -0.1290066 -0.12835954
0.17818145 -0.08829381 -0.031880252 0.1487203 0.071145065 0.15650158 -0.20037265 0.24152696
-0.19741835 0.19593203 -0.15034461 -0.021370038 -0.25550923 -0.10310629 -0.19822522 -0.21806404
0.1866836 -0.1557448 0.22606216 0.26383835 -0.08772529 0.28769574 -0.25415716 0.030596355
0.25839928 0.12627636 0.28300127 -0.14888707 -0.10378639 0.18056399 -0.1127629 -0.19058558
-0.07250875 0.21842289 0.20593345 -0.1952079 0.19696636 0.14445956 -0.14313063 -0.23244758
0.07500078 -0.05849588 0.20462316 -0.06246542 0.09295759 -0.19899242 -0.18152677 0.15828595
0.09565562 -0.03621012 0.08256666 0.16747116 0.12586525 0.12627727 -0.044481628 0.054904986
-0.24135362 0.027760675 0.1443427 0.14652283 0.13117498 -0.022257203 0.03128816 -0.06360641
0.12365087 0.07038243 -0.25539473 0.15745151 -0.05828318 0.0996208 0.20354891 -0.009486155
0.096649125 0.24136044 0.31589493 -0.033177886 -0.027292373 0.0014374859 0.2877377 -0.13303518
0.061102685 -0.0649669 0.21618243 0.067944564 -0.0014372142 -0.057775754 0.045854073 -0.109997265
0.11307721 0.08903977 0.23548138 0.11825785 -0.02773633 0.26026183 -0.14407027 0.13982607
0.23229781 0.053055003 0.15544273 -0.16423881 -0.06295632 0.2660459 -0.054095197 0.11831357
-0.025766287 0.10024285 -0.32858852 0.100982964 0.21608754 -0.26829168 0.029194467 0.08282659
0.046083245 -0.0138421925 0.15140668 0.15598576 0.041633364 -0.14725618 0.06759888 0.016300885
00000000: c5ee 783e 2ca5 89be c22f ce3d c342 2fbe
00000010: 2308 7b3e a57c 653d b36d 143d 1ce5 cd3c
00000020: 7d6d 433e 8fdc cbbd 479e 3b3e 016c 3bbe
00000030: ad09 6e3e 19dc 85bd 9760 603e d9ca 363e
00000040: 81a2 513d 2917 523e 2506 113e a29a 233e
00000050: 3314 353d c191 8cbe 7748 a23d 25ed 65be
00000060: 5ccb 88bd e6b0 2c3e bd7e 3ebd a9eb fdbd
00000070: a2a1 03be 8e45 0b3e 41d8 e93b 9999 2c3e
00000080: d845 a33b 4b19 043b 30b9 bb3d 600a 6abe
00000090: a5fb 183c 92a3 2c3d f5db 15be 933b b0bd
000000a0: 0149 5e3e 62f4 a7bc 3ee9 213e 5186 1fbe
000000b0: bd0e 1c3e 227b 92be 940a 40be c3a8 993d
000000c0: f2a1 aebd 6a7e 2b3e ad61 f63b fcfe 903e
000000d0: 8636 d4bc b899 563d 2f07 b1bc ae68 3abe
000000e0: d1d9 4ebd aef5 cd3c 9e10 f3bd 2941 9fbd
000000f0: 887c 363e 8b9e ea3d 1ffc 8b3e e064 073e
00000100: b21e 0d3d 8364 9f3d 4688 18bc b768 433e
00000110: 855a 3abe 9c5c 56bd f8d9 833d ecc0 70be
00000120: c592 a6bd 81a9 b63d e6ff 013e 687d 2dbc
00000130: 0c49 9c3d a725 cd3d 4dd5 653e 07b7 2e3c
00000140: 2e2c 223e 80b0 58be ee14 3dbe aa58 243e
00000150: 5b0e 47be be40 d7bd 3bff 723d 626e b63d
00000160: 029e 5d3e 91a4 26be 7891 573e 16f5 bbbd
00000170: ea72 97be 2c8d 9c3e a5b2 81be 44e3 6f3e
00000180: 27d6 713e 8755 1abe b9cd 843c 349b 843e
00000190: ec78 9c3e a6eb 18be d664 943d b270 2cbd
000001a0: 87a4 55be 6955 063e 9943 043d 83d5 4e3e
000001b0: b462 18be df3c c23d 1544 8abe 3190 c9bd
000001c0: ba90 7abe b948 933d 85ab f93c 0f86 f6bc
000001d0: 433e d13d fd17 21be 1c78 6cbe 53af 38be
000001e0: bc72 2a3e 0823 853d 0144 6f3e 12fe 12bd
000001f0: eda5 5a3e 6407 97be 97ee 9dbe 6151 7c3d
00000200: 710a 4ebc 7d2e 483d 0921 863c d63f 97bd
00000210: da14 343e 18ed 5b3e 4e1a 04be af70 03be
00000220: 3375 363e 63d3 b4bd de94 02bd 224a 183e
00000230: 81b4 913d f341 203e 7d2e 4dbe d852 773e
00000240: 0928 4abe 68a2 483e f0f3 19be 3810 afbc
00000250: 1bd2 82be 6429 d3bd 8dfb 4abe 2e4c 5fbe
00000260: fc29 3f3e 917b 1fbe d77c 673e d215 873e
00000270: 51a9 b3bd db4c 933e e320 82be 35a5 fa3c
00000280: e94c 843e 974e 013e 8be5 903e da75 18be
00000290: f58d d4bd c4e5 383e 3cf0 e6bd de28 43be
000002a0: 787f 94bd 40aa 5f3e 38e0 523e 94e4 47be
000002b0: 8db1 493e 35ed 133e d690 12be bd06 6ebe
000002c0: 029a 993d 6099 6fbd bc88 513e bedb 7fbd
000002d0: 8d60 be3d abc4 4bbe 27e2 39be b615 223e
000002e0: 18e7 c33d 1051 14bd b618 a93d 8f7d 2b3e
000002f0: d2e2 003e d44e 013e 5e32 36bd 0de4 603d
00000300: 6725 77be 5b6a e33c 93ce 133e 150a 163e
00000310: bc52 063e bd54 b6bc 0328 003d 1444 82bd
00000320: ab3c fd3d aa24 903d 19c3 82be f83a 213e
00000330: 58ba 6ebd fd05 cc3d 206f 503e d16b 1bbc
00000340: faef c53d 3127 773e fbbc a13e 89e5 07bd
00000350: 4194 dfbc 066a bc3a 5b52 933e 603a 08be
00000360: cf46 7a3d 5e0d 85bd ed5e 5d3e 8526 8b3d
00000370: e860 bcba 45a6 6cbd 7bd1 3b3d 3f46 e1bd
00000380: 0695 e73d 7c5a b63d 0822 713e 2c31 f23d
00000390: 4d37 e3bc 0a41 853e 2887 13be 912e 0f3e
000003a0: 7adf 6d3e 3450 593d 612c 1f3e 382e 28be
000003b0: 3eef 80bd 2b37 883e ed92 5dbd 634e f23d
000003c0: d213 d3bc 204c cd3d c13c a8be 28d0 ce3d
000003d0: 0d46 5d3e 875d 89be 3c29 ef3c fda0 a93d
000003e0: c9c1 3c3d 5dca 62bc 5a0a 1b3e bbba 1f3e
000003f0: bf87 2a3d 53ca 16be 4871 8a3d 6f89 853c

conv1.bias f4 [512]
-0.051738124 0.045956794 -0.02829695 0.0043648793 0.10127356 0.050111745 -0.065647505 0.00948295
0.027609542 -0.018303365 0.050048344 -0.015615968 -0.017769728 0.0327527 -0.07270909 -0.10506452
0.010723011 0.008283386 0.086549886 -0.029987095 0.036638673 0.059852988 -0.09566887 0.019435577
-0.037142772 0.044638366 -0.046674777 0.05349676 -0.019276354 0.0040679625 0.038607553 0.04134989
0.013085832 -0.051132984 0.021524502 0.009620533 0.016213736 -0.007901544 -0.03217569 0.067524366
-0.06352963 0.0007323275 -0.053578544 -0.052536055 0.024772918 0.064729095 0.023721125 -0.050753646
-0.07051892 0.045781113 -0.044793777 -0.050090034 0.05707439 0.035252426 0.05868063 0.019143654
0.055097867 -0.060799997 -0.030338451 -0.018898923 0.03527335 -0.0752586 -0.008563472 -0.06916459
-0.016917415 -0.03527545 0.00490659 -0.05166187 -0.051806286 -0.02148613 -0.04925879 0.056587312
0.008539355 0.079141945 0.049571943 0.03639586 -0.031945024 -0.021019727 0.00090098655 0.0121789025
-0.013045603 0.016028324 -0.033414207 0.047093313 -0.019790465 -0.03456407 0.04256635 -0.029172493
0.019079413 -0.0040346608 -0.06450708 -0.008779238 0.019636674 -0.046861764 -0.009274965 -0.0129349865
-0.047407188 0.014461184 -0.0025188657 -0.07254178 0.0004283953 -0.030832237 -0.030291729 0.01810579
-0.007499935 -0.030962763 0.041189533 -0.041934703 0.011274011 0.04333646 0.074914806 -0.029069886
0.012355954 -0.0032858767 0.06728979 -0.040989432 -0.00822101 0.0041875564 -0.0069065914 -0.0024613957
-0.030551625 0.02518512 -0.051464193 -0.069671094 0.030721482 0.030682754 0.0140984785 -0.01031568
0.02971906 -0.041321333 0.0088058505 0.00080488494 0.03199216 -0.04081253 -0.015392867 -0.016199736
-0.04345357 0.054205038 0.01036803 -0.0051116287 -0.04218028 0.0017339252 -0.02976593 -0.021581339
0.052142 0.017900862 -0.013917419 0.016017042 -0.051603734 0.009591012 0.04075501 -0.036102813
0.013641033 -0.0354851 -0.05223919 0.016697122 -0.0011776398 -0.028760476 0.029137332 0.06347547
0.002309101 -0.0054247263 -0.016666574 -0.04694019 -0.017357929 -0.07719324 0.0022867885 0.05749493
0.013936066 -0.032607403 0.027063645 -0.02654068 -0.025895776 0.011133161 -0.045296486 0.031519327
-0.062890254 -0.074578986 0.063827105 -0.057633486 -0.030403687 0.006980033 -0.019358015 -0.021166509
0.042076375 -0.056097522 -0.010286417 0.056427952 0.058646873 0.008180449 -0.014641538 0.029725073
-0.025000954 0.06030891 -0.012360467 0.04240163 0.019124934 -0.049342673 -0.045574505 -0.02390417
-0.032198284 -0.019381942 -0.03332984 -0.046648927 0.06434788 0.0066218986 -0.05080479 0.049925815
0.06811209 -0.037805833 0.017123187 -0.047435068 -0.0056819776 0.0018027053 -0.042024307 -0.08158565
-0.011748196 0.050633226 0.06132334 -0.011855047 -0.017961802 0.020176655 0.055447005 0.039234463
-0.000114071576 -0.016507154 0.05160693 -0.011530398 -0.053287517 -0.035243593 0.023531549 0.055098355
0.06081857 0.0578657 0.042239506 -0.024306105 0.015088536 0.031066896 -0.051268645 0.05051272
-0.03672134 -0.0017122104 0.02563956 -0.020922419 0.05700116 0.021183036 -0.049691733 0.040718723
0.05268569 -0.011159109 0.023725871 -0.0036563196 -0.010430111 0.059411213 -0.04628365 -0.0022261257
00000000: 5beb 53bd 313d 3c3d 01cf e7bc 4307 8f3b
00000010: 8368 cf3d f941 4d3d 3372 86bd 605e 1b3c
00000020: 682d e23c f0f0 95bc 7eff 4c3d 1eda 7fbc
00000030: d291 91bc b227 063d 81e8 94bd 112c d7bd
00000040: 91af 2f3c 0ab7 073c 1141 b13d 7fa7 f5bc
00000050: 6f12 163d 6828 753d 0aee c3bd 5c37 9f3c
00000060: 0523 18bd b8d6 363d 0d2e 3fbd 6b1f 5b3d
00000070: 72e9 9dbc 8b4c 853b f422 1e3d 815e 293d
00000080: f565 563c d270 51bd 2754 b03c 719f 1d3c
00000090: abd2 843c 7a75 01bc a8ca 03bd 374a 8a3d
000000a0: d31b 82bd abf9 3f3a 2d75 5bbd 0c30 57bd
000000b0: 93f0 ca3c b090 843d ce52 c23c 0ee3 4fbd
000000c0: 396c 90bd fa84 3b3d ae79 37bd 352b 4dbd
000000d0: d6c6 693d d964 103d 1a5b 703d 27d3 9c3c
000000e0: 4dae 613d 6b09 79bd 5888 f8bc ead1 9abc
000000f0: ca7a 103d 2e21 9abd ce4d 0cbc 2aa6 8dbd
00000100: 6496 8abc fe7c 10bd 76c7 a03b 669b 53bd
00000110: d432 54bd ae03 b0bc 96c3 49bd 19c8 673d
00000120: a7e8 0b3c 2c15 a23d f30b 4b3d d313 153d
00000130: c9d8 02bd 9031 acbc 2f30 6c3a 058a 473c
00000140: 3abd 55bc d54d 833c 56dd 08bd ebe4 403d
00000150: 9d1f a2bc 0e93 0dbd 0e5a 2e3d 27fb eebc
00000160: 6e4c 9c3c 3035 84bb 4a1c 84bd cbd6 0fbc
00000170: 17dd a03c 1ff2 3fbd 06f6 17bc 44ed 53bc
00000180: 0a2e 42bd 9aee 6c3c 8e13 25bb c990 94bd
00000190: 3e9a e039 e393 fcbc 5c26 f8bc 9852 943c
000001a0: 04c2 f5bb 9fa5 fdbc 5bb6 283d b9c3 2bbd
000001b0: a1b6 383c 9281 313d ef6c 993d f823 eebc
000001c0: a170 4a3c dd57 57bb 3bcf 893d 89e4 27bd
000001d0: 6ab1 06bc c537 893b b050 e2bb 5e4f 21bb
000001e0: 6747 fabc 0651 ce3c 1ecc 52bd b8af 8ebd
000001f0: 9eab fb3c 665a fb3c 4efd 663c 1903 29bc
00000200: 6375 f33c 8f40 29bd 6a46 103c eafe 523a
00000210: 360a 033d 0a2b 27bd 5d32 7cbc 4fb5 84bc
00000220: 5ffc 31bd 1a06 5e3d abde 293c 737f a7bb
00000230: 3bc5 2cbd e044 e33a aed7 f3bc 59cb b0bc
00000240: da92 553d d4a4 923c e305 64bc 2c36 833c
00000250: 705e 53bd 9f23 1d3c baee 263d 8be0 13bd
00000260: a47e 5f3c d358 11bd c3f8 55bd 67c8 883c
00000270: 095b 9aba 179b ebbc 6ab1 ee3c 6dff 813d
00000280: 4954 173b e7c1 b1bb 5788 88bc 5b44 40bd
00000290: 3732 8ebc 7d17 9ebd f2dd 153b ce7f 6b3d
000002a0: 1954 643c 578f 05bd 94b4 dd3c d76b d9bc
000002b0: 6123 d4bc dd67 363c cf88 39bd 691a 013d
000002c0: 9bcc 80bd debc 98bd c9b7 823d 1711 6cbd
000002d0: 2711 f9bc c3b8 e43b b394 9ebc 6365 adbc
000002e0: 4758 2c3d 84c6 65bd 5c88 28bc ff20 673d
000002f0: b437 703d 4a07 063c 10e3 6fbc ff81 f33c
00000300: cdce ccbc 7a06 773d 8e83 4abc 55ad 2d3d
00000310: e5ab 9c3c 8b1b 4abd 55ac 3abd aed2 c3bc
00000320: 59e2 03bd e1c6 9ebc df84 08bd f212 3fbd
00000330: d2c8 833d 83fc d83b af18 50bd 037f 4c3d
00000340: 5a7e 8b3d 4ada 1abd ed45 8c3c 464b 42bd
00000350: e22f babb c148 ec3a ae21 2cbd 6116 a7bd
00000360: 817b 40bc c964 4f3d 2f2e 7b3d ac3b 42bc
00000370: a124 93bc 8349 a53c 661c 633d 51b4 203d
00000380: b639 efb8 033a 87bc ca61 533d ffe9 3cbc
00000390: 0344 5abd 965b 10bd 3cc5 c03c d0ae 613d
000003a0: e51c 793d 9604 6d3d 5503 2d3d 991d c7bc
000003b0: e835 773c 0180 fe3c 12ff 51bd 6de6 4e3d
000003c0: 1e69 16bd 3f6c e0ba 0e0a d23c 7e65 abbc
000003d0: 0c7a 693d 0c88 ad3c 8f89 4bbd adc8 263d
000003e0: f3cc 573d b2d4 36bc c25c c23c dd9e 6fbb
000003f0: 0ee3 2abc 2c59 733d ed93 3dbd 31e4 11bb

conv1.lin.weight f4 [512, 60]
-0.073173955 0.11929207 0.044974852 0.010682462 -0.020204576 -0.10014926 0.0046925354 0.012330487
0.027062941 0.0610727 0.039819177 0.057886 0.015477881 -0.02994828 0.09772041 -0.02247469
-0.0024634101 -0.08900574 -0.044797402 -0.018622715 0.005244332 -0.052202985 -0.089683846 0.103823446
-0.019020975 0.003038561 -0.00873082 -0.0046565877 -0.04221731 -0.020063266 -0.0991229 0.01167171
0.008032045 -0.1113809 -0.033036117 -0.045787092 0.014064848 0.08585936 0.08205587 6.1248524e-05
0.040252786 0.019176718 0.0048209657 -0.0055614463 -0.009826164 1.3161169e-05 0.014632315 0.009876946
-0.00016522367 0.02719524 -0.00912328 0.014793511 0.019935487 0.022809658 0.024748426 0.099303
-0.12851389 -0.045587357 0.052045126 -0.03167539 0.0016028299 0.086074956 -0.029834673 0.010744966
0.027360886 -0.05574951 -0.020796036 -0.12193109 -0.0069362987 0.081094846 0.090290345 -0.08758603
0.011707029 0.013626022 0.06382661 -0.016176552 0.11068367 0.029346224 0.004821517 -0.043301504
0.06954469 -0.02264047 -0.079345316 0.02567158 -0.008377247 -0.039535843 -0.13343711 -0.0642959
-0.07769616 -0.028981134 -0.08684846 0.042433407 0.0019237277 -0.03875555 0.03679485 0.081297725
-0.0017643062 0.03025204 0.048597664 -0.0192505 0.045057554 -0.012418106 -0.00037717642 -0.0033527429
0.01031562 0.00033716054 -0.00092420034 -0.01673432 -0.013721044 -0.009961135 -0.009666744 -0.0018258096
-0.0032791584 0.010386775 -0.01313061 0.03620363 -0.046610337 0.027921844 -0.107411675 0.015069135
0.07454878 0.02975228 0.06884893 -0.0025756606 -0.11524292 0.05271735 -0.09504793 0.024010139
0.01994356 0.028824884 -0.05579968 0.08654002 0.017988488 -0.101491004 0.09267641 0.075215064
0.04360834 0.04521922 -0.083038665 -0.029902887 0.07966663 -0.051220622 -0.04466606 0.05532948
0.11218105 -0.08750815 -0.054027766 0.0005594538 -0.064391896 -0.017503792 -0.02816266 0.027772482
0.017211935 -0.045371626 0.07350891 0.012709461 -0.007358861 0.08946539 0.040446416 0.12170698
-0.08159716 0.0017807378 0.08603644 -0.0067387056 0.0130452635 0.013901266 0.062341996 0.00075940613
0.013804924 0.021273226 -0.0097976085 -0.027204882 0.020553885 -0.0050556124 0.02668491 0.023833945
-0.0811686 0.080167696 -0.07668966 -0.029933158 0.044363942 -0.06264728 -0.12805596 0.004333817
-0.030254034 0.040306296 0.04878047 -0.020817956 0.066783115 -0.06606673 0.0559941 0.06425294
0.013556936 -0.08689378 0.07788951 -0.07584563 -0.067961946 0.07359741 0.0027806638 0.090139344
0.06988867 0.06699865 0.012970589 0.055702265 -0.03416165 -0.111276016 0.054927073 -0.09075217
-0.031166006 -0.019355202 0.023227414 0.08092194 -0.013005353 -0.081686795 -0.0063404627 0.056757767
0.10984286 0.03670204 0.06390781 -0.03740552 -0.005563801 0.012956446 0.0031253214 0.021602506
-0.012176302 -0.012059448 -0.015718719 -0.00748751 0.000877616 0.0013380148 -0.0019717559 -0.01998557
-0.012798547 -0.0024531807 0.009795755 0.06999417 0.07845244 0.041035447 0.041716177 -0.07545745
0.019227276 -0.00772578 0.02034015 0.0026798968 -0.0037827268 -0.083354175 -0.006045306 -0.041129958
-0.053235866 0.03076328 0.09455316 -0.015566871 0.08448745 -0.06168037 -0.079606734 -0.045669753
00000000: 3adc 95bd 674f f43d 8d37 383d 7e05 2f3c
00000010: 1184 a5bc 0e1b cdbd d7c3 993b d005 4a3c
00000020: 1ab3 dd3c 5e27 7a3d 6f19 233d df19 6d3d
00000030: f096 7d3c 1856 f5bc a321 c83d d71c b8bc
00000040: 2a71 21bb a448 b6bd 7b7d 37bd aa8e 98bc
00000050: a5d8 ab3b ccd2 55bd 2aac b7bd 63a1 d43d
00000060: e0d1 9bbc 9822 473b b70b 0fbc 4a96 98bb
00000070: 0fec 2cbd b85b a4bc f200 cbbd b33a 3f3c
00000080: d798 033c ab1b e4bd e150 07bd 3f8b 3bbd
00000090: 4070 663c 08d7 af3d e80c a83d 8d72 8038
000000a0: 1be0 243d 7e18 9d3c 31f9 9d3b cb3c b6bb
000000b0: ebfd 20bc cace 5c37 61bc 6f3c ead2 213c
000000c0: e43f 2db9 8dc8 de3c cf79 15bc 7b60 723c
000000d0: bf4f a33c 52db ba3c 36bd ca3c 5f5f cb3d
000000e0: 2599 03be cfb9 3abd 452d 553d 0ebe 01bd
000000f0: 0c16 d23a 1148 b03d d867 f4bc a70b 303c
00000100: f023 e03c 9959 64bd 735c aabc 02b7 f9bd
00000110: e449 e3bb 0e15 a63d 25ea b83d 4e60 b3bd
00000120: d7ce 3f3c ae3f 5f3c 87b7 823d b084 84bc
00000130: 1fae e23d 7e67 f03c d1fd 9d3b eb5c 31bd
00000140: 726d 8e3d 8278 b9bc cc7f a2bd 354d d23c
00000150: b840 09bc 56f0 21bd bda3 08be 92ad 83bd
00000160: 2a1f 9fbd d869 edbc 9bdd b1bd a7ce 2d3d
00000170: 9725 fc3a 24be 1ebd 32b6 163d 6c7f a63d
00000180: 4b40 e7ba 20d3 f73c 580e 473d 39b3 9dbc
00000190: 458e 383d 5075 4bbc c3bf c5b9 b1b9 5bbb
000001a0: d902 293c ecc4 b039 0946 72ba 6a16 89bc
000001b0: 3bce 60bc 0734 23bc 4361 1ebc 0150 efba
000001c0: 26e7 56bb 4b2d 2a3c c521 57bc 424a 143d
000001d0: 7bea 3ebd 5abc e43c a7fa dbbd 89e4 763c
000001e0: 08ad 983d 0ebb f33c ab00 8d3d 6acc 28bb
000001f0: 7b04 ecbd 26ee 573d 7da8 c2bd e9b0 c43c
00000200: ad60 a33c 2a22 ec3c 358e 64bd e53b b13d
00000210: 985c 933c 84da cfbd 21cd bd3d 5b0a 9a3d
00000220: a99e 323d ca37 393d 2d10 aabd e6f6 f4bc
00000230: 4228 a33d b7cc 51bd c2f3 36bd 2aa1 623d
00000240: 2ebf e53d 7937 b3bd 384c 5dbd 4fa8 123a
00000250: e6df 83bd 1d64 8fbc 61b5 e6bc 1e83 e33c
00000260: 0b00 8d3c 99d7 39bd d78b 963d 583b 503c
00000270: 9a22 f1bb a139 b73d 24ab 253d 8241 f93d
00000280: 691c a7bd a567 e93a e033 b03d 5cd0 dcbb
00000290: cdbb 553c 23c2 633c 525a 7f3d e212 473a
000002a0: 0c2e 623c 3045 ae3c 2686 20bc c6dc debc
000002b0: 9f60 a83c 8da9 a5bb 509a da3c 683f c33c
000002c0: b93b a6bd f62e a43d 780f 9dbd 6236 f5bc
000002d0: f7b6 353d 384d 80bd 1a21 03be b102 8e3b
000002e0: 4fd7 f7bc 3718 253d 08ce 473d 6b8a aabc
000002f0: 96c5 883d fe4d 87bd 125a 653d 0c97 833d
00000300: e91d 5e3c 5ef5 b1bd 8984 9f3d f454 9bbd
00000310: a22f 8bbd 3dba 963d cc3b 363b fa9a b83d
00000320: cb21 8f3d 9736 893d 9882 543c 0f28 643d
00000330: 16ed 0bbd aee4 e3bd 36fb 603d 46dc b9bd
00000340: da4f ffbc cd8e 9ebc 6b47 be3c 67ba a53d
00000350: 6714 55bc 684b a7bd a8c3 cfbb d57a 683d
00000360: 4bf5 e03d e154 163d 19e2 823d 8836 19bd
00000370: 8c50 b6bb 4647 543c 31d2 4c3b bdf7 b03c
00000380: 1d7f 47bc fe94 45bc 8bc4 80bc c959 f5bb
00000390: d00f 663a 5460 af3a 9338 01bb c7b8 a3bc
000003a0: ffb0 51bc 8bc5 20bb 607e 203c 1a59 8f3d
000003b0: acab a03d c914 283d 95de 2a3d 6f89 9abd
000003c0: 8582 9d3c 8a28 fdbb 63a0 a63c 35a1 2f3b
000003d0: a0e7 77bb 98b5 aabd b417 c6bb e377 28bd
000003e0: da0d 5abd 4603 fc3c 16a5 c13d 300c 7fbc
000003f0: c207 ad3d 8ea4 7cbd db08 a3bd 3510 3bbd

conv2.att_src f4 [1, 1, 3]
-0.310052 0.8886433 -0.94701415
00000000: 23bf 9ebe 217e 633f 856f 72bf

conv2.att_dst f4 [1, 1, 3]
0.26272905 -0.34735498 -0.58311874
00000000: 6c84 863e 83d8 b1be 4547 15bf

conv2.bias f4 [3]
-0.13879606 0.120655626 0.10846597
00000000: 8e20 0ebe 4c1a f73d 6823 de3d

conv2.lin.weight f4 [3, 512]
0.06274356 0.016889976 0.009612856 0.026414411 -0.09698692 0.029502075 0.0037912664 -0.029496271
-0.12247255 0.021110402 -0.111784264 0.0035597293 0.08874438 -0.12058079 0.080476075 0.13545386
-0.074681155 0.03346338 -0.0024491309 -0.04566084 0.04016462 -0.033638872 0.1323885 0.022154639
0.111803964 -0.03396582 0.077717006 -0.04958501 0.042935938 -0.0055171396 -0.0686202 0.065104626
-0.038444538 -0.044151284 -0.06948284 -0.025972454 -0.013429188 -0.12884897 -0.020107962 -0.11975654
0.04947369 -0.10884787 0.057224575 0.03217412 -0.06852566 -0.07216316 0.063898996 0.025130222
-0.028505882 -0.095823266 0.045019355 0.10577247 -0.050147086 -0.04630788 -0.06618236 -0.09564139
-0.057902772 -0.010360324 -0.0048390073 0.028119858 -0.113232166 0.078558244 -0.1221856 0.011838016
-0.025328765 0.024270536 0.01838186 0.028465273 0.017710842 -0.028395016 -0.0008662133 -0.04949725
0.032981854 -0.0748335 0.0042936844 -0.042974193 0.06234241 0.09471244 -0.0914361 -0.03354213
0.13721174 -0.058622256 -0.0063470956 -0.07591935 0.020739049 0.064241834 -0.048968542 -0.022874093
0.006659246 -0.005908226 0.09779085 -0.12796345 -0.02490587 0.025022002 -0.001341103 0.004536175
0.07870835 -0.10402258 -0.07157548 0.027830292 0.058623366 0.01957534 0.01332595 -0.08956113
0.03223091 0.0010427958 -0.05481376 0.050958715 -0.010843809 -0.14688583 -0.050133947 0.008101073
-0.057731096 -0.01306691 -0.09599349 0.11288503 0.00601489 -0.05052737 0.13308261 -0.02824504
-0.009936463 0.008527345 0.14987056 0.01587909 0.011429804 -0.0046878187 0.042905204 -0.039327648
-0.091864586 -0.009015962 0.07190263 0.047335327 -0.081227586 0.023300927 0.018833067 -0.03831578
0.06671104 -0.060935143 0.04238554 0.049348667 0.09557496 0.017649656 0.03423092 0.094322644
-0.03182576 -0.042914394 -0.100031056 -0.055905778 -0.00962621 0.004763219 -0.02462348 0.0043631135
-0.023067964 0.028349115 0.026900297 0.09494009 0.034844704 0.048747692 -0.08102168 -0.08998518
-0.035659928 0.054893214 -0.01812696 0.008302353 0.016592314 0.13842057 0.034890022 -0.12634581
-0.11078154 0.100885816 -0.06643536 -0.03664347 0.058342844 0.05097584 0.060970783 0.04295974
0.0716377 0.07305986 -0.14553842 0.0868894 0.048882384 -0.020865992 -0.100424394 -0.010654178
0.069558136 0.109993525 -0.04658598 0.019107716 -0.06688714 -0.08106289 -0.09368986 -0.08249662
-0.021813361 -0.09790769 0.060559474 -0.13434725 0.019297497 0.009643093 0.011076869 0.017909195
0.021472288 -0.015070837 0.03692951 0.039188355 0.057657093 0.012226561 0.13030896 -0.1320398
-0.08554468 -0.024496548 0.014732926 -0.026501335 -0.089199685 -0.008418645 0.038697515 0.10614008
0.08306037 -0.07768656 -0.12123323 0.058956455 0.042877167 -0.029841226 -0.11871463 -0.047433957
-0.07623316 -0.058943953 -0.088298194 -0.11503751 0.010185322 -0.011751244 -0.03265437 -0.07442863
0.017689899 -0.15330379 0.028954893 -0.07466 0.003524863 -0.06507411 0.028109714 -0.017130647
0.08074354 -0.018453768 -0.09015541 0.048520382 -0.13402462 -0.07273612 -0.038094923 -0.049962014
-0.031850997 0.018102126 -0.102569364 0.04735664 -0.08188907 -0.083169274 -0.0070391214 0.0039348146
00000000: b27f 803d d95c 8a3c 3e7f 1d3c 0963 d83c
00000010: 14a1 c6bd 56ae f13c e576 783b 2aa2 f1bc
00000020: e3d2 fabd b9ef ac3c 26ef e4bd 594a 693b
00000030: 9dbf b53d 10f3 f6bd a4d0 a43d 6bb4 0a3e
00000040: 6ff2 98bd e610 093d 9981 20bb dc06 3bbd
00000050: a883 243d eac8 09bd da90 073e a57d b53c
00000060: 7af9 e43d be1f 0bbd 182a 9f3d a719 4bbd
00000070: 98dd 2f3d 1fc9 b4bb bf88 8cbd 9355 853d
00000080: 0578 1dbd fad7 34bd 054d 8ebd 2fc4 d4bc
00000090: 1906 5cbc fcf0 03be 74b9 a4bc eb42 f5bd
000000a0: eda4 4a3d a2eb debd 5164 6a3d 03c9 033d
000000b0: 2e57 8cbd 47ca 93bd 7add 823d e5dd cd3c
000000c0: 2b85 e9bc fd3e c4bd 3766 383d 3d9f d83d
000000d0: 0867 4dbd 55ad 3dbd 9e8a 87bd a2df c3bd
000000e0: 752b 6dbd 59be 29bc 8990 9ebb 9e5b e63c
000000f0: 44e6 e7bd 25e3 a03d 723c fabd 3df4 413c
00000100: 457e cfbc 01d3 c63c 8e95 963c 0130 e93c
00000110: 5416 913c aa9c e8bc 9712 63ba a1bd 4abd
00000120: fb17 073d 4e42 99bd 09b2 8c3b b505 30bd
00000130: c15a 7f3d 99f8 c13d da42 bbbd 7963 09bd
00000140: 3c81 0c3e e41d 70bd 4cfb cfbb 9b7b 9bbd
00000150: f0e4 a93c 3991 833d 3d93 48bd 7362 bbbc
00000160: ce35 da3b cb99 c1bb 9246 c83d da08 03be
00000170: 6507 ccbc f1fa cc3c f3c7 afba 32a4 943b
00000180: d831 a13d ca09 d5bd 2a96 92bd 5afc e33c
00000190: 0e1f 703d 775c a03c 1655 5a3c d36b b7bd
000001a0: 8f04 043d 6cae 883a 6584 60bd 16ba 503d
000001b0: 3baa 31bc 3d69 16be 4159 4dbd 5dba 043c
000001c0: 7177 6cbd 9816 56bc 3c98 c4bd 4430 e73d
000001d0: 8e18 c53b caf5 4ebd cf46 083e 2462 e7bc
000001e0: 8ccc 22bc 47b6 0b3c ab77 193e de14 823c
000001f0: 1344 3b3c 469c 99bb 5ebd 2f3d 0716 21bd
00000200: 8023 bcbd afb7 13bc b041 933d b0e2 413d
00000210: a65a a6bd 96e1 be3c ce47 9a3c 02f1 1cbd
00000220: cc9f 883d 2197 79bd 769c 2d3d d421 4a3d
00000230: cebc c33d 0396 903c b935 0c3d 3b2c c13d
00000240: ba5b 02bd 01c7 2fbd 15dd ccbd 75fd 64bd
00000250: 40b7 1dbc c714 9c3b 2eb7 c9bc 73f8 8e3b
00000260: 07f9 bcbc 673c e83c 035e dc3c f36f c23d
00000270: 52b9 0e3d a9ab 473d b2ee a5bd 264a b8bd
00000280: 2510 12bd b5d7 603d fe7e 94bc 9806 083c
00000290: 9bec 873c 1fbe 0d3e d7e8 0e3d cc60 01be
000002a0: 6fe1 e2bd 399d ce3d 430f 88bd 7717 16bd
000002b0: e8f8 6e3d 0bcc 503d 80bc 793d 8df6 2f3d
000002c0: c9b6 923d 68a0 953d 0608 15be 12f3 b13d
000002d0: e538 483d 28ef aabc 4eab cdbd dd8e 2ebc
000002e0: 7f74 8e3d 4944 e13d f1d0 3ebd c987 9c3c
000002f0: 20fc 88bd 4d04 a6bd 78e0 bfbd fdf3 a8bd
00000300: efb1 b2bc d483 c8bd 360d 783d 5392 09be
00000310: c915 9e3c 10fe 1d3c c27b 353c 4eb6 923c
00000320: a7e6 af3c aceb 76bc 6643 173d f883 203d
00000330: d829 6c3d ea51 483c b66f 053e 7135 07be
00000340: 0d32 afbd fcac c8bc 5f62 713c 5419 d9bc
00000350: 53ae b6bd 5bee 09bc 4981 1e3d f85f d93d
00000360: 8e1b aa3d 221a 9fbd 2149 f8bd 537c 713d
00000370: f89f 2f3d 9675 f4bc a820 f3bd 1c4a 42bd
00000380: 2220 9cbd 376f 71bd afd5 b4bd c998 ebbd
00000390: 56e0 263c 4a88 40bc 97c0 05bd 0a6e 98bd
000003a0: 68ea 903c abfb 1cbe d032 ed3c 58e7 98bd
000003b0: 6301 673b 9345 85bd 5846 e63c 9255 8cbc
000003c0: de5c a53d 5b2c 97bc 66a3 b8bd 4fbd 463d
000003d0: c03d 09be adf6 94bd 6c09 1cbd f8a4 4cbd
000003e0: 3176 02bd e94a 943c e30f d2bd 09f9 413d
000003f0: 75b5 a7bd a754 aabd 6ea8 e6bb 9eef 803b
