src/modeling/downstream_task/trained_models/modeling_gat_trained.pth (torch, 495004 bytes, 8 tensors)

conv1.att_src f4 [1, 8, 256]
0	0xbc0337cc	-0.0080089085
1	0xbded61f1	-0.115909465
2	0xbaf396e8	-0.0018584402
3	0xbcdeef94	-0.02721385
4	0xbdec9a29	-0.11552841
5	0xbe76fb79	-0.24119367
6	0xbc4706ba	-0.0121476
7	0x3806172e	3.1969677e-05
8	0xbcba5a9d	-0.022748286
9	0xbccaaa0b	-0.024739286
10	0xbd2ed322	-0.04268182
11	0xba20a7a8	-0.00061284984
12	0xbdedb455	-0.11606661
13	0xb8a3bb83	-7.8073725e-05
14	0x3a7c0538	0.0009613815
15	0xb94a6f34	-0.00019305648
16	0xbc2987a1	-0.010347278
17	0xbbf25693	-0.0073955744
18	0x3eb0edb2	0.34556347
19	0xbe2d37d2	-0.16915825
20	0xbdb059c4	-0.086108714
21	0xbdb68b31	-0.089132674
22	0xbc1fe603	-0.009759429
23	0xbdc41e96	-0.09576146
24	0xbe14015d	-0.14453645
25	0xbc92e175	-0.017929772
26	0x3c19d764	0.009389732
27	0x3dc7742a	0.097389534
28	0xbb8919b3	-0.004183972
29	0x3c848e36	0.016181093
30	0xbdc1b921	-0.09459139
31	0x3c2dddf4	0.010612
32	0xbd5db15c	-0.05412422
33	0xb62420e1	-2.4457042e-06
34	0x3d14c2e7	0.036318686
35	0xbc085aea	-0.008322457
36	0x395606f0	0.00020411215
37	0xbc6cb8a1	-0.014448316
38	0x3e13389f	0.14377068
39	0x3b1335b4	0.002246243
40	0xbe055a59	-0.13022746
41	0x3a5023a7	0.0007939883
42	0x3c14f533	0.009091663
43	0xbcc8da3e	-0.024518128
44	0xbb985333	-0.00464859
45	0x38930797	7.01092e-05
46	0xbe27b582	-0.16377833
47	0xbe1827d8	-0.14858949
48	0xbc4ce992	-0.012506859
49	0xbbc32065	-0.0059547895
50	0xbe1a72cc	-0.15082854
51	0x3af2bb78	0.0018519005
52	0x3c54d9f7	0.01299142
53	0x3d8d6e4c	0.06905803
54	0x3c0c7012	0.0085716415
55	0x3df075b2	0.117411986
56	0xbca0a840	-0.019611478
57	0xbd184774	-0.037177518
58	0xbe2c7a30	-0.16843486
59	0xb84bf9e4	-4.86317e-05
60	0x3bcace14	0.006189117
61	0xbc446ba8	-0.011988558
62	0xbd466270	-0.04843372
63	0x3a929510	0.001118334
64	0x3c07351b	0.008252407
65	0x39c5d54d	0.0003773369
66	0xbc36eec4	-0.011165325
67	0x3ba0367a	0.0048893066
68	0xba023070	-0.0004966324
69	0xbac698e9	-0.0015151772
70	0x3cfbcaea	0.030736405
71	0xbd0e2657	-0.034704532
72	0x38123c34	3.486518e-05
73	0x3c21089d	0.009828714
74	0x3d13b4c9	0.036061082
75	0x39d4cb05	0.00040587052
76	0x3babead6	0.0052465005
77	0xbb05c96a	-0.0020414242
78	0x38cb1b89	9.684923e-05
79	0xbb1b16b2	-0.002366465
80	0xbd9bad2d	-0.0760139
81	0xbc47618a	-0.012169251
82	0xbdc226b3	-0.094800375
83	0xbe0a0200	-0.13477325
84	0x3aa8ea8c	0.0012887283
85	0x3ccdf78e	0.025142457
86	0xbbd27174	-0.006422216
87	0x3869f74b	5.578184e-05
88	0xbc139285	-0.009007101
89	0x345c95fb	2.0543659e-07
90	0xbca457f7	-0.020061476
91	0xbd76fe93	-0.060301375
92	0x3aedcbd8	0.0018142415
93	0xbc7b665c	-0.015344229
94	0xbc915592	-0.017740998
95	0xb58ec812	-1.0638053e-06
96	0x3b3fcfe4	0.00292682
97	0x360e48aa	2.1201945e-06
98	0xbb07f611	-0.0020746032
99	0xbc27f522	-0.010251315
100	0xbbceef0a	-0.006315117
101	0xbc34bae5	-0.011030887
102	0xbe67d186	-0.2263852
103	0x3be7af88	0.0070704855
104	0xb5457cd7	-7.3569885e-07
105	0x3cb5a98c	0.022175573
106	0x3af59ebf	0.0018739327
107	0xbdf92e4f	-0.12167036
108	0xbcac51c8	-0.02103509
109	0x3ab2fb0e	0.0013655142
110	0x3ca2102e	0.019783106
111	0x3c821ffb	0.01588439
112	0xbaaf06a5	-0.0013353421
113	0xbe2e1158	-0.16998804
114	0x3b26535c	0.0025379276
115	0xbc5f4473	-0.013627159
116	0x3ad2ef10	0.0016092975
117	0xbcfff8f6	-0.031246644
118	0xba25acaf	-0.00063199823
119	0xbab9db4c	-0.0014179735
120	0x3495b538	2.7885267e-07
121	0xb9686df4	-0.00022166205
122	0x3d03a11d	0.03213607
123	0xb57d771c	-9.442317e-07
124	0xbdf150bb	-0.11782976
125	0x39a57de3	0.00031565045
126	0xbbcbbc47	-0.006217513
127	0xbde0d24b	-0.1097761
128	0x3c008b4c	0.007845711
129	0x3b6decea	0.0036304542
130	0xbc4678d4	-0.012113769
131	0x3ea1dcbe	0.31613725
132	0x3a1979ff	0.00058546657
133	0x3b05260e	0.0020316872
134	0x3d8aef66	0.06783943
135	0xbbce307c	-0.006292401
136	0xbbdf2e8a	-0.006810968
137	0xbd9227b1	-0.07136477
138	0xb9d37fc3	-0.00040340246
139	0xbbfd26ae	-0.0077255582
140	0xbb3ee4c2	-0.002912805
141	0xbc3f24ed	-0.011666519
142	0x3955e15c	0.00020397216
143	0xbaf8d230	-0.0018983539
144	0xbd1931ad	-0.03740089
145	0xbb1034ee	-0.0022004205
146	0x3d305253	0.04304726
147	0x3c724279	0.014786356
148	0xbc5421b9	-0.012947493
149	0xbe40fc8f	-0.18846343
150	0x3bcfa3a6	0.006336647
151	0x3d4b7aea	0.049677767
152	0xbd147b3a	-0.03625033
153	0xbd11c7bf	-0.035590883
154	0xb787cf22	-1.6189708e-05
155	0x3a67347c	0.00088197715
156	0x3d08f529	0.033436928
157	0xbd310a5f	-0.04322278
158	0x3d3f1eda	0.04666028
159	0x3c7809e7	0.01513908
160	0xbbdfb805	-0.0068273568
161	0x3d01d7dd	0.031700004
162	0xbd1bf8d4	-0.038079098
163	0xbd435ca6	-0.04769578
164	0xb71b6768	-9.262796e-06
165	0xbc1b5e7b	-0.009482975
166	0x3c3a1017	0.011356375
167	0x3e016cb2	0.1263912
168	0xbd4933ca	-0.049121656
169	0xbb20438e	-0.0024454328
170	0xbd3f87bf	-0.046760317
171	0xbe5782f7	-0.21046053
172	0x3d2fd3d7	0.042926636
173	0xbdc47d2c	-0.09594187
174	0x3c068705	0.008210902
175	0xb9a47936	-0.00031370827
176	0x3969d223	0.00022298894
177	0xbb888391	-0.0041660746
178	0xbce1339c	-0.02749043
179	0x3c8abde2	0.016936246
180	0xb94641b6	-0.0001890723
181	0xbcb2adc2	-0.02181137
182	0xbe21cd1d	-0.15800901
183	0xbdb73733	-0.08946075
184	0xbb8db1f4	-0.004324192
185	0x3a7004f3	0.0009156011
186	0xbe3cbbe9	-0.18431057
187	0xb8b47752	-8.605294e-05
188	0xb83f5b38	-4.5622903e-05
189	0x3e4e83b9	0.20167436
190	0xb8dca2d6	-0.00010520748
191	0x3cc5f0b7	0.024162633
192	0xbb4f0b0f	-0.0031592285
193	0xbc7caea5	-0.015422498
194	0xbb8c59e0	-0.004283175
195	0xbd7f8e80	-0.062391758
196	0xbb28a9ef	-0.0025736054
197	0x3ca224d1	0.019792946
198	0xbd8fc487	-0.070199065
199	0xba6b8008	-0.0008983617
200	0xbb8dc91d	-0.004326953
201	0x3d3ec472	0.046574064
202	0xb8b1efa4	-8.484654e-05
203	0x3a6e1e60	0.0009083506
204	0xbd213c75	-0.039364297
205	0xbba47fb3	-0.0050201057
206	0x3a37831d	0.00070004334
207	0xba73509c	-0.0009281726
208	0xbd07033b	-0.032962065
209	0xbe1d0054	-0.15332156
210	0xbe06ebb8	-0.13175857
211	0xba8f6e13	-0.0010942839
212	0xbcd0fbb3	-0.025510645
213	0xbdaa8487	-0.08326059
214	0x3b0528d2	0.002031852
215	0x3a858ddf	0.0010189376
216	0xb852bad6	-5.0241906e-05
217	0x3db5b466	0.08872299
218	0xbcdee644	-0.027209409
219	0xbd0fd709	-0.035117183
220	0xbcfa4c61	-0.030553998
221	0xbbc0f1c6	-0.0058881966
222	0xbab475e9	-0.001376805
223	0xbbe8820b	-0.0070955805
224	0x3d6eeef5	0.058333356
225	0x3d4204b2	0.04736776
226	0xb96a7899	-0.00022360905
227	0x3ba1b7b5	0.0049352297
228	0xbdc40881	-0.095719345
229	0xbb211810	-0.0024580993
230	0xbd1858d9	-0.037194107
231	0xbbc0bdff	-0.0058820243
232	0x3cabc596	0.02096824
233	0x3636b0d2	2.7223036e-06
234	0xbde986ce	-0.11402665
235	0xbd6a85ec	-0.057256624
236	0x3c1b9640	0.009496272
237	0x3a5e56fb	0.0008481589
238	0xbd18ef1c	-0.037337407
239	0x3c634d03	0.0138733415
240	0xbc942aac	-0.018086754
241	0xbdf36d22	-0.1188605
242	0xbb0033b1	-0.001956206
243	0xbce23e8d	-0.027617717
244	0xba09ade1	-0.0005252045
245	0xbbbe8f84	-0.0058154482
246	0xbadab2f9	-0.0016685418
247	0x3a51c380	0.0008001849
248	0xbdffb15a	-0.12484999
249	0x379d5e78	1.8759849e-05
250	0xbc9ce5b9	-0.019152509
251	0xbc008bd8	-0.007845841
252	0x3852ca51	5.0256323e-05
253	0x3c8dc091	0.017303737
254	0xba37a7c0	-0.00070058927
255	0x3c104d7b	0.008807535

conv1.att_dst f4 [1, 8, 256]
0	0x3ca0af51	0.019614847
1	0xbcdde32a	-0.02708586
2	0x3c5890e4	0.013218138
3	0xbbaeca31	-0.0053341617
4	0xbcadd731	-0.021220775
5	0x3bb358ce	0.005473233
6	0xbb807767	-0.003920484
7	0x37ad5bac	2.0665895e-05
8	0xbbde1aa8	-0.00677808
9	0xbbef3bb9	-0.0073008207
10	0x3b912e08	0.004430536
11	0x3918a7a7	0.00014558305
12	0xbcb1fd88	-0.021727338
13	0x3983ec4c	0.00025162322
14	0x3a023ae2	0.00049678807
15	0x398c8f50	0.00026809657
16	0xbc20ad98	-0.009807013
17	0x3bf811c8	0.007570479
18	0xbcbca8d7	-0.023029728
19	0xbc253c9c	-0.010085251
20	0xbcdbf2e6	-0.026849221
21	0xbceffa0a	-0.029294033
22	0xbc2f4d78	-0.010699622
23	0xbcdb889a	-0.026798535
24	0xbd7b1c61	-0.06130636
25	0xbba6e2b0	-0.005092941
26	0xbb40dbb8	-0.0029427838
27	0xbd356ad7	-0.044291344
28	0x3b938d82	0.004502953
29	0x3b59a398	0.0033209082
30	0x3c2e2436	0.010628751
31	0x3bb92423	0.00565006
32	0xbbb1b5a6	-0.0054232655
33	0x36d8d55d	6.4621404e-06
34	0x3e17cab0	0.14823413
35	0x3a1eb910	0.0006054798
36	0x3af95b85	0.0019024467
37	0xba925894	-0.0011165314
38	0x3c0cbae0	0.008589476
39	0x3c9b12ff	0.018929956
40	0xbc95f58b	-0.01830556
41	0x3b095811	0.0020957033
42	0x3c20f372	0.009823667
43	0xbc61c450	-0.013779715
44	0x3b2cc81e	0.0026364396
45	0x39122301	0.00013936685
46	0xbac0e290	-0.0014715958
47	0x3d77a362	0.06045855
48	0x3b4b8380	0.0031053722
49	0xbabbe719	-0.001433584
50	0xbcf31bf8	-0.029676422
51	0xbc5dfd63	-0.013549182
52	0x3dc29679	0.09501357
53	0x3da34a1a	0.07973118
54	0x3d4cffc5	0.05004861
55	0x3c27f839	0.010252052
56	0x39f2c642	0.0004630555
57	0xbc291818	-0.010320686
58	0xbd1c4ab0	-0.038157165
59	0x3832dae1	4.2642354e-05
60	0x3cb9e2a0	0.022691071
61	0x3b668280	0.0035173
62	0xbd260c39	-0.040539
63	0x3aaf5439	0.0013376541
64	0xbc9e4657	-0.01932065
65	0x39bf77e7	0.00036519693
66	0x3ad634c7	0.0016342633
67	0x3a786d77	0.0009476761
68	0x3a6f038c	0.0009117655
69	0xba0b7a5b	-0.00053206616
70	0x3ab1c3c7	0.0013562375
71	0xbb8cdaeb	-0.004298558
72	0x3b13ecd6	0.0022571585
73	0x3d3b4952	0.04572422
74	0x3e0175dc	0.12642616
75	0x3a05b56f	0.0005100583
76	0x3cc5d3a4	0.02414877
77	0x3adcf285	0.0016856944
78	0x3945c935	0.0001886234
79	0x3ac690be	0.0015149338
80	0x3bf1cb91	0.0073790033
81	0xba43ca78	-0.000746883
82	0x3d01a812	0.031654425
83	0x3d104477	0.035221543
84	0x3c9fd825	0.019512245
85	0x3d2b6a81	0.041849617
86	0xbadfe4da	-0.0017081753
87	0x39e8af99	0.0004438132
88	0xbae7fcef	-0.0017699281
89	0x37688c54	1.386095e-05
90	0xbb519cf6	-0.0031984425
91	0xbb9fdbdd	-0.0048785047
92	0x3cd02d37	0.025412185
93	0xbb8d9048	-0.004320178
94	0x3ca964aa	0.020677883
95	0x3769a08f	1.3925265e-05
96	0x3c247788	0.010038264
97	0x34e2a7d2	4.2217886e-07
98	0x3c199408	0.009373672
99	0xbb9777f0	-0.004622452
100	0x3bace3b7	0.005276169
101	0x3cfb9879	0.030712353
102	0x3d5ef570	0.054433286
103	0x3c5aca79	0.013353937
104	0x349a5ff4	2.875455e-07
105	0x3b52c840	0.0032162815
106	0x3b9b4d7a	0.0047394605
107	0xbcbd848e	-0.023134496
108	0xbcb1a8d1	-0.021686943
109	0x3c2c3c59	0.010512435
110	0x3b96dfc5	0.004604312
111	0x3c537508	0.01290632
112	0x3c145ef9	0.009055846
113	0xbcd91476	-0.026499014
114	0x3ab60afd	0.0013888773
115	0x3c17a04b	0.009254525
116	0x3a0105ac	0.00049218046
117	0xbc0af1f9	-0.008480542
118	0x3c00f7ff	0.007871627
119	0x3bad9d1a	0.005298269
120	0x36677723	3.449103e-06
121	0x3858e5f1	5.1712563e-05
122	0xbbcc7a70	-0.0062401816
123	0x3777579e	1.4742747e-05
124	0xbdb55579	-0.08854193
125	0xb997454a	-0.0002885259
126	0x3c86a4c7	0.016435994
127	0x3c5012e0	0.012699813
128	0x3ca030f3	0.01955459
129	0x3c3cb466	0.01151762
130	0xba31da64	-0.0006784557
131	0xbcc440e9	-0.023956733
132	0x3aa6e74f	0.001273373
133	0xbb96f970	-0.004607372
134	0x3c81db71	0.015851708
135	0x3a74c28e	0.0009336852
136	0x3bbd9711	0.005785831
137	0xbc219f01	-0.00986457
138	0xbb61713b	-0.0034399766
139	0x3b258a48	0.0025259424
140	0x3c04a887	0.008096821
141	0x3d6d53c2	0.057941206
142	0xb9237067	-0.00015586764
143	0xb914165e	-0.00014122712
144	0xb9d15d79	-0.0003993323
145	0xba198719	-0.0005856618
146	0x3dcb390d	0.09922991
147	0xbbce74e9	-0.006300558
148	0xbb3aaa67	-0.0028482915
149	0x3d6688f8	0.056282967
150	0x3caa4a2a	0.020787317
151	0x3d2d09d2	0.042245694
152	0xbda6d62a	-0.08146317
153	0xbc06d8ee	-0.008230431
154	0x36b445dd	5.372551e-06
155	0x3b0b56e2	0.0021261503
156	0x3dba93ee	0.091102466
157	0xbcae2ceb	-0.021261653
158	0x3babe388	0.0052456297
159	0x3bf723d3	0.0075421124
160	0x3ba59102	0.0050526867
161	0xbcca9ddb	-0.024733474
162	0xbce19cde	-0.02754062
163	0xbb879ec2	-0.0041387985
164	0x39297754	0.00016161549
165	0xbc40ffbb	-0.011779721
166	0xbc368c01	-0.011141778
167	0xba767fb9	-0.00094031874
168	0xbc4c3e19	-0.012465977
169	0x3996b34c	0.00028743816
170	0xbdf43557	-0.11924236
171	0xbad01f46	-0.0015878461
172	0xbc24ec7b	-0.010066147
173	0xbc5499a2	-0.012976082
174	0x3cfdd81e	0.030986842
175	0x3a3d4cb3	0.0007221207
176	0x3acd43df	0.0015660486
177	0x3af570b0	0.00187256
178	0x3c1820b3	0.00928514
179	0x3db032c2	0.08603431
180	0xb7b4e2e3	-2.1563324e-05
181	0xbb5a12da	-0.0033275397
182	0xbcd9e488	-0.02659823
183	0x3c28db0c	0.010306131
184	0x3af5e986	0.0018761612
185	0xbbd7be65	-0.006583976
186	0xbc3e025d	-0.011597243
187	0x39d35d19	0.0004031442
188	0x39f4f8b1	0.00046724596
189	0x3c00b641	0.007855953
190	0x3a728b71	0.0009252346
191	0x3cc6f506	0.024286758
192	0x3b88e63f	0.004177838
193	0xbb015714	-0.001973574
194	0x3c3be63a	0.0114684645
195	0x39cd98ea	0.00039214577
196	0x3a280e06	0.0006410781
197	0x3b3a574b	0.0028433378
198	0xbce21006	-0.027595531
199	0x3a0e8b90	0.00054376666
200	0x3e261444	0.16218668
201	0xbb212282	-0.0024587219
202	0x39d1e2cf	0.00040032572
203	0x3c0efe3b	0.008727605
204	0xbc1d4916	-0.009599945
205	0x3b465404	0.003026248
206	0x3a20f353	0.0006139774
207	0x3a0b127e	0.0005305185
208	0x3c49b1e5	0.01231048
209	0xbd3869ed	-0.045022894
210	0x3b372d12	0.0027950448
211	0x34e0ae66	4.1850143e-07
212	0xb7adebe8	-2.073306e-05
213	0x3dbed018	0.093170345
214	0x3c03d966	0.008047437
215	0x3ad83a6d	0.0016496904
216	0x38d0dd9c	9.959491e-05
217	0x3bf821a1	0.0075723683
218	0xbbfbcbf3	-0.0076842248
219	0xbbc8f32a	-0.006132503
220	0xbabd8f3e	-0.0014462245
221	0x3a8db1b3	0.0010810405
222	0x3987961a	0.0002586104
223	0xbd28ce04	-0.041212097
224	0xbc3105ba	-0.010804588
225	0xbd9b0a58	-0.07570332
226	0x3a79e690	0.00095329527
227	0xba562be5	-0.0008169993
228	0x3cad73ee	0.021173444
229	0xba579595	-0.00082238886
230	0xbbc11009	-0.005891804
231	0xba1adf44	-0.0005907903
232	0x3d5ef383	0.05443145
233	0xb6cbec77	-6.0773996e-06
234	0xbc834bd9	-0.016027378
235	0xbc2d1c23	-0.01056579
236	0x3bc156bf	0.0059002335
237	0x39d7c465	0.0004115432
238	0xbc9e7bda	-0.019346166
239	0x3d4a79e5	0.049432654
240	0xba1eeb16	-0.0006062252
241	0x3d2541ad	0.040345836
242	0x3b01afa5	0.001978853
243	0xbe06c5df	-0.1316142
244	0x3b20aa48	0.0024515558
245	0xba9d5ffb	-0.0012006754
246	0xbab2fe35	-0.0013656082
247	0x3ad8658c	0.0016509756
248	0x3c987938	0.01861249
249	0x3bc04764	0.0058678854
250	0x3d469f85	0.048491973
251	0x3d0eab12	0.034831114
252	0x386736d0	5.512574e-05
253	0xbc870528	-0.01648195
254	0x3a8cf095	0.0010752851
255	0x3c54b3cf	0.012982323

conv1.bias f4 [2048]
0	0xbc84d6ef	-0.01621577
1	0x3e4f1173	0.202215
2	0xbb70d8e4	-0.003675037
3	0xbcd50b32	-0.026006315
4	0xbe1981d5	-0.14990933
5	0x3e6f7901	0.23386003
6	0xbca37625	-0.019953797
7	0xbb07e70c	-0.002073708
8	0xbca3c563	-0.019991582
9	0xbd3c921e	-0.046037786
10	0xbddfae02	-0.10921861
11	0xba0521a4	-0.000507856
12	0x3da27bc6	0.07933764
13	0xb96f2318	-0.0002280589
14	0xbaabc2a9	-0.0013104278
15	0xba35e356	-0.0006938478
16	0xbc6c5bff	-0.01442623
17	0xbd447d78	-0.04797122
18	0xbf2d2b0d	-0.67643815
19	0xbdcfd931	-0.10148848
20	0xbd80cc1a	-0.06288929
21	0xbe1a48a0	-0.15066767
22	0xbd12513a	-0.035721995
23	0x3d319cfb	0.0433626
24	0xbe0ce5a8	-0.13759482
25	0xbc8ad3ac	-0.016946636
26	0xbb988f97	-0.004655789
27	0xbe2b4575	-0.16725715
28	0xbca618aa	-0.020275433
29	0xbca1be9b	-0.019744208
30	0xbdb4a502	-0.08820535
31	0xbcda4436	-0.026643854
32	0xbd82f572	-0.06394471
33	0xb74929d5	-1.1990273e-05
34	0xbdabd8bf	-0.083909504
35	0xbc795339	-0.015217596
36	0xba0d8607	-0.0005398695
37	0xbc3653e1	-0.011128397
38	0xbe545528	-0.2073561
39	0xbc84d11f	-0.016212998
40	0xbd953097	-0.072846584
41	0xb9b33b45	-0.000341857
42	0xbc8675ce	-0.016413596
43	0xbcb157bd	-0.021648282
44	0xbbe66657	-0.007031243
45	0xba97bf3a	-0.0011577376
46	0x3e64a672	0.22329119
47	0x3dd206a7	0.10255175
48	0xbc5c2446	-0.013436383
49	0xbbd5f466	-0.0065293787
50	0x3e785bd4	0.2425378
51	0xbcdadc0e	-0.026716258
52	0xbcc62ece	-0.02419224
53	0xbc74fe0c	-0.014953148
54	0xbe2888aa	-0.16458383
55	0xbe527fc2	-0.20556548
56	0xbd517a16	-0.05114182
57	0xbcaacb8b	-0.02084901
58	0xbdc97cc4	-0.0983825
59	0xb8b480fc	-8.607094e-05
60	0xbcf91765	-0.030406663
61	0xbc18dece	-0.0093304645
62	0xbe00862a	-0.1255118
63	0xba1a06a9	-0.0005875626
64	0xbd70420f	-0.05865675
65	0xba060127	-0.0005111866
66	0xbd75e953	-0.06003697
67	0xbbfac8b2	-0.0076533193
68	0xbae73199	-0.0017638683
69	0xbb862a13	-0.004094371
70	0xbed6f20d	-0.41981545
71	0xbd9ea3f0	-0.07746112
72	0xbb154617	-0.0022777373
73	0xbd2fe6ae	-0.042944603
74	0xbe009586	-0.12557039
75	0xbac1a268	-0.0014773132
76	0xbc574c32	-0.013140725
77	0xbb528761	-0.003212415
78	0xb9a0e1b6	-0.00030685746
79	0xbc4e2efe	-0.012584446
80	0x3e1dc187	0.15405856
81	0xbc94e47c	-0.018175356
82	0xbe1c270a	-0.15249267
83	0xbe008676	-0.12551293
84	0xbbd31b57	-0.006442468
85	0xbc8e3580	-0.017359495
86	0xbcde234d	-0.027116442
87	0xba11ced8	-0.0005562133
88	0xbbc64734	-0.0060509685
89	0xb7baf687	-2.2287726e-05
90	0xbc7bee71	-0.015376673
91	0xbcab816c	-0.020935737
92	0xbd36ab14	-0.044596747
93	0xbc627eac	-0.013824146
94	0xbcf1f211	-0.029534372
95	0xb6b46bca	-5.3769663e-06
96	0xbc423ea0	-0.011855751
97	0xb681a9da	-3.864273e-06
98	0xbbf3c7b7	-0.0074395793
99	0xbcf60772	-0.030032847
100	0xbca0b456	-0.01961724
101	0xbd3d5357	-0.046222057
102	0x3e679946	0.22617063
103	0xbc2739e4	-0.010206673
104	0xb723ab9b	-9.755512e-06
105	0xbc9a3ac8	-0.018826857
106	0xbb753953	-0.00374182
107	0xbd1cbad7	-0.03826412
108	0xbc8fe6a4	-0.017566033
109	0xbc6a7ccb	-0.0143119795
110	0xbdc7d427	-0.09757262
111	0xbd1eb02a	-0.038742222
112	0x3dd21d6e	0.102595195
113	0x3d7fbf3e	0.062438242
114	0xbbac59c2	-0.0052597234
115	0xbd088fb7	-0.033340182
116	0xba6dffb7	-0.0009078937
117	0xbd057b67	-0.03258839
118	0xbd2bef0b	-0.041976016
119	0xbbc8d642	-0.006129057
120	0xb70859c4	-8.127132e-06
121	0xba4cb5c6	-0.0007809069
122	0x3c0fbb05	0.008772616
123	0xb7d75aa5	-2.5672207e-05
124	0xbe282558	-0.16420496
125	0xba940088	-0.0011291662
126	0xbce13354	-0.027490295
127	0x3e5a97da	0.2134699
128	0xbcc688a1	-0.024235072
129	0xbceb911f	-0.028755723
130	0xbc4a525b	-0.012348737
131	0xbef29f65	-0.47387233
132	0xba6a188a	-0.0008930048
133	0xbb2b9b85	-0.0026185226
134	0xbd78d71e	-0.060752027
135	0xbc13c18a	-0.009018311
136	0xbc518b2f	-0.012789532
137	0xbcec64b1	-0.028856607
138	0xbd815706	-0.063154265
139	0xbbe67586	-0.007033053
140	0xbc01525c	-0.007893171
141	0xbde6283f	-0.11238145
142	0xba38ee61	-0.0007054564
143	0xbca50da9	-0.020148115
144	0xbd4ea59a	-0.0504509
145	0xbbc2c899	-0.0059443233
146	0xbda8cb3d	-0.082418896
147	0xbd281cfb	-0.041043263
148	0xbc91291d	-0.0177198
149	0xbdf9632d	-0.121771194
150	0xbcdede9c	-0.027205758
151	0xbe41f30b	-0.1894037
152	0xbdb0d27f	-0.08633899
153	0xbcb8ff8c	-0.022582792
154	0xb810649a	-3.4425968e-05
155	0xbb13512b	-0.00224788
156	0xbe5ec44f	-0.21754573
157	0x3dd18530	0.102304816
158	0xbd5b27d8	-0.053504795
159	0xbdabc4aa	-0.0838712
160	0xbc348576	-0.011018148
161	0xbd8124b8	-0.06305832
162	0xbe60f05b	-0.21966688
163	0xbcee62e4	-0.02909989
164	0xb99a9363	-0.0002948298
165	0xbd5a133f	-0.05324101
166	0xbd8883bf	-0.066657536
167	0xbde63072	-0.11239709
168	0xbcf26a6a	-0.029591758
169	0xbbcb803b	-0.0062103546
170	0xbde76867	-0.1129921
171	0x3dac84da	0.08423777
172	0x3d7e91d7	0.062150802
173	0xbd7da847	-0.06192806
174	0xbd84c8e2	-0.06483628
175	0xba494af7	-0.0007678712
176	0xba65864a	-0.00087556674
177	0xbc97c899	-0.01852827
178	0xbe8c6f0a	-0.27428466
179	0xbd20871d	-0.039191354
180	0xbaf0fb8a	-0.0018385511
181	0xbc531000	-0.012882233
182	0xbd9572f5	-0.07297317
183	0x3e662ed0	0.22478795
184	0xbba3ad77	-0.004995044
185	0xbbec55be	-0.0072123697
186	0x3e89e73e	0.26934236
187	0xb9d8432d	-0.0004124878
188	0xb9f36c6d	-0.00046429355
189	0xbe269067	-0.16266023
190	0xba07ee78	-0.0005185376
191	0xbd80f1b8	-0.06296104
192	0xbbaacafc	-0.005212186
193	0xbc69f3ee	-0.014279349
194	0xbc300aef	-0.010744794
195	0xbd7e7b48	-0.06212929
196	0xbc7e2b88	-0.015513308
197	0xbcf63b1b	-0.03005748
198	0xbdd1afe9	-0.1023863
199	0xbaa4adb3	-0.0012563973
200	0xbdcbdb68	-0.09953958
201	0xbd59be45	-0.05315997
202	0xb99cd7de	-0.00029915472
203	0xbb8a216b	-0.0042154095
204	0xbd262347	-0.040560987
205	0xbc4678d4	-0.012113769
206	0xba607473	-0.0008562274
207	0xbb28b8ea	-0.0025744983
208	0xbd2168c9	-0.03940657
209	0x3d6f5e86	0.058439754
210	0x3e139717	0.14413105
211	0xba2e719f	-0.0006654504
212	0xbc2cf2d0	-0.010555938
213	0xbe007237	-0.1254357
214	0xbbd8d3d7	-0.00661705
215	0xbaf81a8c	-0.001892881
216	0xb93a85f0	-0.00017788238
217	0xbd86031a	-0.0654356
218	0xbc8f47f0	-0.017490357
219	0xbc9dea3d	-0.019276733
220	0xbc29a32b	-0.010353844
221	0xbc9a1cd5	-0.018812576
222	0xbb95789c	-0.004561497
223	0xbc011d03	-0.007880452
224	0xbdea4d67	-0.114405446
225	0xbbd5d8cd	-0.006526089
226	0xb9fcb0cc	-0.0004819691
227	0xbc16188b	-0.009161125
228	0x3e0f50c3	0.13995652
229	0xbc3c8e11	-0.011508481
230	0xbb89a8c8	-0.0042010285
231	0xbda7897b	-0.08180519
232	0xbccf8cc5	-0.025335679
233	0xb820762a	-3.825702e-05
234	0xbd430e96	-0.047621332
235	0xbcd570c3	-0.026054746
236	0xbe3550d7	-0.17706619
237	0xbad25510	-0.0016047079
238	0xbd78cdcc	-0.06074314
239	0xbcb57674	-0.02215121
240	0xbc4b3364	-0.012402389
241	0x3deb51b6	0.114901945
242	0xbb632de7	-0.003466481
243	0xbd81c825	-0.06337003
244	0xbb55c062	-0.003261589
245	0xbcc9c708	-0.024631038
246	0xbbebb69c	-0.0071933996
247	0xbb7a6ad7	-0.0038210654
248	0xbd3b4106	-0.045716308
249	0xbaaff82b	-0.00134254
250	0xbe0d30d2	-0.13788155
251	0xbd8ff4d3	-0.070291184
252	0xba068e15	-0.0005132866
253	0x3de09f05	0.109678306
254	0xbace0e3c	-0.0015720795
255	0xbcdd07c3	-0.02698124

conv1.lin.weight f4 [2048, 55]
0	0xbb60373d	-0.0034212612
1	0x3b517b99	0.003196454
2	0xbc263fd9	-0.010147058
3	0xbcd2678f	-0.025684146
4	0x3bf36cf5	0.00742876
5	0xbac6e34d	-0.0015173942
6	0xbcdbbb4f	-0.026822714
7	0xbc3cc02b	-0.011520426
8	0x381bc15f	3.713497e-05
9	0x3b520f9a	0.0032052756
10	0xb74a1ada	-1.204639e-05
11	0xbac45e36	-0.001498169
12	0x379e4144	1.886546e-05
13	0x362a00b7	2.533239e-06
14	0xbb4f8a8f	-0.003166828
15	0x377e2a50	1.5149431e-05
16	0xb8f718b4	-0.00011782479
17	0x389754da	7.216046e-05
18	0x38357035	4.3258264e-05
19	0xbab9eb61	-0.0014184528
20	0x388f7f7f	6.842519e-05
21	0xbba8db6b	-0.00515311
22	0x39400f1d	0.00018316177
23	0x396f0a4c	0.00022796652
24	0xbb33f243	-0.0027457632
25	0xb9293ab4	-0.00016138965
26	0x3a881375	0.0010381775
27	0xb9ffb4c4	-0.0004877207
28	0xba244078	-0.000626571
29	0xbaa1e1e0	-0.0012350641
30	0x39962917	0.00028640844
31	0x3bd0f593	0.006376931
32	0x3a9562a1	0.0011397192
33	0x39bd9308	0.00036158436
34	0x3bcf798d	0.0063316287
35	0x3acb230e	0.0015498118
36	0xbb08be38	-0.0020865332
37	0x397eda83	0.0002430473
38	0xba6b09b2	-0.0008965983
39	0x3b44bcce	0.0030019763
40	0xb8ee9691	-0.000113767695
41	0xb8997579	-7.3174895e-05
42	0xba5f4872	-0.000851757
43	0x3b136b98	0.002249455
44	0xb9e29ac0	-0.00043221377
45	0x384c7e64	4.87551e-05
46	0x3ac680c3	0.0015144575
47	0xbaf32368	-0.0018549981
48	0xba6db2c0	-0.00090674683
49	0xba9f6b45	-0.0012162706
50	0xbb23785c	-0.0024943566
51	0x383d98ed	4.5203535e-05
52	0xbaafd218	-0.0013414053
53	0xba2a42ee	-0.00064949587
54	0xb872eff1	-5.792076e-05
55	0x3bf89dde	0.0075871786
56	0x3c140471	0.009034262
57	0xbe46a6f7	-0.1939963
58	0xbe49489f	-0.19656609
59	0xbc8e174b	-0.017345091
60	0xb9e2e8f0	-0.0004327963
61	0xbd6950d5	-0.056961853
62	0xbcbfbcc0	-0.023405433
63	0x3b3522f4	0.0027639242
64	0xbc599234	-0.013279486
65	0x3a216d6c	0.0006157968
66	0x3b9c9175	0.004778082
67	0xbac4084c	-0.0014956086
68	0xb9714821	-0.00023010421
69	0x3cd13cf8	0.025541767
70	0xba3d141f	-0.0007212776
71	0xba558a57	-0.00081459194
72	0x398ce9f3	0.00026877187
73	0x38dece84	0.000106242514
74	0xb9d64709	-0.00040870186
75	0x36cc1d51	6.0830866e-06
76	0xbb2fa3be	-0.0026800479
77	0x3b3ce0db	0.0028820548
78	0xb8ef6634	-0.00011415445
79	0x3b0692dc	0.0020534312
80	0xbce01ca7	-0.027357413
81	0xbc996295	-0.018723765
82	0x3df64954	0.12025705
83	0x3d67d4df	0.056599494
84	0x3c9da96c	0.019245826
85	0x3a959dfe	0.0011414883
86	0xbb8b23ad	-0.0042461962
87	0xbc1401c3	-0.009033623
88	0xbc371439	-0.011174255
89	0xbdce652b	-0.1007789
90	0x3c1b1b85	0.00946701
91	0xbdc05e95	-0.0939304
92	0xbca62bc0	-0.020284534
93	0xbcf25595	-0.029581824
94	0xbdf6cd22	-0.12050845
95	0x3ce4f1b3	0.027947282
96	0x3a934b60	0.0011237673
97	0xbd7feec4	-0.062483564
98	0xbc69a8ff	-0.014261483
99	0xbd1fa85a	-0.038978912
100	0xbaffe0e0	-0.0019521974
101	0xbbf085e3	-0.0073401793
102	0xb974627d	-0.00023306343
103	0xbc5054b6	-0.012715509
104	0x3a1cf74d	0.00059877784
105	0x3d937d52	0.07201637
106	0xb99f075f	-0.00030332335
107	0x3c853e8b	0.016265174
108	0xbb373112	-0.0027952832
109	0xbbcace0e	-0.0061891144
110	0x3b1adf23	0.0023631535
111	0xb9dc74d6	-0.0004204872
112	0x38fc295d	0.00012024001
113	0xbb952baa	-0.0045523243
114	0xba6d9a5a	-0.00090638327
115	0x3aee0003	0.0018157962
116	0xbbda76ec	-0.0066670086
117	0xbc073966	-0.008253431
118	0xb8895bc2	-6.54976e-05
119	0xba7087ca	-0.00091755076
120	0x385c271e	5.2488518e-05
121	0xbb13ec96	-0.0022571436
122	0xb94d6be5	-0.00019590517
123	0xb697c736	-4.523342e-06
124	0x3bced166	0.0063115833
125	0x37896cf7	1.6382413e-05
126	0x394bfe70	0.00019454374
127	0xb81d6530	-3.7525955e-05
128	0xb76d1d7d	-1.4133167e-05
129	0x393d9eb8	0.00018083572
130	0xb7711086	-1.4368567e-05
131	0xbb831a4c	-0.0040009376
132	0x38d566df	0.00010175793
133	0xb70b6453	-8.308404e-06
134	0xb8d311fc	-0.00010064614
135	0xba25c21b	-0.00063231745
136	0x39840c89	0.0002518634
137	0xbac0eb36	-0.0014718536
138	0x39fc6c53	0.00048145893
139	0x3afe4e59	0.0019402012
140	0x38aa0b4c	8.108336e-05
141	0x3a4b5e21	0.0007757862
142	0xba4de7fd	-0.00078546983
143	0x38af3453	8.3543964e-05
144	0x3a2615f4	0.0006335669
145	0x3a725a1b	0.0009244994
146	0x3a1b2d1f	0.00059195043
147	0xb9dbe145	-0.00041938774
148	0xba0b66df	-0.0005317758
149	0x3b44351f	0.002993889
150	0x39850de6	0.00025378092
151	0x3a8feff1	0.0010981542
152	0xb86200f9	-5.3883505e-05
153	0x3a024b55	0.0004970332
154	0x3b52844c	0.0032122312
155	0x3a0dc819	0.000540854
156	0x3b04faaa	0.002029101
157	0xb9a1d2d3	-0.0003086539
158	0x39a51333	0.00031485557
159	0xb8ed6ca4	-0.000113212765
160	0x3b333024	0.0027341926
161	0x36fb3cd0	7.4874624e-06
162	0x3b0218cd	0.0019851208
163	0xb881ca28	-6.188854e-05
164	0xb820d6b4	-3.834693e-05
165	0x3a8f1f4d	0.0010919363
166	0x3a3de2cd	0.0007243574
167	0xbb4bc10b	-0.0031090404
168	0xbd0e867f	-0.034796234
169	0x3b9763ff	0.0046200748
170	0x3b0fbdb7	0.0021933147
171	0x3bc51172	0.0060140425
172	0x3b93e507	0.004513386
173	0xba754326	-0.0009356014
174	0xbbc267d4	-0.0059327874
175	0x38b9ffe8	8.869154e-05
176	0x394c03d5	0.00019456384
177	0x3873e266	5.8146565e-05
178	0x39a5929e	0.0003158049
179	0x398af778	0.0002650579
180	0x3869b627	5.572117e-05
181	0xba3504a4	-0.00069052936
182	0x39cb6a07	0.00038798174
183	0x3a046ccf	0.0005051614
184	0xbaf222c5	-0.0018473497
185	0x36812ab2	3.84947e-06
186	0xbbca5195	-0.006174276
187	0x3a22b6de	0.0006207059
188	0x3980aa34	0.00024540874
189	0xbb3bd80e	-0.0028662714
190	0x38fba1cf	0.00011998752
191	0x3b14ae48	0.0022686888
192	0xb820a3ce	-3.8299528e-05
193	0x378611a9	1.5982268e-05
194	0xba1d0224	-0.00059893937
195	0x3a17d1ab	0.0005791436
196	0x3bc255d3	0.005930641
197	0xb91295fc	-0.00013979519
198	0x3aba0bd7	0.0014194202
199	0x3c1106b6	0.008851698
200	0x3a179261	0.0005782005
201	0xb98dc4cb	-0.00027040238
202	0xba32a74d	-0.0006815091
203	0xbab5d5be	-0.0013872904
204	0x39b956ff	0.00035350767
205	0x3b57ff29	0.0032958484
206	0x3bb3ad35	0.0054832944
207	0xba24fc24	-0.00062936754
208	0x3ba440ce	0.005012608
209	0xbc56218d	-0.013069523
210	0xb96592a9	-0.00021893777
211	0x39d25969	0.00040120937
212	0xbb07d4e1	-0.002072625
213	0xbb1d5bbc	-0.0024010977
214	0xbb249412	-0.002511267
215	0x39f2499b	0.00046212677
216	0x38bea321	9.090291e-05
217	0xbafab238	-0.00191266
218	0xb881fc56	-6.1982006e-05
219	0xb8ba7a13	-8.891909e-05
220	0x3bf40193	0.0074464767
221	0x3b4fb9d0	0.0031696446
222	0xbc8a1983	-0.016857868
223	0xbdf170d5	-0.11789099
224	0x3ca8ffe6	0.020629834
225	0x3c5c955e	0.013463346
226	0x3cc509a1	0.024052443
227	0x3caf874b	0.021426817
228	0xba20ab51	-0.0006129044
229	0xbca74881	-0.020420315
230	0x3a41c3a7	0.000739152
231	0x3bf675b6	0.0075213565
232	0x3aa56256	0.0012617807
233	0x3a4db573	0.00078471674
234	0x3cca6654	0.024706997
235	0x38cd8b59	9.801117e-05
236	0xbb8b8929	-0.004258294
237	0x3a6cf340	0.00090389326
238	0x3accf6cd	0.0015637517
239	0xbc00b265	-0.007855033
240	0x346409cf	2.1237723e-07
241	0xbc5440ce	-0.012954904
242	0x3b28bda0	0.002574779
243	0x3ad8b64c	0.0016533821
244	0xbb1a152d	-0.0023511157
245	0xbd00888f	-0.031380232
246	0x3d58c4f6	0.05292221
247	0xbccd8b0f	-0.025090722
248	0xbc87f4be	-0.016596194
249	0x3c283cd4	0.010268409
250	0x3adba96d	0.0016758867
251	0x3b0ff301	0.002196491
252	0x3b8e29ad	0.0043384642
253	0x3b75f463	0.00375297
254	0x3d0f5abf	0.03499865
255	0x3c1199f8	0.008886807

conv2.att_src f4 [1, 1, 2]
0	0x3f69de82	0.91355145
1	0x3f8b2b36	1.0872562

conv2.att_dst f4 [1, 1, 2]
0	0x3f24744f	0.6423997
1	0x3e05bda6	0.13060626

conv2.bias f4 [2]
0	0x3d85d96b	0.0653561
1	0xbd85dbff	-0.065361015

conv2.lin.weight f4 [2, 2048]
0	0x3be6fe95	0.0070493915
1	0xbe12d93b	-0.1434068
2	0xb8f7e16f	-0.00011819868
3	0x3b66574b	0.0035147246
4	0xbd1e75d0	-0.038686574
5	0xbe21158f	-0.1573088
6	0x3c683b87	0.014174349
7	0xba5d2bb0	-0.0008436991
8	0x3c07ad28	0.00828103
9	0x3d753ccc	0.059872434
10	0xbd1428b4	-0.03617163
11	0xb9ec0a3b	-0.0004502105
12	0xbd26819f	-0.04065096
13	0xb7114aeb	-8.660117e-06
14	0x38a5685d	7.887252e-05
15	0xba8a6af1	-0.0010560435
16	0xbc8052c0	-0.015664458
17	0x3c98a26a	0.018632133
18	0xbde516cf	-0.11185991
19	0xbd73d353	-0.059527706
20	0xbcaef5c1	-0.021357419
21	0x3cf9edfd	0.03050899
22	0xbd2280df	-0.039673682
23	0xbd6bd264	-0.05757369
24	0xbbb6cb54	-0.005578438
25	0xbcc8c228	-0.024506643
26	0x3af3bd24	0.0018595797
27	0xbdca8882	-0.09889318
28	0xbabdc101	-0.0014477075
29	0x3c9d29fd	0.01918506
30	0xbd075ff4	-0.033050492
31	0x3cb79a97	0.022412581
32	0xbd0fc922	-0.035103925
33	0x3885c2df	6.378232e-05
34	0xbd1a6608	-0.03769496
35	0x3c421e93	0.01184811
36	0x3a9710a2	0.0011525343
37	0x39e6808a	0.00043964788
38	0xbd9b94fb	-0.07596775
39	0x3d6c323a	0.057665087
40	0x3c0e03bb	0.008667882
41	0xb92e6726	-0.00016632359
42	0x3b178e97	0.0023125762
43	0xbc3e9e5a	-0.011634434
44	0x3a98f701	0.0011670293
45	0xbc64ef69	-0.013973095
46	0xbe064bc4	-0.1311484
47	0x3d0a1b90	0.033717692
48	0x3ad89fc0	0.0016527101
49	0x3b33db66	0.0027444004
50	0xbe4c2a40	-0.19937992
51	0xbd4bbcb7	-0.04974052
52	0xb80a123e	-3.2918753e-05
53	0x3c87bf0c	0.01657059
54	0x3d752bb6	0.05985614
55	0xbd66ce67	-0.056349184
56	0x3d4458ba	0.04793618
57	0x3c08a363	0.008339736
58	0xbd68464f	-0.056707677
59	0xb8b8c625	-8.810711e-05
60	0xbb9fb625	-0.0048740082
61	0x3cc98097	0.02459745
62	0xbc9d370e	-0.019191291
63	0xbbc99427	-0.0061516943
64	0x3d22c23f	0.03973603
65	0x398b40d4	0.00026560447
66	0xbcd1ca3a	-0.025609124
67	0x3bb4dfaf	0.005519829
68	0x3a10c5a1	0.0005522613
69	0x3b2ba77a	0.0026192353
70	0x3e44c299	0.19214858
71	0x3b37e6e7	0.0028061213
72	0x3a0d3cd7	0.0005387789
73	0x3ce8fbf3	0.028440451
74	0xbd13813f	-0.03601193
75	0xbac3aabd	-0.0014928203
76	0xbd074a88	-0.033030063
77	0xbb71cfee	-0.0036897617
78	0xb814fc49	-3.552091e-05
79	0x3bf4779b	0.007460547
80	0xbe17a8a5	-0.14810427
81	0x3db9ac6f	0.09066092
82	0x3d60b69e	0.054861657
83	0xbdc1d76d	-0.09464917
84	0x3bdd2e51	0.006749906
85	0x3cf921b5	0.03041158
86	0xba7e6175	-0.0009703853
87	0xb7792c78	-1.485191e-05
88	0xbaa8266e	-0.0012828836
89	0xb96fe298	-0.00022877229
90	0xbb1098be	-0.0022063698
91	0x3cba536d	0.022744859
92	0x3d45307d	0.048141945
93	0xbc168cea	-0.00918887
94	0xbcd6b30d	-0.026208425
95	0xb6bd2bdd	-5.6377453e-06
96	0x3cd5a46b	0.026079377
97	0xb482fb83	-2.4397386e-07
98	0xbb0da9de	-0.0021616141
99	0xbbf25380	-0.007395208
100	0xbc25aa6a	-0.010111431
101	0x3a3e7660	0.0007265564
102	0xbe4b724f	-0.19867824
103	0x3be8c52d	0.0071035833
104	0xb657cd8c	-3.215714e-06
105	0x3a6bea6e	0.00089994713
106	0x3a06ac2a	0.0005137349
107	0xbc2b3377	-0.010449282
108	0x3b8ee7cc	0.0043611284
109	0xbb47a324	-0.003046223
110	0x3ca3780a	0.0199547
111	0x3c05951a	0.008153224
112	0xbd084236	-0.03326627
113	0x3dbcb5c8	0.092143595
114	0x3b169b28	0.0022980664
115	0xbcfd7d7b	-0.030943623
116	0xbadd477c	-0.0016882266
117	0xbbb29405	-0.005449774
118	0x3d24ec41	0.04026437
119	0x3b27bc87	0.0025594549
120	0x3600742d	1.914111e-06
121	0x395bb602	0.0002095327
122	0xbd2f3bc9	-0.042781625
123	0xb7cdf164	-2.455031e-05
124	0x3db0e265	0.08636931
125	0xbaece5c9	-0.0018073852
126	0x3c6dc0c7	0.014511294
127	0x3d196ae7	0.037455466
128	0xbbf4c193	-0.007469365
129	0xbd178a80	-0.03699732
130	0x3ba0c389	0.004906122
131	0xbe4237ac	-0.1896655
132	0xba0823fe	-0.00051933515
133	0xbc370e33	-0.011172819
134	0xbbe50249	-0.006988798
135	0x3cf7f805	0.030269632
136	0x3c3de91c	0.011591222
137	0x3a9bd21f	0.0011888182
138	0xbb5ec762	-0.0033993353
139	0xbb477d88	-0.0030439813
140	0xbc618d4e	-0.0137666
141	0x3d093631	0.033498947
142	0xb9bc8834	-0.00035959634
143	0xbb90c928	-0.004418511
144	0xbd1f4a86	-0.03888943
145	0xbb1ec939	-0.0024228825
146	0x3ce5753d	0.028010005
147	0xbcc1460a	-0.023592968
148	0xbc159e17	-0.00913193
149	0xbe3186cf	-0.17336582
150	0x3aac0f0f	0.0013127046
151	0x3c09d9df	0.008413761
152	0x3d63bcaa	0.055599846
153	0xbbaeed4b	-0.005338346
154	0x376477f0	1.3617784e-05
155	0x399f7c46	0.00030419434
156	0xbd98c55b	-0.074595176
157	0xbddb1c7f	-0.106987946
158	0x3ca3dc61	0.020002546
159	0xbdd90664	-0.10596922
160	0xbba592dd	-0.005052908
161	0xbd1eb56d	-0.03874724
162	0x3d2460c4	0.040131345
163	0xbc06e8fb	-0.008234258
164	0x3a5d6443	0.0008445421
165	0x3cc59e68	0.024123386
166	0x3d11e454	0.03561814
167	0xbe008ae3	-0.12552981
168	0xbca4a0fa	-0.02009629
169	0xbb0fd6ed	-0.0021948174
170	0xbd2ad0b5	-0.041702945
171	0xbd3e03db	-0.046390396
172	0xbd9f956f	-0.07792174
173	0xbda7edaa	-0.08199628
174	0x3d0ad079	0.03389022
175	0x3b5e7774	0.0033945711
176	0x39996b78	0.00029262505
177	0x3c5b31d7	0.013378582
178	0x3e21d5df	0.15804242
179	0x3d00e40b	0.03146748
180	0xb953a91f	-0.0002018553
181	0xba4f3961	-0.00079049735
182	0xbbce1d46	-0.0062901108
183	0xbd9d4991	-0.07680047
184	0xbbb92439	-0.00565007
185	0x3b37d132	0.0028048274
186	0xbe48e68f	-0.19619201
187	0xb91dd216	-0.0001505095
188	0x3a9495e2	0.0011336172
189	0xbd447022	-0.0479585
190	0xb95bf9c1	-0.00020978508
191	0x3db5b954	0.08873239
192	0xbb3d8190	-0.0028916337
193	0xbb6bfd02	-0.0036008959
194	0x3b368e24	0.0027855719
195	0xbda4a1bc	-0.08038661
196	0xbc7819be	-0.015142856
197	0xbac17fdb	-0.0014762835
198	0xbd3fcc3b	-0.04682563
199	0xb9833c65	-0.00025031265
200	0x3da4b478	0.08042234
201	0x3cae92f6	0.02131031
202	0xb85d82f4	-5.2812466e-05
203	0x3c053c84	0.008132104
204	0x3cf38fb7	0.029731615
205	0x3c312927	0.010813034
206	0xb907460c	-0.00012900698
207	0x39379b24	0.00017510034
208	0xbce51839	-0.027965652
209	0xbe61fbb5	-0.22068675
210	0x3d4953da	0.049152233
211	0xb8d2f265	-0.0001005873
212	0x3ba93a17	0.0051643956
213	0xbe03a76a	-0.12856832
214	0xbc85a967	-0.016316129
215	0xbb164c59	-0.002293369
216	0xb8e2d04a	-0.00010815317
217	0xbd2f79e4	-0.042840853
218	0xbc545118	-0.012958787
219	0x3cb2c110	0.021820575
220	0x3cae8941	0.021305682
221	0x3c1bee8f	0.009517326
222	0x3b7d24a7	0.0038626583
223	0xbc209e7a	-0.009803409
224	0x3cd267f9	0.025684344
225	0x3c78435b	0.015152778
226	0x39506411	0.00019873703
227	0x3a855b62	0.0010174329
228	0xbe2625ec	-0.16225404
229	0xb978e3b5	-0.0002373595
230	0x3a685c94	0.0008863893
231	0x3c2d7333	0.010586548
232	0xbd644f2f	-0.055739578
233	0xb8136277	-3.5139234e-05
234	0xbc1ae167	-0.009453154
235	0xbc262fad	-0.010143203
236	0xbdabaa05	-0.08382038
237	0x3b4d5456	0.0031330786
238	0xbcfaed35	-0.030630687
239	0xbd129aa5	-0.03579201
240	0x39c75c15	0.00038024844
241	0xbdaf7c1b	-0.08568593
242	0x3a62d15e	0.0008652414
243	0x3c99cd97	0.01877479
244	0x3b8d053b	0.004303602
245	0x3b2d436b	0.002643789
246	0xb8ba4cb8	-8.883461e-05
247	0xbb6f8fae	-0.0036554146
248	0x3ce3a3a7	0.027787996
249	0xbadfff51	-0.001708964
250	0x390ae3eb	0.00013245612
251	0xbbdfaf4b	-0.0068263165
252	0x389e34aa	7.5438365e-05
253	0xbe12e712	-0.14345959
254	0x38f1bfe8	0.00011527521
255	0x3c0c7bad	0.0085744085
