src/modeling/downstream_task/trained_models/modeling_gat_trained.pth (torch, 495004 bytes, 8 tensors)

conv1.att_src f4 [1, 8, 256]
000000 90 11 ba 3c 40 fc 1e ba 5a 23 03 38 b5 28 83 3d
       0.022713453 -0.000606481 3.1265758e-05 0.064042486
000010 fc ef 96 bd 71 bf 1b b8 9c d6 13 ba f1 e3 60 bc
       -0.07369992 -3.7133173e-05 -0.0005639584 -0.0137262205
000020 96 f1 1f 3b c2 88 68 b7 da c0 2f 3d 84 e5 79 b7
       0.002440547 -1.3860119e-05 0.042908527 -1.4894995e-05
000030 b7 25 2c 39 f1 2e a0 3a 82 70 cd bb 5f 0f 04 3b
       0.00016417248 0.0012221021 -0.0062695155 0.0020150763
000040 c3 d0 48 3b a8 b7 05 3c 10 9c 9e 3c 58 ce ac 37
       0.003064201 0.008161463 0.019361526 2.0600084e-05
000050 59 c0 96 3a 12 18 57 3a 0a 64 45 3c ba 2e 07 3d
       0.0011501416 0.0008205186 0.012047777 0.033003546
000060 64 75 c2 3c f4 41 07 3e 44 5e b4 b8 7c 37 20 3c
       0.023737617 0.13208753 -8.600627e-05 0.0097788535
000070 d8 d0 c3 bb b8 4e 06 3c f8 b5 b5 3c dc 14 ba bb
       -0.005975824 0.008197479 0.022181496 -0.005678756
000080 4a ba 0a ba 8c a3 21 35 7a 5b 05 3a e7 8e b8 3b
       -0.00052920415 6.0215166e-07 0.00050871784 0.0056322697
000090 81 eb 9e ba 7d da 29 37 84 51 b5 bc b2 65 63 bc
       -0.0012124629 1.0124056e-05 -0.022133596 -0.0138792265
0000a0 c1 60 81 3d 31 d6 a7 a7 f0 b6 46 3c 38 0a 3d bd
       0.063172825 -4.658404e-15 0.012128577 -0.046152323
0000b0 8d 92 ea b7 2c bd 0e bb d4 4f 74 ba 66 87 74 3d
       -2.7963217e-05 -0.0021780236 -0.00093197566 0.05969944
0000c0 a0 6d 1c 34 33 55 8b 38 5a b2 64 39 86 9c c4 33
       1.4568514e-07 6.643906e-05 0.00021810216 9.155433e-08
0000d0 68 04 e8 3c 19 c0 4c 3c 7d 7b 47 3a c6 63 4c bd
       0.028322414 0.0124969715 0.0007609649 -0.04989984
0000e0 9e cc ef b4 74 3f 57 3b d9 a3 6c 37 55 ce ce 39
       -4.4666098e-07 0.0032844217 1.4104845e-05 0.0003944511
0000f0 6e f9 a2 3c da 2b a2 3d 20 5a 28 be 26 dd 0f 39
       0.019894328 0.0791852 -0.1644063 0.00013719927
000100 ec 63 96 3d 38 17 6a 3b 65 ea 5e 3c 1e e9 b8 3d
       0.07343277 0.0035719406 0.013605689 0.090288386
000110 a4 05 3c 39 5a 2a 50 3d e2 0b 4a 3b ac cc 42 3b
       0.00017931178 0.05082164 0.0030829837 0.0029724045
000120 42 14 c8 b6 14 61 2b 3d 6e 91 87 3d 7a 7f 8b b3
       -5.962823e-06 0.041840628 0.066195354 -6.49588e-08
000130 d3 e6 06 3b 75 ae 11 3b 7c b3 0b 3b 65 f0 8e 3b
       0.002058436 0.0022229229 0.0021316698 0.0043621534
000140 5e b5 90 3c 03 f2 14 ba 39 f8 b3 b6 4b f7 36 3d
       0.017664608 -0.00056818145 -5.3635126e-06 0.04466943
000150 54 1e a7 bb a5 f8 a0 35 68 38 20 bc 22 ff bc 38
       -0.005100051 1.1993294e-06 -0.009779073 9.012061e-05
000160 b4 43 cb 3a e2 53 d6 3a 12 71 a8 3c f5 e7 34 32
       0.0015507848 0.0016351903 0.020561729 1.053012e-08
000170 4a 99 09 ba 4e 03 18 b7 d3 00 e5 3b e0 11 de 37
       -0.0005248977 -9.060675e-06 0.0069886236 2.6472786e-05
000180 8a ed ef bd 7a 44 35 ba 22 b6 2a bb d0 08 17 36
       -0.11715229 -0.0006914806 -0.00260485 2.2505883e-06
000190 b2 d8 b7 3b 46 c6 b5 3c 55 d5 dc b7 e1 35 18 3d
       0.005610549 0.02218927 -2.6325384e-05 0.037160758
0001a0 94 94 be 3b 55 32 f8 3b ea 5e d9 b7 89 94 83 3c
       0.0058160517 0.0075743594 -2.5912614e-05 0.016062038
0001b0 5e d4 ae 36 8c db 21 38 5f 7a f1 3c 16 6a 57 3b
       5.210327e-06 3.858986e-05 0.029477296 0.0032869629
0001c0 67 0b bf ba 4d 8c 99 bb 42 1b 47 ba 55 51 82 36
       -0.0014575542 -0.0046859146 -0.0007595309 3.88377e-06
0001d0 24 41 37 bc 9f 68 a7 38 fb d8 fc b7 72 64 00 3b
       -0.011184964 7.982668e-05 -3.014178e-05 0.001959112
0001e0 76 0c 19 38 7d 08 0d bb 24 bd de 3a 06 32 30 35
       3.6489648e-05 -0.0021519952 0.0016993624 6.5637903e-07
0001f0 d0 6e 52 3b 5d f2 03 3a e5 12 31 37 10 d6 5e bd
       0.0032109506 0.00050333684 1.0554421e-05 -0.054403365
000200 45 af 4e 37 6d 9e 36 3d 46 26 1f ba b5 aa a4 3c
       1.2319365e-05 0.04458468 -0.0006071072 0.02010093
000210 0c d5 88 37 64 83 08 bc 60 95 bc 3c 62 75 1c b8
       1.6311671e-05 -0.008332107 0.023020446 -3.730262e-05
000220 ae 7a 1d 3d 1b 11 d0 38 7f f6 a9 35 c1 46 49 bc
       0.038447075 9.921399e-05 1.2663221e-06 -0.012284935
000230 bf 92 80 34 ef d8 a8 39 f6 e8 35 bc 22 5a db bd
       2.394863e-07 0.00032205085 -0.0111029055 -0.10710551
000240 70 63 53 32 b4 c3 59 3b a8 24 eb 3d 2e 2e 15 b5
       1.2304426e-08 0.003322822 0.11481601 -5.5574026e-07
000250 c6 c7 39 38 0d 72 e5 36 8c e9 da 3b 74 af 82 3c
       4.429349e-05 6.838009e-06 0.006680673 0.015952803
000260 42 63 d9 b4 4d 83 ed b9 ba 9b 41 bb fa dc 1e 3c
       -4.049162e-07 -0.0004530199 -0.0029542283 0.00969624
000270 7c 36 41 bd 27 eb 58 bd 41 3d 85 3c 74 82 3d 33
       -0.0471711 -0.052958634 0.01626456 4.4123638e-08
000280 ad 9f b5 32 82 d1 11 3b 09 e2 50 3b de 83 01 b9
       2.1143785e-08 0.002225012 0.0031873009 -0.00012351523
000290 e3 3d 89 35 08 62 c5 3b 8d af 6a 3b d4 8c fa 3a
       1.0225307e-06 0.006023649 0.0035810203 0.0019115456
0002a0 e3 2c 7f bb e5 c5 ea b3 5e 67 87 bd 00 85 5b 3a
       -0.0038936667 -1.0932471e-07 -0.066115126 0.00083740056
0002b0 39 dd 08 bb 39 61 48 3a 16 b7 cb 3c cd 12 e8 35
       -0.0020883812 0.0007643882 0.024867576 1.7290819e-06
0002c0 3f 78 a8 37 ff 6e 47 bc b6 6e b5 36 e9 47 88 3a
       2.0083155e-05 -0.01217246 5.407109e-06 0.0010397407
0002d0 ef e9 85 32 82 4d 79 3c af 77 5d 35 ed c6 3b 33
       1.5589618e-08 0.015216233 8.250308e-07 4.3720252e-08
0002e0 23 c8 f4 38 b7 70 82 3c a3 9c 47 3d 8f 41 d5 b8
       0.00011672105 0.015922887 0.048733365 -0.00010168843
0002f0 7c a5 25 bd 46 e4 da 3b 6c df 5b 3b 2e d9 ad 3d
       -0.04044102 0.0066800443 0.0033549918 0.08488689
000300 b0 b6 d2 b9 7b c8 36 3c df 06 8e 3c 9a ad 7d 3c
       -0.00040190434 0.011156197 0.01733726 0.015483284
000310 1b b2 56 bc 69 9d 61 34 44 35 85 3b a4 a7 48 39
       -0.013103987 2.1012023e-07 0.0040651876 0.00019135937
000320 20 95 a9 3a 10 3d 11 3b ee 0d ae 3a 05 93 fd 3c
       0.001293812 0.002216164 0.0013279298 0.030953893
000330 c4 50 a9 bb 83 7b b7 b7 1a 3a 74 39 2e 67 ef bc
       -0.0051670987 -2.1872815e-05 0.00023291298 -0.029224005
000340 c8 8e 8b 3a c9 d2 b5 39 ee 5c e8 bc c2 d9 68 bc
       0.001064741 0.00034680057 -0.028364625 -0.014212074
000350 47 bb b3 b7 43 80 03 3b 42 e1 68 39 74 bf 36 31
       -2.142567e-05 0.0020065464 0.00022209159 2.6593314e-09
000360 e9 44 e6 35 2d ba fb 3a fd 3c f4 3c 2c 24 00 3c
       1.7156391e-06 0.0019205265 0.029814238 0.007821124
000370 39 1b ab 3c d8 64 8c 3a 3f 74 68 3b 88 dc 9d 3b
       0.020887004 0.0010711206 0.0035469679 0.004817549
000380 a6 7e a1 3c 2b 3d 43 bc 34 3c fb 3c 4a ce 1b 3d
       0.019713711 -0.011916439 0.030668356 0.03803853
000390 8a cf 9b bc d3 b2 a6 3b ae 6d 05 31 cd fe e0 3b
       -0.01901986 0.0050872355 1.9416393e-09 0.006866312
0003a0 99 0b 3c 34 18 b2 e9 bc 3f f4 4a 3b ef 35 a7 bd
       1.7513084e-07 -0.028527305 0.0030968336 -0.08164584
0003b0 18 97 d9 34 b1 73 50 3d 41 cf f6 bc 3b db ec 39
       4.0529335e-07 0.050891582 -0.030128123 0.00045176767
0003c0 b7 26 88 3b 77 42 3d 39 a0 7b 13 3a 74 48 07 3a
       0.004155006 0.00018049205 0.00056260265 0.00051606377
0003d0 13 43 94 bb 92 ab 03 3d 74 1b ef 3b 38 1d 9d bc
       -0.0045245974 0.032146044 0.007296974 -0.019178972
0003e0 53 89 64 b6 e9 0f e1 3c 26 02 95 3a 88 82 d9 3a
       -3.405458e-06 0.027473407 0.0011368438 0.0016594687
0003f0 85 31 d9 bb 44 15 be 3b b4 bb e6 39 f3 01 a8 b9
       -0.0066282176 0.005800875 0.00044008868 -0.0003204491

conv1.att_dst f4 [1, 8, 256]
000000 ea 59 5d bd e7 ee ae ba 44 ff 5d b9 39 80 71 bc
       -0.054040827 -0.0013346345 -0.00021171296 -0.014740043
000010 6d ea 5c 3d 9c bb 17 b9 d6 fc c5 b8 d3 99 09 bd
       0.053934503 -0.00014470372 -9.4407864e-05 -0.033593964
000020 42 79 af bb 61 66 2e b8 10 a1 fc bc 95 7c a1 b7
       -0.005355031 -4.158018e-05 -0.03083852 -1.9250709e-05
000030 ef 19 84 b9 bc 09 0f bb c2 95 21 bd 3c 91 96 bb
       -0.00025196324 -0.002182587 -0.03944946 -0.00459495
000040 b3 7f a3 bb 77 aa c9 bd be 04 39 bd d1 4f 9a ba
       -0.004989588 -0.09846967 -0.045170538 -0.0011773055
000050 43 57 18 bb a1 25 08 bb 26 11 e0 bb fe 30 83 bc
       -0.0023245371 -0.0020774382 -0.0068379818 -0.016014572
000060 e2 33 b8 3b 4b 31 a2 bd 41 6d f4 bb f0 28 84 bc
       0.0056214193 -0.07919558 -0.007459313 -0.016132802
000070 c8 e0 00 3b a4 3b ac bb 80 46 e0 bc 08 52 be bc
       0.001966523 -0.005256133 -0.027377367 -0.023232475
000080 2e 08 cc ba 01 61 c9 b5 ae af 38 bb 3d e2 5c bc
       -0.0015566403 -1.5003899e-06 -0.0028180885 -0.013481674
000090 5a e6 52 bb 0e 7a 09 b7 b5 f7 ef bc 21 75 a1 bc
       -0.0032180757 -8.194254e-06 -0.02929292 -0.019709172
0000a0 04 26 ce bc 28 6e 14 a7 f8 a9 5a 3b a4 9d 8e bd
       -0.025164612 -2.0598842e-15 0.003336547 -0.06963661
0000b0 79 d5 cd b8 23 f8 d6 ba f6 4b 0e bc e4 b6 9b bd
       -9.814924e-05 -0.0016400855 -0.008685103 -0.07603243
0000c0 33 d2 e9 b4 84 99 ef b9 4b c9 bf b8 3a e3 6d b3
       -4.3552572e-07 -0.0004570001 -9.1450835e-05 -5.5387524e-08
0000d0 76 c9 af bc ff 9b cd bc e8 b7 9c ba af 01 c6 ba
       -0.021458369 -0.025098799 -0.0011956664 -0.0015106703
0000e0 c0 ec 44 b7 26 18 ab bb 9a f9 aa b8 f0 6d 5c 3a
       -1.1737633e-05 -0.0052213846 -8.1527236e-05 0.0008408716
0000f0 06 f1 04 bd 3e ad 84 bd a0 66 47 bc 3c 14 7d 39
       -0.03245642 -0.06478356 -0.012170464 0.00024135498
000100 a3 b3 e8 bc 60 36 db bb 6e 31 8e bd ec fa 86 bd
       -0.02840597 -0.0066898316 -0.06943022 -0.06590828
000110 50 bd ae ba b3 7e a6 bc 63 aa 8d bd 20 c1 56 bb
       -0.0013331566 -0.020324087 -0.06917264 -0.003276892
000120 75 0e 15 b8 6e a5 7d bd cc c4 83 bc c6 c5 97 b3
       -3.5537832e-05 -0.061925344 -0.016085051 -7.06746e-08
000130 90 42 56 ba 78 77 29 bb 40 4f a6 ba 0e 16 2f bc
       -0.0008173371 -0.0025858562 -0.0012688413 -0.010686411
000140 ac d4 19 bd 9d 5a a4 ba 7b 94 fd b6 b5 a7 80 bc
       -0.037556335 -0.0012539212 -7.557273e-06 -0.015704969
000150 9f 08 d0 bc cf ce c5 b4 6d f8 8c bd 7e 91 17 b9
       -0.025394736 -3.6844582e-07 -0.06883321 -0.00014454682
000160 bb 1d 77 bb 2c 5e 94 bc 23 4e 09 bd e9 bd 8a b1
       -0.003770693 -0.01811131 -0.033521783 -4.037919e-09
000170 a6 62 29 bc fe ee 72 b7 b2 ef 1e bd 55 c2 80 b8
       -0.010338461 -1.4479969e-05 -0.03880281 -6.139713e-05
000180 4f ab 85 3b 19 92 1b ba 75 f6 50 bb 78 3f 24 b6
       0.0040792595 -0.0005934551 -0.003188518 -2.4474848e-06
000190 74 c3 56 bc 40 ed 14 bd b2 cb 30 b8 c6 b8 c1 bc
       -0.013108123 -0.03635907 -4.2151376e-05 -0.023647677
0001a0 b6 30 47 bc 8d fb 33 bd 70 49 82 b8 d1 a0 e9 bb
       -0.01215761 -0.04394107 -6.212562e-05 -0.0071297665
0001b0 08 23 8c b6 94 3e ac 37 49 26 28 bd 48 82 6d bd
       -4.1764033e-06 2.0533138e-05 -0.041052137 -0.057985574
0001c0 89 3d 9f bc 05 1b 35 b9 69 0a 4e bb 84 92 06 b6
       -0.019438522 -0.0001727157 -0.003143931 -2.005284e-06
0001d0 9b d3 40 bd 54 5a 15 b9 7f f7 7d b8 dd af 84 bb
       -0.047076803 -0.00014243397 -6.05504e-05 -0.004049285
0001e0 e9 7e 03 ba f2 aa df bc 3a 0c 81 bb fb b9 07 b6
       -0.00050161645 -0.027303193 -0.003938225 -2.0224822e-06
0001f0 21 97 56 bc ea 05 dd b9 0e 45 4d b8 2d c9 02 bd
       -0.013097555 -0.0004215681 -4.894012e-05 -0.031930137
000200 11 35 50 b8 2e 5d af bd 0c 75 84 ba 07 53 39 bd
       -4.9640486e-05 -0.085626945 -0.0010105683 -0.045245197
000210 64 8c 71 b8 f1 ea e9 bb 5f 79 b9 bc 14 71 c2 b8
       -5.7589627e-05 -0.007138603 -0.022640882 -9.271703e-05
000220 5e 63 c3 bd a8 46 51 b8 f4 bc 8c b6 f2 9f 68 bc
       -0.09540437 -4.9895287e-05 -4.194322e-06 -0.01419829
000230 80 10 11 b4 c7 56 f7 ba 57 e2 9d bc 14 50 a7 3c
       -1.351018e-07 -0.0018870466 -0.019272966 0.020423926
000240 d5 89 83 b3 ba 76 4e bb b8 d3 b3 bd c6 fb 62 33
       -6.1252344e-08 -0.0031503872 -0.087806165 5.2848712e-08
000250 00 08 22 b9 f9 e0 f3 b6 45 6d 65 bb 06 fd 8d bc
       -0.00015452504 -7.2681546e-06 -0.0035007757 -0.017332565
000260 a0 7e 22 b6 31 97 5c bb 64 e4 00 bd 0c 05 96 bc
       -2.4213587e-06 -0.0033659453 -0.03146781 -0.018312953
000270 55 c1 78 3c ef f5 68 bc 13 77 82 bc 35 e5 67 b3
       0.015182813 -0.014218791 -0.01592592 -5.399234e-08
000280 7c 43 30 b5 7f 05 a3 bb a9 d6 cd ba 42 9b ed 38
       -6.566331e-07 -0.0049750204 -0.0015704233 0.0001132996
000290 90 b7 1a b6 ec ef eb bb 72 37 3d bc 0e 56 ca bb
       -2.3054636e-06 -0.007200232 -0.011548864 -0.0061748093
0002a0 e9 6e 9c bc 6a a8 d8 b5 34 97 42 bd d1 be 09 bd
       -0.019095855 -1.6142269e-06 -0.04750748 -0.033629242
0002b0 cb 0f 95 bb d9 55 db bc c7 52 73 bd 52 57 37 b6
       -0.004549002 -0.026774334 -0.059405115 -2.7319952e-06
0002c0 a0 7a 88 b6 39 cd 7e bc 4c 8e 49 b6 d8 87 98 ba
       -4.0673913e-06 -0.015551859 -3.0034162e-06 -0.0011637164
0002d0 c3 e3 9d b3 ec 79 cf bb b9 ea fd b5 7e ec 13 b4
       -7.352312e-08 -0.006331673 -1.8918282e-06 -1.3776477e-07
0002e0 4e 14 3d b9 91 65 2a bc c5 74 f0 bc 81 59 4b b9
       -0.00018032009 -0.010400192 -0.029352555 -0.00019392931
0002f0 2b cb 0f bd f6 84 63 bc eb ca 6e bb 1f 70 91 bd
       -0.035105865 -0.013886681 -0.0036436867 -0.071014635
000300 26 19 a0 bb 9f c5 02 bd 85 9d 5a bc 21 57 0a bd
       -0.0048858104 -0.031926747 -0.01334322 -0.0337745
000310 0c 8c 47 3d 77 dd 27 b4 ec a5 1e bc fb e9 ff b8
       0.048717543 -1.5633655e-07 -0.009683114 -0.0001220293
000320 b5 ff 17 bc 69 65 ef ba 52 25 9d ba c6 46 27 bd
       -0.009277274 -0.0018264476 -0.0011989272 -0.04083898
000330 4a dc 49 bc 46 33 00 b9 dc b1 b3 ba 13 1f 1a bd
       -0.012320587 -0.00012226132 -0.0013709622 -0.03762729
000340 84 b8 66 ba e9 16 2b bb 7e 6e c2 bc ca 72 46 bb
       -0.00088012987 -0.0026106185 -0.023734327 -0.0030280822
000350 99 a2 47 b8 39 4c 2d bd 1b 64 f1 b8 00 1c 4b b1
       -4.7596728e-05 -0.04230902 -0.000115104216 -2.9556304e-09
000360 79 32 ae b7 f3 38 4b bd b5 a9 49 bd 6f 94 f4 3b
       -2.076592e-05 -0.049614858 -0.04923411 0.0074639837
000370 12 97 16 bd 62 39 79 bb 90 9c cd bb 8d 7d 6c bc
       -0.036765166 -0.0038028588 -0.006274767 -0.0144342305
000380 ab 5a 15 bd e4 98 75 bd 02 16 18 bd f8 ed 8e bc
       -0.03646342 -0.05996026 -0.037130363 -0.017447457
000390 ba 10 ab bc bc 19 25 bd 86 6b 83 b2 fb e4 f6 bc
       -0.020882 -0.040307745 -1.5299303e-08 -0.030138483
0003a0 e3 2a 6a 34 73 38 c4 bd 14 03 d0 bb 3f c4 11 be
       2.180855e-07 -0.09581079 -0.006348023 -0.14235018
0003b0 12 74 57 b4 68 44 12 bd 74 b0 cd 3c f0 60 fe ba
       -2.0065661e-07 -0.03570977 0.025108553 -0.0019407552
0003c0 3d dc f3 bb d0 04 bc ba ce e5 5e b9 7e d1 ef bc
       -0.007442026 -0.0014344696 -0.00021257179 -0.029274698
0003d0 bb 87 39 3a 65 0d 04 be 3f 02 64 bb 0b 6d bc bc
       0.00070774154 -0.12895735 -0.0034791378 -0.023001214
0003e0 66 51 56 35 af 50 d6 bc e4 66 56 ba fd a2 22 bb
       7.983966e-07 -0.02616152 -0.0008178784 -0.0024816387
0003f0 fb c1 d6 bb 60 ea 5e bc ae 28 93 bb bf c4 d0 39
       -0.006553886 -0.013605684 -0.0044909334 0.0003981944

conv1.bias f4 [2048]
000000 37 a7 9b bd a1 9d 10 bb 2e fc 02 b9 53 e4 cd bc
       -0.07600253 -0.002206661 -0.0001249171 -0.025133288
000010 80 29 27 be ec 4d d7 b8 4f 99 15 bb b3 0a 33 be
       -0.16324425 -0.00010266513 -0.0022826975 -0.1748455
000020 ad 54 33 bb f4 35 b0 b8 2c f4 2a be 40 b9 ff b7
       -0.0027363703 -8.4023835e-05 -0.16694707 -3.0484633e-05
000030 b0 c3 b0 ba ce 89 52 ba 87 1e 26 bb 40 13 45 bb
       -0.0013486054 -0.0008031399 -0.0025347786 -0.0030071288
000040 ce ed 94 bb 89 e0 0b be 74 21 6b bc 1c 27 af b9
       -0.00454495 -0.13659872 -0.014351238 -0.0003340774
000050 15 1f ca ba 4e 02 bf bb 07 70 ac bb 45 e0 08 bd
       -0.001542064 -0.005829132 -0.005262378 -0.033417005
000060 df 43 f1 bd 9e 17 1b be 36 28 29 bd 7a 64 06 bd
       -0.117805235 -0.15145728 -0.041298114 -0.032810666
000070 54 d1 29 be c9 c6 eb bc 55 5b 84 be 17 f4 41 bd
       -0.16583759 -0.028781312 -0.2585093 -0.047351923
000080 a4 92 3a bb 91 2b 15 b5 c4 a4 57 bc df fd d2 bb
       -0.0028468752 -5.5570223e-07 -0.013161842 -0.006438955
000090 53 1a 1d bc b6 c5 e0 b6 a9 a1 1b bd dd 88 bd bd
       -0.009588796 -6.698737e-06 -0.037995968 -0.0925462
0000a0 21 5e 9f bd 6d 20 fb aa ed f2 90 bd c5 6f 2d bd
       -0.077816255 -4.4609057e-13 -0.070775844 -0.04234292
0000b0 5b 56 c8 b7 b9 ee 3a bc 05 1c b0 ba 3b 8a c7 3b
       -2.388207e-05 -0.011409455 -0.0013436085 0.0060894764
0000c0 51 31 86 b4 cf eb 51 ba 7f 28 67 b8 b1 bd b3 b3
       -2.4995327e-07 -0.00080078555 -5.5112407e-05 -8.369842e-08
0000d0 b3 7d 81 bd fc 99 c4 be 08 f6 78 b9 48 f2 20 be
       -0.06322803 -0.3839873 -0.00023742777 -0.15717423
0000e0 5f 65 90 b8 4d c6 b0 bb 35 ce 84 bb 68 4e 93 bb
       -6.885337e-05 -0.005394733 -0.004052902 -0.0044954307
0000f0 87 f6 85 bd 66 06 b0 3d 2c 73 68 be 50 9c 4e ba
       -0.06541162 0.085949704 -0.22700185 -0.0007881569
000100 8e da e7 3d 22 78 e5 bc f2 d7 ba be c3 0f 17 be
       0.11320983 -0.028011385 -0.36492878 -0.14752106
000110 61 59 0b bc 6b 73 35 be c3 db 31 bc 62 98 4e ba
       -0.008505196 -0.1771981 -0.010855618 -0.0007880983
000120 76 60 77 b8 b2 4f aa bc 28 d4 0e be 21 bb 53 b5
       -5.8979225e-05 -0.020789955 -0.13948119 -7.8875934e-07
000130 b1 17 22 bd 55 90 2f ba b2 57 02 bc 4c 5d c2 bb
       -0.039573375 -0.00066972274 -0.0079554785 -0.005931532
000140 7b 3b ff bc 2f 3d a9 ba 6e ba a3 b6 47 a6 3a be
       -0.031156292 -0.0012911911 -4.879482e-06 -0.18227492
000150 b4 9b 05 bd 7d 18 64 b6 61 6d d1 bd e8 7d d8 b9
       -0.032619193 -3.3988902e-06 -0.102259405 -0.00041292538
000160 12 67 3e bb 5e 67 72 bd 17 a8 69 bd 98 38 b6 b4
       -0.0029053134 -0.05918061 -0.05704507 -3.394132e-07
000170 44 5b 10 bd e0 f9 57 b7 64 f6 75 bd 1d 2e 8f b8
       -0.035243288 -1.2873177e-05 -0.06004943 -6.8273606e-05
000180 93 d3 14 be ff d0 43 bb 12 24 68 bc ac 6d 1b b6
       -0.14533834 -0.002987921 -0.014168756 -2.3160637e-06
000190 86 5c c2 bc a9 2a a5 bd b4 97 6d b8 6c d6 ac bd
       -0.02372576 -0.080647774 -5.6646488e-05 -0.08439335
0001a0 11 45 5b bc 56 c0 c9 bd 17 14 2f b8 ff 5d e6 bc
       -0.013383166 -0.09851138 -4.174196e-05 -0.028120993
0001b0 ca 19 7b b6 5a 89 d9 b8 54 19 6f bc 7a e2 17 bd
       -3.7416926e-06 -0.0001037295 -0.014593441 -0.03708122
0001c0 6a d7 a5 bd d3 a2 73 bc 3a a2 75 bb 49 2a c1 b5
       -0.080977276 -0.014870363 -0.0037480728 -1.4391927e-06
0001d0 3a 20 0b be 29 c9 00 ba 4a d3 e4 b7 11 a7 41 ba
       -0.13586512 -0.00049127877 -2.7278107e-05 -0.00073872606
0001e0 08 74 2a ba 96 a8 f4 bc 57 ad ef ba 6e e3 95 b5
       -0.00065022754 -0.029865544 -0.0018285912 -1.1167556e-06
0001f0 6b 81 51 bc 9c 46 56 bb ba b8 38 b8 12 01 51 be
       -0.012787203 -0.0032695895 -4.404106e-05 -0.20410565
000200 95 84 ac b7 ab 7e 3b bc 75 66 42 bb 01 8f 00 be
       -2.0565736e-05 -0.011443774 -0.002966312 -0.12554552
000210 03 bb 71 b8 5f 22 03 bd 43 a9 b7 bb cf e9 28 b9
       -5.7633046e-05 -0.0320152 -0.0056048944 -0.00016108829
000220 54 78 1c be 43 a9 d1 b8 5e 2e 63 b6 55 a6 cf bc
       -0.15280277 -9.997424e-05 -3.3852625e-06 -0.025347868
000230 91 a9 ca b4 3f 5e 99 bc 4d c8 81 bd 7a d3 ab bd
       -3.7748808e-07 -0.018721698 -0.063370325 -0.08389945
000240 04 18 09 b4 b5 24 e6 bc 95 c2 ab bd c4 59 a0 b4
       -1.2767856e-07 -0.028093675 -0.08386723 -2.9867635e-07
000250 d0 84 af b8 90 d2 27 b6 0d 29 b6 ba 53 cf 0d bc
       -8.3693885e-05 -2.5007503e-06 -0.0013897732 -0.008655387
000260 96 48 b0 b6 42 43 4e bc 0c 62 b1 be d4 12 5f bd
       -5.253659e-06 -0.012589278 -0.34645116 -0.054461315
000270 2d 0b bc bc b1 0d f8 be b6 4d d2 bc ef b0 3f b2
       -0.022954548 -0.48447946 -0.025671821 -1.1157893e-08
000280 67 88 4e b5 7c 57 38 bb 05 7d 4c bb 68 db 91 ba
       -7.693947e-07 -0.0028128317 -0.0031202447 -0.001112801
000290 31 05 43 b5 bf a1 b5 bb 33 97 dc ba be a3 2b bb
       -7.2650715e-07 -0.0055429633 -0.0016829729 -0.0026190127
0002a0 b2 42 2a bd cf c0 ed b5 b9 aa 30 bd a8 45 62 bd
       -0.04156751 -1.7713991e-06 -0.043131564 -0.05524221
0002b0 25 49 70 bc 7d fa c2 bd 1c 6a 29 be 3b d4 23 b7
       -0.0146658765 -0.09520433 -0.16544384 -9.764971e-06
0002c0 96 7d 00 b8 f4 3e ac bc fe 90 80 b8 3c cd 4e ba
       -3.063454e-05 -0.021026112 -6.1305225e-05 -0.00078888587
0002d0 97 00 64 b4 ff 0e 5f bc 39 e1 38 b6 5c e0 05 b4
       -2.1234369e-07 -0.013614415 -2.7549233e-06 -1.2468212e-07
0002e0 51 3d 94 b8 e2 34 97 bc c9 4f a2 bd 8f bc 03 b9
       -7.068611e-05 -0.018457834 -0.07925374 -0.00012563377
0002f0 8b 89 b7 bd e3 95 9e bc a1 68 a8 bb 1c 4b 68 be
       -0.08961781 -0.019358581 -0.005139426 -0.22684902
000300 f5 32 4d bb 7b f2 62 bc d7 b0 2a be 37 99 f0 bc
       -0.003131089 -0.013851757 -0.16669022 -0.029369934
000310 eb a1 92 bd 5c 2a 26 b5 bf 81 1b bc 9f 6d a0 b9
       -0.0715979 -6.190146e-07 -0.009491383 -0.00030599252
000320 9e fa b8 bb b6 86 c8 b8 0a 90 9e ba b2 66 b7 bd
       -0.0056451103 -9.561835e-05 -0.001209737 -0.089551345
000330 ff 97 69 bc b9 74 d2 b7 84 c8 39 ba df e3 01 be
       -0.01425743 -2.5088304e-05 -0.0007087069 -0.12684582
000340 32 4b 44 b9 48 e4 9a ba 82 c0 80 bd 19 9c 6c bd
       -0.00018720029 -0.0011817301 -0.06286718 -0.057766054
000350 73 a3 8f b9 4c f7 65 bd 4a 15 d2 b9 b0 d1 e2 b1
       -0.00027396865 -0.056144044 -0.00040070183 -6.6013044e-09
000360 64 b3 d1 b8 51 05 fb bd 00 a5 74 be 71 06 fe bd
       -9.999311e-05 -0.122568734 -0.23891068 -0.12403572
000370 f1 0c b2 bd 7c 47 28 bc 6b ce c4 bb 91 85 cf bc
       -0.086938746 -0.010270949 -0.0060060523 -0.025332244
000380 05 e1 e0 bc 6e c0 25 be b5 e4 fb bd bd 46 e7 bd
       -0.027451048 -0.16186687 -0.12299482 -0.11292789
000390 06 02 1f bd 4f 98 a6 bc 2f 10 42 b2 f7 14 18 bd
       -0.03882029 -0.020336298 -1.1295966e-08 -0.03712937
0003a0 7f 0d 9c b6 ac 2b 81 bd a0 fb 8a bc 1c e1 e2 bd
       -4.6507334e-06 -0.06307158 -0.016965687 -0.110780925
0003b0 44 ee 98 b5 2d 4c 29 bd 9b 64 df bb d9 c2 96 b9
       -1.1394227e-06 -0.041332413 -0.006817413 -0.00028755402
0003c0 65 a0 d7 bb 14 ec 41 ba 77 49 01 ba b2 db e8 bd
       -0.0065804 -0.0007397544 -0.00049319066 -0.113700286
0003d0 7e c1 8b bc 5c 3a c6 bd 30 55 0c bc 74 f4 cc bd
       -0.017060038 -0.096791 -0.008565232 -0.10007563
0003e0 23 ab aa b9 70 5c 6b bc fc a1 2e ba 10 5e 1b bc
       -0.00032552434 -0.014365301 -0.0006661711 -0.0094828755
0003f0 5e d4 26 bd b9 70 d9 bc 82 3c 80 bc 0a b6 44 bb
       -0.040729873 -0.026543008 -0.015653852 -0.003001573

conv1.lin.weight f4 [2048, 55]
000000 4e 56 0f b8 ee 7d 9c b9 69 53 4f bd 8b a8 81 bd
       -3.4174234e-05 -0.00029848464 -0.050616655 -0.06330975
000010 a9 fc 01 3b 28 f4 08 3b 80 69 94 bd 0c 33 c6 bc
       0.0019834435 0.0020897482 -0.07246685 -0.024194263
000020 44 c3 b2 3a d1 65 7a b8 aa 70 82 38 d9 b1 bd 3a
       0.0013638516 -5.969947e-05 6.2198684e-05 0.0014472558
000030 41 43 0b 39 75 47 3a 38 4b 2a 26 3b a7 ee b9 b7
       0.00013281127 4.4412405e-05 0.0025354798 -2.216485e-05
000040 b1 e5 1c 37 6b 91 e0 b6 7d 9b 78 38 81 85 ff 3a
       9.351804e-06 -6.692649e-06 5.9272617e-05 0.0019494743
000050 dc 0f cb 35 2a 59 2b 3b 7f 48 1d 39 92 a8 2c 36
       1.5129294e-06 0.0026145675 0.00014999694 2.5728118e-06
000060 41 da 9a 37 39 1f d8 39 83 bf ba b9 4c d8 c9 ba
       1.8459863e-05 0.00041221993 -0.00035619372 -0.0015399544
000070 d1 eb e3 b9 46 1f 6a 3a 07 6e a3 39 f7 d5 8e 3a
       -0.0004347251 0.00089310517 0.0003117176 0.0010897507
000080 b2 c2 6f 3a 30 60 96 39 df 1b 85 3b 7f bc ad 3a
       0.00091461383 0.00028681895 0.0040621604 0.0013255029
000090 d8 78 c3 39 e9 a1 f6 39 72 aa 1b ba 48 65 d0 39
       0.00037283334 0.0004704141 -0.0005938179 0.00039748312
0000a0 6e ec c8 b9 9f e4 8d 39 22 48 3e 39 27 07 13 ba
       -0.00038323127 0.00027063952 0.00018146684 -0.0005608671
0000b0 71 ef 55 3b 98 e7 79 ba 3d 22 0e ba 84 09 02 ba
       0.003264394 -0.00095331063 -0.0005421972 -0.00049605244
0000c0 f5 8b 4b ba 31 ff 90 b8 60 8e cc 3a ef a8 1a 35
       -0.00077646907 -6.913988e-05 0.0015606396 5.76153e-07
0000d0 3e 90 b6 38 f2 5d e1 36 55 99 cd 36 71 88 f3 b6
       8.7053035e-05 6.716459e-06 6.1273263e-06 -7.257848e-06
0000e0 a6 16 1b 37 fb 72 d9 b8 92 05 36 ba 73 54 34 b7
       9.243993e-06 -0.00010368783 -0.0006943579 -1.0748498e-05
0000f0 27 b6 2f b8 74 64 3e bb ed 20 3d 39 f6 ff 07 b7
       -4.1892894e-05 -0.0029051574 0.0001803671 -8.106223e-06
000100 02 9b 54 36 d6 9e 3d 33 e1 5f 22 b8 62 77 d3 b5
       3.1680688e-06 4.4149452e-08 -3.8713104e-05 -1.575547e-06
000110 29 f7 84 35 27 4f df b8 30 09 be b4 54 d6 88 36
       9.9067e-07 -0.00010648212 -3.5396943e-07 4.078067e-06
000120 05 62 8f 36 6a 8a 58 b6 1b 2d ce b8 ff 07 87 34
       4.273143e-06 -3.2267076e-06 -9.831247e-05 2.5151527e-07
000130 39 2c 01 b8 3c d9 71 36 bb 82 29 35 45 87 16 b7
       -3.0797182e-05 3.6038246e-06 6.3147644e-07 -8.972192e-06
000140 24 b2 ba 36 2e e1 28 b7 52 95 31 36 3a d5 69 b7
       5.5639703e-06 -1.0066009e-05 2.6461971e-06 -1.3937528e-05
000150 d0 d5 1c 36 14 8a e5 b6 9e 33 8e 36 34 62 97 36
       2.3370267e-06 -6.8408062e-06 4.237939e-06 4.511583e-06
000160 fc 6c 97 b5 a5 ff 73 37 c5 06 6f b7 ce e1 b8 37
       -1.1282095e-06 1.4543451e-05 -1.4247086e-05 2.2039658e-05
000170 20 11 29 35 1d ad bb 37 f4 ec 43 b7 d6 d7 52 b7
       6.2982326e-07 2.237275e-05 -1.1678076e-05 -1.2567229e-05
000180 a3 41 0c b6 04 c2 15 37 46 c7 28 37 f8 98 6a 37
       -2.0899831e-06 8.926265e-06 1.0059977e-05 1.3983103e-05
000190 37 1e 26 37 dc 6f c9 34 23 c5 01 b7 8b 4f d9 b6
       9.901406e-06 3.7520556e-07 -7.734899e-06 -6.476364e-06
0001a0 8f d5 a4 36 b2 6d 29 b8 c5 ac eb b2 d2 8b 83 b7
       4.9124424e-06 -4.03949e-05 -2.7436167e-08 -1.5681526e-05
0001b0 e4 57 e0 36 a3 4f d6 36 82 60 12 b6 3a 0d 64 36
       6.685952e-06 6.386968e-06 -2.181187e-06 3.3982346e-06
0001c0 12 a4 b9 b8 2a 77 8a b8 cc 88 b1 b5 59 50 70 b6
       -8.852048e-05 -6.602549e-05 -1.3227341e-06 -3.5809555e-06
0001d0 39 9c 7b b9 d7 66 ee b8 fa 81 8d b6 ca b2 fb 36
       -0.00023995423 -0.0001136788 -4.2172587e-06 7.5011967e-06
0001e0 1b c3 22 36 50 e6 9a b6 57 6e 66 35 f8 f1 6c b5
       2.4253447e-06 -4.6163696e-06 8.584224e-07 -8.826896e-07
0001f0 a8 65 86 b6 38 e4 78 b4 52 1c d8 b6 80 4e ab b6
       -4.0053455e-06 -2.3179825e-07 -6.4405986e-06 -5.1053357e-06
000200 66 b8 46 b6 7e af 2c b6 23 ab 8b 36 c5 9c 01 b7
       -2.9611633e-06 -2.5732147e-06 4.1624457e-06 -7.7255e-06
000210 47 06 d2 b6 40 24 61 b5 72 70 95 b5 98 5f 19 b6
       -6.2592185e-06 -8.387178e-07 -1.1134091e-06 -2.285442e-06
000220 ac 39 6d b6 84 af c8 37 35 15 cb 35 fd f8 96 b6
       -3.5349321e-06 2.3923589e-05 1.5130851e-06 -4.4993344e-06
000230 18 5b 64 35 b0 e3 23 35 3a 9b 8d 36 78 7a 7a b4
       8.506918e-07 6.105356e-07 4.220198e-06 -2.3327618e-07
000240 8b 57 ff 36 c8 1b 4c 36 01 82 6f b7 24 cb 19 b6
       7.6097836e-06 3.041454e-06 -1.4275779e-05 -2.291702e-06
000250 86 65 19 36 35 f2 2a b7 c7 50 90 36 d6 a5 0d 37
       2.285787e-06 -1.0189183e-05 4.300938e-06 8.442867e-06
000260 27 1d 11 b6 4a 32 2d 37 65 91 7c b6 b7 30 2e b7
       -2.1623653e-06 1.0323312e-05 -3.7635557e-06 -1.03825505e-05
000270 44 f9 91 b6 3f 81 be 34 a1 99 8f 36 85 de d0 b5
       -4.350355e-06 3.5484297e-07 4.279617e-06 -1.5561969e-06
000280 e5 27 35 b6 85 35 b3 32 b1 24 b7 36 9e 82 af 35
       -2.6994323e-06 2.086268e-08 5.4580964e-06 1.3076531e-06
000290 33 17 ac 36 2b e2 b0 b6 97 04 8b ba d8 be 20 bb
       5.1287e-06 -5.271538e-06 -0.0010606226 -0.0024527814
0002a0 c4 cb 22 bd c4 a4 57 bd 4a c2 35 3c c9 7f ab 3b
       -0.039745107 -0.052647367 0.011093685 0.005233739
0002b0 0f dd 67 bd fa 53 87 3b 22 89 20 3a 2d 59 2d b9
       -0.056607302 0.004129884 0.000612395 -0.00016531786
0002c0 bb a6 ce 3b 22 d4 26 3a 8b 6c c4 b9 c0 7b 0c 3c
       0.006306497 0.0006364008 -0.00037464904 0.008574426
0002d0 63 0e 25 b9 7a 3d 5f b9 7f 0f fe 38 dd 46 37 39
       -0.00015740986 -0.00021289839 0.0001211455 0.00017478639
0002e0 4d 40 11 3c 74 74 9c b7 65 5a 5f 3c 54 67 ce 39
       0.008865428 -1.8650877e-05 0.013632392 0.00039368367
0002f0 27 54 af 38 16 82 a0 b9 6b b3 68 3b 02 98 60 ba
       8.360325e-05 -0.000306145 0.0035507332 -0.0008567573
000300 07 42 3c bc 97 37 aa 39 9a 6e 3d 3b 5e 3b 1c 3a
       -0.0114903515 0.00032466344 0.0028905035 0.0005959774
000310 00 05 0a 3c 10 e3 8a 3b 9a f8 c4 3a e4 26 37 bd
       0.008424044 0.0042384937 0.0015027702 -0.044714823
000320 f2 5c 4a 3b f8 b9 c3 3b 19 56 07 3b e4 b9 3f bb
       0.0030878154 0.005973097 0.0020650683 -0.0029255087
000330 40 d4 42 bd c7 81 10 ba 2e e3 9b 3b f4 42 d4 39
       -0.0475657 -0.00055125024 0.0047573065 0.00040485675
000340 ee 44 16 bb 28 7b db bc 83 15 b1 bb 8e af 32 bb
       -0.002292927 -0.026792124 -0.0054041757 -0.0027265283
000350 11 84 19 bb 5b f6 af bb 4e 62 8d b9 52 ed 17 3b
       -0.0023424665 -0.005369944 -0.00026966858 0.0023182225
000360 38 35 88 b5 83 40 58 3b 3e bb 29 b8 b2 66 ff b8
       -1.0148278e-06 0.0032997436 -4.0467123e-05 -0.00012178476
000370 34 a3 f0 3c a2 55 54 3d ed bd 88 be c4 8f 30 3d
       0.029374696 0.05183948 -0.26707402 0.043105856
000380 3d 12 2c bc e2 90 26 bd ac c5 0e 3e c7 3e 28 3e
       -0.010502395 -0.040665515 0.13942593 0.16430198
000390 8e 26 db ba a7 0f b0 3c e5 f6 89 3a a0 fe e7 3a
       -0.0016719864 0.021491839 0.0010525851 0.0017699786
0003a0 37 5c 28 3a a4 0b ac bb d5 56 61 bc fc 25 8d b9
       0.00064224325 -0.005250411 -0.0137536125 -0.00026921916
0003b0 4e c6 da 3a 2b 11 17 bb 98 55 0d bc 4f c6 81 bd
       0.001669118 -0.0023051004 -0.008626364 -0.063366525
0003c0 3a 9b 9a b8 4c 11 c7 3d e2 d1 9c bb d3 1a c9 bb
       -7.3722054e-05 0.09720096 -0.004785762 -0.006137231
0003d0 8e 3f 17 bc 06 09 ae 3c 9b 2c 24 bd 23 ec 89 bd
       -0.009231461 0.021244537 -0.0400816 -0.06734493
0003e0 f5 1a c8 bd aa 80 b3 3d 62 55 33 bc 37 70 82 3c
       -0.09770767 0.08764775 -0.01094565 0.015922649
0003f0 cc 79 d8 b8 4c 29 62 bc 95 5e 1b be c0 8d db 3d
       -0.00010322369 -0.013803791 -0.15172799 0.10720396

conv2.att_src f4 [1, 1, 2]
000000 41 0d 47 bf ab cd 60 bf
       -0.777546 -0.87813824

conv2.att_dst f4 [1, 1, 2]
000000 50 fa da be c8 b3 59 bf
       -0.42769098 -0.8503995

conv2.bias f4 [2]
000000 81 80 17 bd 44 7b 17 3d
       -0.036987785 0.03698279

conv2.lin.weight f4 [2, 2048]
000000 23 d7 8f 3c c3 c7 15 bb f9 46 12 38 05 d5 f4 3a
       0.01755864 -0.0022854663 3.487521e-05 0.0018679207
000010 f0 a1 38 3e 45 68 9a b9 41 be 1b 3a 67 3e e7 bd
       0.18030524 -0.00029450856 0.0005941131 -0.11291199
000020 77 24 8a 39 fc ce c3 b6 01 1c 84 bd c0 8d 8a 37
       0.0002634858 -5.835549e-06 -0.06450654 1.651689e-05
000030 0b d3 13 bc 91 bd af b8 10 d4 c2 3c 67 28 db 3c
       -0.0090224845 -8.37996e-05 0.02378276 0.026752664
000040 25 50 47 bb cc 20 9e 3b bc be 33 bd aa 6c 9a 39
       -0.003041276 0.004825687 -0.04388307 0.0002945413
000050 70 ca 27 3b 7c c4 94 ba 43 c6 2a ba ba ed ef bb
       0.002560284 -0.0011350061 -0.00065145286 -0.0073220404
000060 aa da 01 3e d3 a8 ad bb 58 32 ca 3b c1 c8 c4 bc
       0.1268107 -0.0052996664 0.006170552 -0.024021508
000070 0d b1 c0 bc 5d 12 24 3c 9e db c0 3d 52 03 54 3c
       -0.023521924 0.010014144 0.09416889 0.012940245
000080 e1 79 27 ba 59 6e 97 34 dc 3a 9c bb 19 72 81 3a
       -0.0006388706 2.820623e-07 -0.004767759 0.0009875923
000090 90 7d 17 3d 1f 57 0e b4 e2 df ca bc 0a 11 01 3e
       0.03698498 -1.3256475e-07 -0.024764959 0.12604156
0000a0 9f 12 7c bc 2b 0f 81 25 df 64 64 3d f1 2a fc 3d
       -0.015385299 2.238821e-16 0.05576026 0.12312878
0000b0 69 38 6e 37 5e 63 51 3b 56 de 90 bb 93 7c a5 bd
       1.41990395e-05 0.0031950097 -0.0044210358 -0.08080401
0000c0 15 83 f2 33 68 c9 e6 38 b7 82 c5 36 f2 73 85 33
       1.1292847e-07 0.000110047695 5.8862747e-06 6.2143855e-08
0000d0 71 41 bf 3d 51 ab 8a 3e d7 11 be b8 fa 2c 74 3d
       0.09338654 0.2708383 -9.063229e-05 0.059613205
0000e0 94 2b e1 b7 b6 94 79 bb 4a 1b 08 3a ed 7d 17 bb
       -2.6842383e-05 -0.0038083023 0.00051920547 -0.002311583
0000f0 25 5c 71 3c 9a 93 18 3e f1 ce 55 3e 7b 62 4b 3a
       0.014731442 0.14900056 0.20879723 0.000775851
000100 6b 6a c0 3d 0b 2e 6f 3c 2b 32 91 3e b2 d6 c5 3d
       0.093952976 0.01459838 0.28358588 0.096600905
000110 47 b8 da 3c 73 4b dd 3b 49 8c 6b 3c 4f 4b 89 b9
       0.026699198 0.006753379 0.014376708 -0.00026186786
000120 a5 56 f5 b9 63 8c 85 3d e2 d0 b0 bd 31 9c 65 b4
       -0.00046794597 0.06520917 -0.08633591 -2.1384109e-07
000130 a7 5e a1 ba 65 e8 92 3b d9 06 80 3b 9c ec 51 3a
       -0.0012311534 0.00448327 0.0039070663 0.0008007975
000140 55 b1 a2 3d ef 10 a9 b9 7e 4c 2c b5 76 24 42 3d
       0.0794398 -0.00032246808 -6.4186304e-07 0.047398053
000150 f5 51 1d 3c d5 3c 65 b7 3a 38 eb 3c 3b df 38 3a
       0.00960206 -1.3663627e-05 0.028713334 0.0007052307
000160 b7 7e 8b 39 4a 92 31 bc cc eb b8 bc 3d 5b 22 34
       0.00026606556 -0.010838101 -0.022573374 1.5120618e-07
000170 78 d4 48 bc 38 d2 6f b3 54 40 88 3d c2 2b bf 38
       -0.012257688 -5.5837717e-08 0.066528946 9.11574e-05
000180 9f 7d ba 3d 02 7c 4a 3c ba a3 50 ba 21 77 9c b6
       0.091059916 0.012358667 -0.00079589675 -4.6630307e-06
000190 b5 ee 46 bc 44 d0 56 bb 13 dd 71 38 88 56 a1 3b
       -0.012141873 -0.0032777945 5.766477e-05 0.0049236454
0001a0 94 74 c2 3b 85 28 a4 3d 65 ca 39 b7 c2 52 bd 3a
       0.0059343074 0.08015541 -1.1073983e-05 0.0014444219
0001b0 f6 9b 85 b8 69 7a 16 b7 29 5b 09 3b 70 19 5f 3c
       -6.370984e-05 -8.969198e-06 0.0020958877 0.013616905
0001c0 74 43 97 bc 9e 50 b0 3b 46 84 45 3a 18 10 19 36
       -0.018464781 0.005380704 0.0007534664 2.2808144e-06
0001d0 54 95 fa bc 91 f4 2d b3 67 df 25 37 f1 9f 30 ba
       -0.030588783 -4.0502133e-08 9.886781e-06 -0.00067377003
0001e0 39 19 b4 3a 59 70 78 3b c8 4f 76 3c 40 6e 02 34
       0.0013740427 0.0037908761 0.01503367 1.2147302e-07
0001f0 31 38 a1 bb c8 6f 29 3a 6f fc 39 39 19 c4 39 3e
       -0.0049200286 0.0006463495 0.00017737014 0.18141212
000200 2c 5d b5 b7 b5 4a b4 bd cb 32 59 bb f7 41 01 bd
       -2.1620268e-05 -0.08803312 -0.0033141847 -0.03155705
000210 a2 bc 41 37 bd 67 bb 3c c4 cc ad 3a cf 81 2d b9
       1.1547616e-05 0.022876615 0.0013259877 -0.00016546923
000220 68 bc ae bd 78 3c 85 b8 e4 3d 36 37 f9 23 0b 3b
       -0.085320294 -6.3531974e-05 1.0862455e-05 0.0021231158
000230 9d d0 49 35 d0 c8 8d 3a bb 76 dc 3c 61 3e 33 bd
       7.518191e-07 0.0010817293 0.026912084 -0.04376066
000240 66 7d 97 34 78 8d 61 bb 37 5e 8c 3d 84 32 06 34
       2.821718e-07 -0.0034416597 0.068539076 1.24981e-07
000250 24 58 79 37 e8 03 b9 b3 68 8b 18 3b 73 78 23 bc
       1.4862078e-05 -8.6154444e-08 0.0023276452 -0.009977448
000260 c4 cd 01 38 1b 23 66 3b 30 bf ef 3d eb 5a 06 bd
       3.094763e-05 0.003511614 0.11706388 -0.03280155
000270 9b 68 15 bd 12 fb d5 3e af 0a d0 bb 80 1e f4 30
       -0.036476713 0.41793114 -0.00634893 1.7762005e-09
000280 d8 ed e1 36 6e 9f 97 39 65 83 b6 ba cf 15 07 3a
       6.733211e-06 0.0002891975 -0.0013924657 0.0005153091
000290 67 41 48 35 21 ce 7d ba 64 cf 40 3c e3 81 b7 3a
       7.460098e-07 -0.00096818997 0.011768196 0.0014000501
0002a0 ac 96 8c 3d 52 ac e2 b5 11 6f d4 3c dc 77 8a 3d
       0.06864676 -1.6888464e-06 0.025931867 0.067611426
0002b0 3f b3 39 39 e7 17 1c 3d 33 9b 6f 3d e4 84 26 32
       0.00017709749 0.038108733 0.05849762 9.6926875e-09
0002c0 61 c8 b3 39 15 d4 ad 3d 6e f8 dd 38 4c 03 f5 3a
       0.00034290834 0.08487717 0.00010584375 0.0018692999
0002d0 46 84 07 36 8c c6 40 bb e5 63 0a 31 2f 84 45 34
       2.019356e-06 -0.0029415218 2.0138426e-09 1.8395143e-07
0002e0 19 4f dc b6 b1 8d 96 3b 77 fe cf bc 59 3d dd 38
       -6.565719e-06 0.0045945277 -0.025389893 0.00010549528
0002f0 12 77 fa bb 31 50 97 3c c6 06 6d ba 5d e4 0c bd
       -0.007643589 0.018470855 -0.0009041842 -0.03439747
000300 b2 29 e2 39 70 f0 58 3c d4 4f 6a 3b c1 93 66 bd
       0.00043137145 0.0132409185 0.0035753148 -0.056293253
000310 39 36 ea 3d f1 1c 2c 38 78 50 c2 3c e7 89 75 39
       0.114361234 4.103495e-05 0.023720011 0.00023416393
000320 ba 56 bd 3b ab ba aa b8 f8 0c 82 38 88 db 1e bd
       0.005778161 -8.141001e-05 6.201299e-05 -0.03878358
000330 37 ea 22 bb 0d ad c0 b6 30 73 9b ba 09 7b 8e bc
       -0.0024858841 -5.7421917e-06 -0.001185989 -0.017392652
000340 6a 8a c3 bb 21 49 f5 39 f3 9c 5a 3b 87 a1 19 3d
       -0.005967428 0.00046784527 0.003335771 0.03750756
000350 4e 00 59 b7 2f 85 9e 3b 54 6b 94 b8 7a 52 a6 33
       -1.2934279e-05 0.004837654 -7.077181e-05 7.74498e-08
000360 0c bb 09 37 86 b5 04 3e bc cb c2 3d 2c e4 c1 3b
       8.209387e-06 0.1295987 0.095115155 0.005917093
000370 a3 7b b5 3d 70 74 9c b9 5a cc d4 3a 0d fd 8b bd
       0.088614725 -0.0002984139 0.0016235218 -0.06835375
000380 9b 7b 86 3d 82 0b 21 bd 00 64 de bd 88 06 bf 3d
       0.065665446 -0.039317615 -0.10858917 0.093274176
000390 21 44 8e bc ea 4b 71 bc 57 bf 09 32 79 b0 16 3d
       -0.01736647 -0.014727572 8.017955e-09 0.03678939
0003a0 f3 ec ef 35 04 96 39 3e 3d a9 30 bb 77 cc d9 3d
       1.7875849e-06 0.18123633 -0.0026956343 0.10634702
0003b0 a2 01 21 36 22 bc 8e 3c 56 73 0b bd 8a e1 54 3b
       2.399182e-06 0.017423693 -0.03404554 0.0032483065
0003c0 79 ed 98 bc df 53 ea b9 e2 ff ba 39 cc ee 72 3d
       -0.018667923 -0.00044694447 0.00035667332 0.059309766
0003d0 c1 d4 54 bd 70 60 e0 bd ee 81 3d 3b d4 7f 43 3d
       -0.05196071 -0.10955894 0.0028916555 0.04772933
0003e0 31 a4 d6 3a 87 30 3f bd 8a bb 00 3a 89 d7 91 39
       0.0016375837 -0.04667714 0.0004910758 0.0002781714
0003f0 6a ef 13 3d 2b d5 62 3b 07 9c 2c bb d2 f0 62 3a
       0.036116995 0.0034611921 -0.0026338117 0.0008657101
