src/modeling/downstream_task/trained_models/modeling_gat_trained.pth (torch, 21916 bytes, 5 tensors)

conv1.att_src f4 [1, 8, 64]
0	0x3cb49f60	0.022048652
1	0xbe3d5b9c	-0.18491977
2	0xbe281db6	-0.16417584
3	0x3e191a06	0.14951333
4	0x3ded2684	0.11579612
5	0xbd466c64	-0.048443213
6	0x3e839ab4	0.25703967
7	0x3d62c388	0.055362254
8	0xbdb1fa4c	-0.086903185
9	0x3e153a22	0.14572957
10	0xbe4ec482	-0.2019215
11	0xbdddc090	-0.10827744
12	0xbd8d529c	-0.06900522
13	0x3d05e008	0.032684356
14	0x3dc47878	0.0959329
15	0xbbbab140	-0.0056973994
16	0xbd091ff8	-0.033477753
17	0xbe063735	-0.13106997
18	0xbdd09ec2	-0.10186531
19	0xbd8a46a0	-0.06751752
20	0xbdcd1df8	-0.10015482
21	0x3e2fb26a	0.17157903
22	0x3e686af0	0.22697043
23	0x3dd5e5b0	0.104442
24	0x3da3b050	0.07992613
25	0xbdc68c4c	-0.09694728
26	0x3e855e8e	0.26048702
27	0x3cc4c560	0.024019897
28	0x3e377788	0.17916691
29	0x3e6a8fe8	0.22906458
30	0xbc7a5b20	-0.015280515
31	0x3e6e642c	0.232804
32	0xbdde1b46	-0.10845046
33	0xbdd0dce6	-0.10198383
34	0xbe453fc2	-0.19262603
35	0xbd7e9940	-0.06215787
36	0xbc13c980	-0.009020209
37	0x3d0be990	0.03415829
38	0xbe512f52	-0.20428208
39	0xbe2d255d	-0.16908784
40	0xbe6fea24	-0.23429161
41	0xbd9d4ac6	-0.076802775
42	0x3e666270	0.22498488
43	0x3e8ef3ce	0.27920383
44	0xbe049272	-0.1294649
45	0xbe2be4a5	-0.1678644
46	0xbe81931d	-0.2530755
47	0xbda40f4a	-0.08010729
48	0x3e41a26c	0.18909615
49	0xbe424ec4	-0.18975359
50	0x3dc3b650	0.09556258
51	0x3e3bdf8a	0.18346992
52	0x3e2a3626	0.16622218
53	0x3e64c74c	0.2234165
54	0x3e26d424	0.16291863
55	0x3dc12740	0.094313145
56	0xbda27106	-0.07931714
57	0x3dedfdec	0.116206974
58	0x3dd3a6d4	0.10334554
59	0xbe15427c	-0.14576143
60	0x3e3c65d8	0.18398225
61	0x3e205060	0.1565566
62	0xbdd03a5a	-0.1016738
63	0xbe7b4da7	-0.24541341
64	0x3e51c082	0.20483592
65	0xbd864f40	-0.065580845
66	0xbd9658d6	-0.07341163
67	0x3e3d9f60	0.18517828
68	0xbe502e70	-0.20330215
69	0xbd135b80	-0.035975933
70	0x3d5d9558	0.054097503
71	0xbd43a858	-0.047767967
72	0xbe3835f6	-0.17989334
73	0xbe797919	-0.24362601
74	0x3e14d542	0.14534476
75	0x3dfd3030	0.12362707
76	0x3e1b2eae	0.15154526
77	0xbe8d8bcb	-0.27645716
78	0x3e391874	0.18075734
79	0xbe0b61a5	-0.13611467
80	0xbe8b98e6	-0.2726509
81	0x3e8308fc	0.25592792
82	0xbdd152e0	-0.10220885
83	0xbe152b05	-0.14567192
84	0xbd482754	-0.04886563
85	0xbd43475c	-0.047675475
86	0x3e64e024	0.22351128
87	0x3e42a330	0.19007564
88	0x3d965520	0.07340455
89	0x3ddc3b28	0.10753471
90	0xbdbccd30	-0.09218824
91	0xbca5bd20	-0.020231783
92	0x3e059176	0.1304377
93	0x3e768d10	0.24077249
94	0xbdaee764	-0.08540228
95	0x3e8a391c	0.26996696
96	0x3e5034fc	0.20332712
97	0x3e4f8e5e	0.20269153
98	0xbc939380	-0.01801467
99	0xbe86b9c7	-0.26313612
100	0x3e84a6d8	0.25908542
101	0xbe59037e	-0.21192738
102	0xbe5995ec	-0.21248597
103	0x3e63c3f0	0.22242713
104	0x3de73478	0.112893045
105	0xbe287268	-0.16449893
106	0xbe1aa2d3	-0.15101175
107	0xbc40ee40	-0.011775553
108	0xbe428f14	-0.18999892
109	0xbe1c5f72	-0.15270784
110	0x3e1f0202	0.1552811
111	0x3daa39f4	0.08311835
112	0x3e7593d4	0.23982173
113	0xbdeccbb4	-0.11562291
114	0xbe91bbbb	-0.2846354
115	0xbe3d51b8	-0.18488204
116	0xbe1685ba	-0.1469945
117	0x3e30a702	0.17251208
118	0xbc95ab70	-0.018270224
119	0xbca8c280	-0.020600557
120	0xbe380a3e	-0.17972657
121	0x3d8d26ec	0.068921894
122	0xbc926fa0	-0.017875493
123	0x3e50326e	0.20331737
124	0x3e2b1ea2	0.16710904
125	0xbe1ddd7b	-0.1541652
126	0xbe0288c5	-0.12747486
127	0xbddb2fd8	-0.10702485
128	0x3ce463b0	0.027879566
129	0xbe08ece0	-0.1337161
130	0xbe919dbf	-0.28440663
131	0xbdffeaba	-0.124959424
132	0x3d882edc	0.06649563
133	0xbda0dd02	-0.07854654
134	0xbe6e6c1c	-0.23283428
135	0x3e8a9676	0.27067918
136	0x3e0c7156	0.13715109
137	0x3e4f76ee	0.20260212
138	0x3e168c88	0.14702046
139	0x3c329e20	0.010901958
140	0xbe17abef	-0.14811681
141	0xbe6654ed	-0.22493334
142	0xbe83621c	-0.2566079
143	0xbe7e46d8	-0.24831712
144	0xbe2634a4	-0.16231018
145	0x3e377e02	0.17919162
146	0xbe1267a1	-0.14297344
147	0x3c323720	0.010877401
148	0xbaf3ed00	-0.001861006
149	0x3df6dc20	0.12053704
150	0x3e84863a	0.25883657
151	0xbcce7270	-0.025201052
152	0x3da28b28	0.07936698
153	0x3e92b1d4	0.28651297
154	0x3e41e1c0	0.18933773
155	0xbd68c7b8	-0.05683109
156	0x3e338aac	0.17533368
157	0xbdf9e8b0	-0.12202585
158	0xbe3a8e9f	-0.18218468
159	0x3d2b5ae8	0.04183474
160	0xbceef980	-0.029171705
161	0xbe8bbcb3	-0.27292404
162	0x3e3f6f56	0.18694815
163	0x3e9126cc	0.28349912
164	0x3e323228	0.17401946
165	0xbde882ca	-0.11353071
166	0xbdf7d586	-0.12101273
167	0xbe5e1ee2	-0.21691468
168	0xbe91fdbe	-0.28513902
169	0xbdf0cb00	-0.11757469
170	0x3e1cdbee	0.15318272
171	0xbe7ac9b1	-0.24491002
172	0x3cbacd20	0.02280289
173	0xbddc7504	-0.107645065
174	0x3e02f612	0.12789181
175	0x3dae26f8	0.085035264
176	0xbe90e17a	-0.28297025
177	0x3e036f5a	0.12835446
178	0x3df7c52c	0.120981544
179	0xbe2c2ad2	-0.1681321
180	0x3d690d40	0.0568974
181	0xbe8dd220	-0.27699375
182	0xbdac5474	-0.08414546
183	0xbdcc86da	-0.099866584
184	0x3e93c614	0.2886206
185	0x3c3a2840	0.011362135
186	0x3d811380	0.063025475
187	0xbd9ec5fc	-0.07752606
188	0xbe477062	-0.19476464
189	0xbd69815c	-0.057008132
190	0xbe4b6320	-0.19862032
191	0xbe284b7e	-0.16435048
192	0xbdc47c9c	-0.0959408
193	0x3e4d466a	0.20046392
194	0x3e43bcca	0.19114986
195	0xbe8cd93d	-0.2750949
196	0x3e424b66	0.18974075
197	0x3d186890	0.037209094
198	0x3e459522	0.19295171
199	0xbe889616	-0.26677006
200	0x3d775228	0.060381085
201	0xbe734b01	-0.2375908
202	0xbd13bf28	-0.036070973
203	0xbe5460d0	-0.20740056
204	0x3e772350	0.24134564
205	0xbe126590	-0.14296556
206	0xbe1f4b4e	-0.1555607
207	0x3b3db200	0.0028945208
208	0xbd3826d0	-0.04495889
209	0xbd37fe54	-0.04492028
210	0x3dd257dc	0.10270664
211	0xbe5df5c0	-0.21675777
212	0xbc28a380	-0.010292888
213	0xb96c9000	-0.00022560358
214	0xbe2da3ee	-0.16957065
215	0x3e858938	0.26081252
216	0x3dbc0874	0.091813
217	0xbe6e9074	-0.23297292
218	0x3de62170	0.112368464
219	0x3e8d97c6	0.27654856
220	0x3c53f980	0.012937903
221	0x3d9f1db8	0.0776934
222	0x3d0fc358	0.035098404
223	0xbda123d6	-0.07868163
224	0x3e4a19aa	0.19736353
225	0xbe70b1f3	-0.23505382
226	0xbb823680	-0.003973782
227	0x3e52488e	0.2053549
228	0xbe81db3d	-0.25362578
229	0x3d1ea1e8	0.038728625
230	0xbe4e97dd	-0.20175119
231	0x3df3e040	0.11908007
232	0xbe7f7fee	-0.24951145
233	0xbd89532a	-0.067053154
234	0x3e92b4e4	0.28653634
235	0xbdfd388c	-0.12364301
236	0xbe5b585e	-0.21420428
237	0x3d8f3198	0.06991881
238	0x3e77c0b4	0.24194604
239	0xbdd1a336	-0.10236208
240	0xbe57d342	-0.21076682
241	0xbe45b990	-0.19309068
242	0xbe29f6de	-0.16598079
243	0x3e0bd8c0	0.13656902
244	0x3d0ace48	0.03388813
245	0x3e41affa	0.18914786
246	0xbe23647e	-0.15956303
247	0x3d63dab8	0.05562851
248	0xbc816f90	-0.015800267
249	0x3cbde290	0.023179322
250	0xbd642718	-0.055701345
251	0xbd71a3e0	-0.058994174
252	0xbe716407	-0.23573314
253	0xbe20be45	-0.15697582
254	0x3df8c368	0.12146646
255	0xbdebc8f0	-0.11512935

conv1.att_dst f4 [1, 8, 64]
0	0x3e8cf554	0.2753092
1	0xbe29ef50	-0.16595197
2	0xbded8cbc	-0.115991086
3	0x3e825dec	0.25462282
4	0xbe893f59	-0.26806143
5	0xbdd8d70e	-0.105878934
6	0x3e80fe58	0.2519405
7	0xbe465cfc	-0.19371408
8	0xbe5deda1	-0.2167268
9	0x3e149fc0	0.14514065
10	0x3e8f56d2	0.27995926
11	0xbdba94c8	-0.09110409
12	0xbd85e5aa	-0.065379456
13	0xbcae22d0	-0.021256834
14	0xbcdf1af0	-0.027234524
15	0xbe8186a9	-0.2529805
16	0x3e893ca6	0.26804084
17	0xbd9b6c5e	-0.07589029
18	0xbe88987e	-0.26678842
19	0xbe8e817c	-0.27833164
20	0x3d8e8308	0.06958586
21	0x3dc9e8e4	0.098588735
22	0x3d887260	0.0666244
23	0xbd92d41a	-0.071693614
24	0xbdb1ab6c	-0.08675274
25	0x3da90aac	0.082539886
26	0xbded55a2	-0.11588599
27	0xbe7f368b	-0.2492315
28	0x3e41ff74	0.18945104
29	0x3dad9684	0.08475974
30	0x3cb03a50	0.02151218
31	0x3e831ede	0.25609487
32	0xbcc38640	-0.023867726
33	0xbdb851b8	-0.089999616
34	0xbd81d10e	-0.06338702
35	0xbe32468a	-0.17409721
36	0x3c05d880	0.008169293
37	0x3d5b3a80	0.053522587
38	0xbdfe8666	-0.12427978
39	0xbe8c5f07	-0.2741625
40	0xbdbc76fe	-0.092023835
41	0xbe47ea28	-0.19522917
42	0x3e72e98c	0.23721904
43	0x3e20a5ca	0.15688244
44	0xbe42f4c4	-0.19038683
45	0xbe53316c	-0.20624322
46	0x3dc32264	0.09528044
47	0xbe6c22b8	-0.23060119
48	0xbda619be	-0.08110379
49	0x3daf4644	0.08558324
50	0x3d1cef20	0.038313985
51	0x3d875cb4	0.066094786
52	0x3e92804c	0.28613508
53	0xbe76a388	-0.2408582
54	0x3e63e8e4	0.2225681
55	0x3e9051ea	0.28187495
56	0xbe90ec2e	-0.2830519
57	0x3e0d4e06	0.13799295
58	0xbc807730	-0.015681833
59	0xbe536e98	-0.20647657
60	0x3e3e930c	0.18610781
61	0xbe018dfa	-0.12651816
62	0x3e6ca964	0.23111492
63	0x3e1baa72	0.15201738
64	0x3d75d448	0.0600169
65	0x3d8fe4a0	0.07026029
66	0x3e0c8aae	0.13724777
67	0x3e8215ca	0.2540725
68	0xbe729c28	-0.23692381
69	0xbe6748fa	-0.22586432
70	0xbe9231d9	-0.28553656
71	0x3da365e8	0.079784214
72	0x3deb0054	0.11474672
73	0x3e6bbddc	0.23021644
74	0x3e307968	0.17233813
75	0x3e4aeb5c	0.19816345
76	0xbc17f820	-0.009275466
77	0x3cf5ce30	0.030005544
78	0x3daa0f94	0.083037525
79	0xbd4f9d50	-0.050687134
80	0xbd7046dc	-0.058661327
81	0x3e2cdc54	0.16880924
82	0x3de94cc4	0.11391595
83	0xbe591a66	-0.21201476
84	0xbe13d140	-0.14435291
85	0xbe1e7318	-0.15473592
86	0xbc36c1a0	-0.011154562
87	0x3e0c55b2	0.13704565
88	0xbe6a89cd	-0.2290413
89	0x3dfac050	0.12243712
90	0x3e07a446	0.13246259
91	0xbe8d67ab	-0.27618155
92	0x3b8f6b40	0.004376799
93	0x3e928504	0.28617108
94	0xbe2f5fc2	-0.17126372
95	0xbe924d07	-0.28574392
96	0x3e804fa4	0.2506076
97	0x3e8280aa	0.25488788
98	0x3e019700	0.12655258
99	0x3c9036c0	0.017604232
100	0xbe03ea1c	-0.12882274
101	0x3e0cbd62	0.13744119
102	0xbd9b353a	-0.075785115
103	0x3e13da8a	0.14438835
104	0xbda461b6	-0.080264494
105	0x3e25ce9c	0.16192096
106	0xbda7426c	-0.08166966
107	0x3e25e38c	0.16200083
108	0x3dff6cf4	0.12471953
109	0xbe6cf782	-0.23141292
110	0xbdf0d6e4	-0.11759737
111	0x3e6a5ce8	0.22887003
112	0xbccfe340	-0.025376916
113	0x3cbaad10	0.0227876
114	0x3dc4d2b0	0.09610498
115	0x3e5b67e0	0.21426344
116	0xbd61f380	-0.05516386
117	0xbd519a48	-0.051172525
118	0x3d3a3880	0.04546404
119	0xbc657900	-0.014005899
120	0x3dae8850	0.08522093
121	0x3de0c884	0.10975745
122	0xbe883ac4	-0.26607335
123	0xbc361780	-0.011114001
124	0xbe8e5921	-0.27802375
125	0xbd3047e4	-0.04303731
126	0x3b845580	0.0040385127
127	0xbd8c62ca	-0.0685478
128	0xbd292220	-0.04129231
129	0xbe6fe11c	-0.23425716
130	0xbdf584dc	-0.119882315
131	0xbe8a6fab	-0.2703832
132	0xbe036639	-0.12831964
133	0x3dd3a6b0	0.103345275
134	0xbc294b00	-0.010332823
135	0xbcce7930	-0.025204271
136	0x3d321610	0.04347807
137	0x3e2546b2	0.1614025
138	0xbe3349e2	-0.17508653
139	0x3e48de24	0.1961599
140	0x3e7fb76c	0.24972314
141	0x3e7f87a4	0.24954087
142	0x3dc2502c	0.09487948
143	0x3e5fe540	0.21864796
144	0xbe853b5a	-0.26021844
145	0xbe521278	-0.20514858
146	0xbe15630d	-0.14588566
147	0x3c915020	0.017738402
148	0x3e85d310	0.2613759
149	0xbd59eaf8	-0.0532026
150	0x3d837a40	0.06419802
151	0x3da064e0	0.078317404
152	0x3e1b3032	0.15155104
153	0x3e1d33c0	0.15351772
154	0x3bf39900	0.0074340105
155	0x3e6e3098	0.23260725
156	0xbdabcaf4	-0.083883196
157	0x3e222d5c	0.15837616
158	0xbdf7778c	-0.12083349
159	0xbe234c6f	-0.15947126
160	0xbe92efe8	-0.2869866
161	0x3db73bb4	0.08946934
162	0xbd8a5006	-0.067535445
163	0xbe1d53c8	-0.15363991
164	0xbe8cc644	-0.27495015
165	0x3df24184	0.11828902
166	0x3e2930a2	0.16522458
167	0xbe42ce9a	-0.19024125
168	0xbe8b9437	-0.27261516
169	0xbe76072b	-0.24026172
170	0x3e3ec89e	0.18631217
171	0x3b327d00	0.002723515
172	0xbe493b47	-0.19651519
173	0x3e45a2f0	0.19300437
174	0x3de865c8	0.11347538
175	0xbe82ee84	-0.25572598
176	0x3e30b13e	0.17255113
177	0xbceddb60	-0.02903527
178	0xbe85a761	-0.26104262
179	0xbe8e781a	-0.27826005
180	0xbd90ff0a	-0.07079895
181	0x3df6043c	0.120125264
182	0xbd44d790	-0.04805714
183	0xbdc4dd76	-0.09612553
184	0x3e8772d2	0.26454788
185	0x3e8cfbce	0.27535862
186	0xbe45d08c	-0.19317836
187	0x3e3e2a1c	0.18570751
188	0x3de814b8	0.11332077
189	0xbe6299f6	-0.22129044
190	0x3e92ade0	0.2864828
191	0xbe24af25	-0.16082437
192	0xbd94ba0c	-0.07262048
193	0xbe81e8eb	-0.25373015
194	0xbd95baf4	-0.07311049
195	0xbc60d8c0	-0.013723552
196	0xbd809c68	-0.06279832
197	0x3e11db9a	0.14243928
198	0x3dd01370	0.101599574
199	0xbde12e22	-0.10995127
200	0x3e21655a	0.15761319
201	0xbe695e90	-0.22789979
202	0x3e157190	0.14594102
203	0x3e4ed510	0.20198464
204	0x3e546d9c	0.20744938
205	0x3d7cc918	0.061715215
206	0xbe543ec6	-0.20727071
207	0x3e08d758	0.13363397
208	0x3d8894f0	0.066690326
209	0xbc732080	-0.014839292
210	0x3e85f546	0.2616369
211	0x3e0f243c	0.13978666
212	0xbdca3a96	-0.09874456
213	0x3d805634	0.06266442
214	0x3da62e28	0.08114272
215	0xbe81b468	-0.25332952
216	0xbe1433e5	-0.14472921
217	0xbdf46454	-0.119331986
218	0x3e1c562c	0.15267247
219	0xbe5b9900	-0.21445084
220	0x3c163700	0.009168386
221	0xbd60cd30	-0.054883182
222	0xbcdd3fc0	-0.027007937
223	0x3d22b300	0.03972149
224	0xbdfae280	-0.12250233
225	0xbbd15a00	-0.0063889027
226	0xbe729b74	-0.23692113
227	0xbe8caa5d	-0.27473727
228	0x3e54323e	0.20722291
229	0x3cc92f30	0.024558634
230	0x3e1a7c8a	0.1508657
231	0x3e3fea38	0.18741691
232	0x3e6d30ec	0.23163193
233	0xbe330876	-0.17483696
234	0xbda3c944	-0.07997373
235	0x3e055cbe	0.1302366
236	0x3e92e3c4	0.28689396
237	0xbdec9e2a	-0.11553605
238	0x3da4feec	0.08056435
239	0x3e8466ce	0.25859684
240	0x3e805aec	0.25069368
241	0xbe50933d	-0.20368667
242	0x3e6936a8	0.22774756
243	0x3e164d34	0.14677888
244	0x3c269240	0.010166705
245	0x3c240180	0.010010123
246	0x3e87922c	0.26478708
247	0xbe85c03d	-0.2612323
248	0x3db480b8	0.08813614
249	0xbe4e52a3	-0.20148711
250	0x3d482c08	0.048870116
251	0x3e5d0704	0.21584707
252	0x3e6a7054	0.22894412
253	0xbdeed15e	-0.11661027
254	0x3e30be70	0.17260146
255	0x3e80d1f0	0.2516017

conv1.bias f4 [512]
0	0x00000000	0.0
1	0x00000000	0.0
2	0x00000000	0.0
3	0x00000000	0.0
4	0x00000000	0.0
5	0x00000000	0.0
6	0x00000000	0.0
7	0x00000000	0.0
8	0x00000000	0.0
9	0x00000000	0.0
10	0x00000000	0.0
11	0x00000000	0.0
12	0x00000000	0.0
13	0x00000000	0.0
14	0x00000000	0.0
15	0x00000000	0.0
16	0x00000000	0.0
17	0x00000000	0.0
18	0x00000000	0.0
19	0x00000000	0.0
20	0x00000000	0.0
21	0x00000000	0.0
22	0x00000000	0.0
23	0x00000000	0.0
24	0x00000000	0.0
25	0x00000000	0.0
26	0x00000000	0.0
27	0x00000000	0.0
28	0x00000000	0.0
29	0x00000000	0.0
30	0x00000000	0.0
31	0x00000000	0.0
32	0x00000000	0.0
33	0x00000000	0.0
34	0x00000000	0.0
35	0x00000000	0.0
36	0x00000000	0.0
37	0x00000000	0.0
38	0x00000000	0.0
39	0x00000000	0.0
40	0x00000000	0.0
41	0x00000000	0.0
42	0x00000000	0.0
43	0x00000000	0.0
44	0x00000000	0.0
45	0x00000000	0.0
46	0x00000000	0.0
47	0x00000000	0.0
48	0x00000000	0.0
49	0x00000000	0.0
50	0x00000000	0.0
51	0x00000000	0.0
52	0x00000000	0.0
53	0x00000000	0.0
54	0x00000000	0.0
55	0x00000000	0.0
56	0x00000000	0.0
57	0x00000000	0.0
58	0x00000000	0.0
59	0x00000000	0.0
60	0x00000000	0.0
61	0x00000000	0.0
62	0x00000000	0.0
63	0x00000000	0.0
64	0x00000000	0.0
65	0x00000000	0.0
66	0x00000000	0.0
67	0x00000000	0.0
68	0x00000000	0.0
69	0x00000000	0.0
70	0x00000000	0.0
71	0x00000000	0.0
72	0x00000000	0.0
73	0x00000000	0.0
74	0x00000000	0.0
75	0x00000000	0.0
76	0x00000000	0.0
77	0x00000000	0.0
78	0x00000000	0.0
79	0x00000000	0.0
80	0x00000000	0.0
81	0x00000000	0.0
82	0x00000000	0.0
83	0x00000000	0.0
84	0x00000000	0.0
85	0x00000000	0.0
86	0x00000000	0.0
87	0x00000000	0.0
88	0x00000000	0.0
89	0x00000000	0.0
90	0x00000000	0.0
91	0x00000000	0.0
92	0x00000000	0.0
93	0x00000000	0.0
94	0x00000000	0.0
95	0x00000000	0.0
96	0x00000000	0.0
97	0x00000000	0.0
98	0x00000000	0.0
99	0x00000000	0.0
100	0x00000000	0.0
101	0x00000000	0.0
102	0x00000000	0.0
103	0x00000000	0.0
104	0x00000000	0.0
105	0x00000000	0.0
106	0x00000000	0.0
107	0x00000000	0.0
108	0x00000000	0.0
109	0x00000000	0.0
110	0x00000000	0.0
111	0x00000000	0.0
112	0x00000000	0.0
113	0x00000000	0.0
114	0x00000000	0.0
115	0x00000000	0.0
116	0x00000000	0.0
117	0x00000000	0.0
118	0x00000000	0.0
119	0x00000000	0.0
120	0x00000000	0.0
121	0x00000000	0.0
122	0x00000000	0.0
123	0x00000000	0.0
124	0x00000000	0.0
125	0x00000000	0.0
126	0x00000000	0.0
127	0x00000000	0.0
128	0x00000000	0.0
129	0x00000000	0.0
130	0x00000000	0.0
131	0x00000000	0.0
132	0x00000000	0.0
133	0x00000000	0.0
134	0x00000000	0.0
135	0x00000000	0.0
136	0x00000000	0.0
137	0x00000000	0.0
138	0x00000000	0.0
139	0x00000000	0.0
140	0x00000000	0.0
141	0x00000000	0.0
142	0x00000000	0.0
143	0x00000000	0.0
144	0x00000000	0.0
145	0x00000000	0.0
146	0x00000000	0.0
147	0x00000000	0.0
148	0x00000000	0.0
149	0x00000000	0.0
150	0x00000000	0.0
151	0x00000000	0.0
152	0x00000000	0.0
153	0x00000000	0.0
154	0x00000000	0.0
155	0x00000000	0.0
156	0x00000000	0.0
157	0x00000000	0.0
158	0x00000000	0.0
159	0x00000000	0.0
160	0x00000000	0.0
161	0x00000000	0.0
162	0x00000000	0.0
163	0x00000000	0.0
164	0x00000000	0.0
165	0x00000000	0.0
166	0x00000000	0.0
167	0x00000000	0.0
168	0x00000000	0.0
169	0x00000000	0.0
170	0x00000000	0.0
171	0x00000000	0.0
172	0x00000000	0.0
173	0x00000000	0.0
174	0x00000000	0.0
175	0x00000000	0.0
176	0x00000000	0.0
177	0x00000000	0.0
178	0x00000000	0.0
179	0x00000000	0.0
180	0x00000000	0.0
181	0x00000000	0.0
182	0x00000000	0.0
183	0x00000000	0.0
184	0x00000000	0.0
185	0x00000000	0.0
186	0x00000000	0.0
187	0x00000000	0.0
188	0x00000000	0.0
189	0x00000000	0.0
190	0x00000000	0.0
191	0x00000000	0.0
192	0x00000000	0.0
193	0x00000000	0.0
194	0x00000000	0.0
195	0x00000000	0.0
196	0x00000000	0.0
197	0x00000000	0.0
198	0x00000000	0.0
199	0x00000000	0.0
200	0x00000000	0.0
201	0x00000000	0.0
202	0x00000000	0.0
203	0x00000000	0.0
204	0x00000000	0.0
205	0x00000000	0.0
206	0x00000000	0.0
207	0x00000000	0.0
208	0x00000000	0.0
209	0x00000000	0.0
210	0x00000000	0.0
211	0x00000000	0.0
212	0x00000000	0.0
213	0x00000000	0.0
214	0x00000000	0.0
215	0x00000000	0.0
216	0x00000000	0.0
217	0x00000000	0.0
218	0x00000000	0.0
219	0x00000000	0.0
220	0x00000000	0.0
221	0x00000000	0.0
222	0x00000000	0.0
223	0x00000000	0.0
224	0x00000000	0.0
225	0x00000000	0.0
226	0x00000000	0.0
227	0x00000000	0.0
228	0x00000000	0.0
229	0x00000000	0.0
230	0x00000000	0.0
231	0x00000000	0.0
232	0x00000000	0.0
233	0x00000000	0.0
234	0x00000000	0.0
235	0x00000000	0.0
236	0x00000000	0.0
237	0x00000000	0.0
238	0x00000000	0.0
239	0x00000000	0.0
240	0x00000000	0.0
241	0x00000000	0.0
242	0x00000000	0.0
243	0x00000000	0.0
244	0x00000000	0.0
245	0x00000000	0.0
246	0x00000000	0.0
247	0x00000000	0.0
248	0x00000000	0.0
249	0x00000000	0.0
250	0x00000000	0.0
251	0x00000000	0.0
252	0x00000000	0.0
253	0x00000000	0.0
254	0x00000000	0.0
255	0x00000000	0.0

conv1.lin.weight f4 [512, 5]
0	0x3cc98ab8	0.024602279
1	0xbd4c9846	-0.049949907
2	0x3d7f427c	0.062319264
3	0x3cd5ef60	0.02611512
4	0xbd8a0f53	-0.06741204
5	0xbd86c07e	-0.06579684
6	0x3d5f1028	0.054458767
7	0x3dc97f26	0.09838705
8	0x3c485560	0.012227386
9	0x3db1a446	0.08673911
10	0xbdc62ce2	-0.096765295
11	0x3b9c9f00	0.0047796965
12	0x3da7b8cc	0.08189544
13	0x3c35b7c8	0.01109118
14	0xbd80309a	-0.0625927
15	0x3ddc91aa	0.10769971
16	0xbd37eea2	-0.044905312
17	0xbd2ead6a	-0.04264585
18	0xb9b81f00	-0.00035118312
19	0x3d395e64	0.045256034
20	0xbdcbc47c	-0.09949586
21	0xbd8004b8	-0.062509
22	0x3c4b1348	0.012394734
23	0xbd41f4a4	-0.047352448
24	0x3dc1b8a4	0.094590455
25	0x3bdf8a20	0.0068218857
26	0xbd917afc	-0.071035355
27	0x3dd3dd68	0.10344964
28	0xbd08857e	-0.033330433
29	0x3bebc550	0.0071951523
30	0x3c233e38	0.009963565
31	0x3d6abc5c	0.05730854
32	0x3cdcd9b0	0.02695927
33	0xbdb7bc34	-0.08971444
34	0x3dc25a16	0.09489839
35	0xbd2427b8	-0.04007694
36	0xbd552b94	-0.052043512
37	0xbd544be1	-0.051830176
38	0x3d49d768	0.049277693
39	0x3c915ec0	0.017745376
40	0xbc0a0958	-0.008425079
41	0x3d6a9b6c	0.057277128
42	0x3dcf3b36	0.101187155
43	0x3dc31f1e	0.095274195
44	0xbd129cc4	-0.035794035
45	0xbd1146dc	-0.035467967
46	0xbdc61bd4	-0.096732765
47	0x3d339d90	0.043851435
48	0x3d998038	0.07495159
49	0xb9a31d00	-0.0003111139
50	0x3d225928	0.039635807
51	0xbb8a76e0	-0.004225597
52	0x3cabbd60	0.020964324
53	0xbd1b41e6	-0.037904643
54	0x3d26292c	0.04056661
55	0xbdbdec1b	-0.09273549
56	0x3c545780	0.012960315
57	0xbcec73b8	-0.028863773
58	0xbd2c5298	-0.042070955
59	0x3cc37060	0.023857296
60	0x3d26e2b0	0.04074353
61	0xbc21afd8	-0.009868585
62	0x3c5ecc38	0.013598494
63	0xbdaa0c76	-0.08303158
64	0x3c140940	0.0090354085
65	0xbd3dbad2	-0.046320744
66	0xbc4d03f0	-0.012513146
67	0x3d32e69c	0.043676957
68	0x3d602688	0.054724246
69	0xbd8a77fe	-0.06761168
70	0xbcc39484	-0.023874529
71	0xbd7bb472	-0.061451383
72	0xbd175054	-0.03694184
73	0x3bd9f090	0.0066509917
74	0x3bba95f0	0.0056941435
75	0xbd28c9e4	-0.041208163
76	0x3d0dc774	0.03461404
77	0x3cb3a690	0.02193001
78	0x3d6293c4	0.0553167
79	0xbd0cc6a2	-0.03436912
80	0x3867c800	5.5260956e-05
81	0x3dc54f00	0.09634209
82	0xbd36d61e	-0.04463779
83	0x3da35df0	0.079769015
84	0x3d8ae1ce	0.0678135
85	0x3d451cd4	0.048123196
86	0xbd36f5e0	-0.04466808
87	0xbd1125b4	-0.035436347
88	0x3da23556	0.07920329
89	0xbce36950	-0.027760178
90	0xbd86614e	-0.06561528
91	0xbc263438	-0.010144286
92	0xbd955cdc	-0.07293102
93	0xbd0f3bf8	-0.0349693
94	0xbd92bb18	-0.071645916
95	0x3b82ab30	0.0039876923
96	0x3d65cff8	0.056106538
97	0xbce0b4dc	-0.02742999
98	0x3da32d5e	0.079676375
99	0x3d22cee0	0.039748073
100	0xbdc014ea	-0.09378989
101	0x3a486000	0.00076436996
102	0xbc63eff8	-0.0139121935
103	0xba33ea80	-0.00068632513
104	0x3db05e42	0.08611728
105	0xbc47c1c8	-0.012192197
106	0xbc8bdcec	-0.017073117
107	0x3ca9d520	0.020731509
108	0xbdca2301	-0.09869958
109	0x382f3800	4.1775405e-05
110	0xbd6f94d4	-0.058491543
111	0xbc2f8e50	-0.010715082
112	0xbd3b4b92	-0.045726366
113	0xbd84d4a4	-0.064858705
114	0xbda32c50	-0.07967436
115	0xbdcac166	-0.09900169
116	0xba855840	-0.0010173395
117	0xbdb641ce	-0.0889927
118	0x3ccd9a48	0.025097981
119	0x3cc8c220	0.024506629
120	0xbd73ae0d	-0.05949216
121	0x3d8464e6	0.06464557
122	0xbd9d540e	-0.07682048
123	0xbdbe916c	-0.09305081
124	0xbdcfdfba	-0.10150094
125	0x3b2bd680	0.0026220381
126	0xba44a380	-0.000750117
127	0xbd90cd08	-0.070703566
128	0xbdc2a0dc	-0.09503338
129	0x3bf738f0	0.0075446293
130	0xbd181576	-0.03712984
131	0xbcb8f900	-0.02257967
132	0x3d4d07d8	0.05005631
133	0xbd096738	-0.033545703
134	0xbd711689	-0.05885938
135	0xbc5bd510	-0.013417497
136	0xbda756cc	-0.08170852
137	0x3dac5414	0.08414474
138	0x3d0da14c	0.034577653
139	0xbd3e779d	-0.04650079
140	0xbbca8f10	-0.006181605
141	0x3d5864fc	0.05283068
142	0x3d221b88	0.039577037
143	0xbd7e1f82	-0.062041767
144	0xbd972edb	-0.07381984
145	0x3c284c38	0.010272078
146	0x3dc24514	0.09485832
147	0x3d87d8ee	0.06633173
148	0x3d73f4ac	0.05955951
149	0x3c7d4a98	0.015459679
150	0x3ba9c910	0.005181439
151	0xbdc99516	-0.09842889
152	0x3dcf5f62	0.10125615
153	0xbd64c0b1	-0.055847827
154	0xbb046700	-0.0020202994
155	0xbd8bb480	-0.06821537
156	0x3da3c4ec	0.07996544
157	0x3d7c8020	0.061645627
158	0xbd886930	-0.06660688
159	0x3dbc998a	0.09208973
160	0x3c7e2ef0	0.01551412
161	0x3d3420e0	0.043976665
162	0xbd03a3c6	-0.03213861
163	0x3d07e0b0	0.033173263
164	0xbc8ecaa0	-0.017430604
165	0x3dd33b7c	0.1031408
166	0xbcfb0c5c	-0.030645542
167	0xbd9a0904	-0.07521251
168	0xbc8f3b44	-0.017484315
169	0x3c9de080	0.019272089
170	0xbd9cbeb0	-0.07653558
171	0x3bd048d0	0.006356336
172	0xbd8e5080	-0.06948948
173	0xbd4928df	-0.049111243
174	0xbdb5feda	-0.088865
175	0xbcb14760	-0.02164048
176	0x3d481a90	0.048853457
177	0xbd96a0a0	-0.073548555
178	0xbdc5b962	-0.096544996
179	0x3dd497be	0.10380505
180	0xbd2282e4	-0.03967561
181	0xbc7dc3e8	-0.015488602
182	0xbd0223f0	-0.031772554
183	0x3c1eada8	0.009684958
184	0x3d058570	0.03259796
185	0xbdc4f906	-0.0961781
186	0x3d88c6b0	0.06678522
187	0xbdac9441	-0.08426715
188	0x3aec35c0	0.001802139
189	0x3ce01a18	0.027356192
190	0xbdae4c55	-0.08510653
191	0x3c7acb20	0.015307218
192	0xbd93cdda	-0.072169974
193	0x3ddb4a8c	0.10707578
194	0x3d29b260	0.041429877
195	0x3d0e82ac	0.034792587
196	0xbdca0b23	-0.098654054
197	0x3d22e290	0.039766848
198	0xbd818f2a	-0.063261345
199	0x3d57cb14	0.052683905
200	0x3c6f7648	0.014615603
201	0xbd640dc9	-0.05567721
202	0x3ccfd1a8	0.025368527
203	0x3dcdc6b4	0.10047665
204	0xbc522ca8	-0.01282803
205	0xbd7365b6	-0.05942317
206	0x3d38aee4	0.045088664
207	0x3dc869ee	0.097858295
208	0xbcd66588	-0.02617146
209	0xbd9f5555	-0.07779948
210	0x3cb74a88	0.022374406
211	0xbc175b90	-0.009238139
212	0xbdc050eb	-0.09390434
213	0xbcaf067c	-0.021365397
214	0xbc9b1424	-0.018930502
215	0xbc6a3e00	-0.0142970085
216	0xbd09e2e4	-0.033663645
217	0x3d0cfbd4	0.03441985
218	0x3d39047c	0.045170292
219	0xbd283f38	-0.041075915
220	0xbd491a16	-0.049097143
221	0x3d94b738	0.07261509
222	0x3da6c4fc	0.081430405
223	0xbd4caba0	-0.04996836
224	0xbcf16a90	-0.029469758
225	0xbcc3517c	-0.023842566
226	0xbcbc60c4	-0.02299536
227	0x3daf2c3e	0.085533604
228	0xbca691fc	-0.020333283
229	0x3d90b496	0.07065694
230	0xbd3b42d1	-0.045718018
231	0x3d03f2ac	0.03221385
232	0xbdbe3ce9	-0.092889614
233	0xbd82c00c	-0.06384286
234	0xbb9f2b70	-0.004857473
235	0x3c967048	0.018364087
236	0xbc8e3154	-0.017357506
237	0xbd44f454	-0.048084572
238	0xbad0bd80	-0.0015925616
239	0xbd92a006	-0.07159428
240	0xbd70e951	-0.058816258
241	0xbd95f56e	-0.073222026
242	0xbdd9f812	-0.10643019
243	0xbd9f18eb	-0.077684246
244	0x3b48aee0	0.0030621812
245	0xbc46bbb8	-0.012129717
246	0xbd335446	-0.04378154
247	0x3da709f2	0.08156194
248	0xbd9b2270	-0.07574928
249	0xbd518b4b	-0.05115823
250	0xbd6c051c	-0.05762206
251	0xbdb2c7de	-0.08729528
252	0xbd3998d2	-0.045311756
253	0xbc80fcf8	-0.015745625
254	0xbd4bf765	-0.04979648
255	0xbd5349bf	-0.051584

conv2.lin.weight f4 [1, 512]
0	0xbcfc9c14	-0.030836143
1	0xbdc39e76	-0.095517084
2	0xbcf412d4	-0.029794134
3	0x3d59340e	0.05302816
4	0x3d22ac5e	0.039715163
5	0xbc82aa08	-0.015950218
6	0x3dcba7ff	0.09944152
7	0x3dcb9871	0.09941185
8	0xbc72d648	-0.014821596
9	0x3d0f1ace	0.034937672
10	0xbca71cd8	-0.020399496
11	0x3d316ac6	0.043314718
12	0x3dce687f	0.10078525
13	0x3d32583a	0.04354117
14	0x3cb74dec	0.022376023
15	0x3d73d3da	0.05952821
16	0xbd9ddcbe	-0.07708119
17	0x3d3a3922	0.045464642
18	0x3d89b271	0.06723488
19	0x3d631a0e	0.05544477
20	0x3ada7540	0.0016667023
21	0x3d68b6f2	0.056815095
22	0x3ccbb92c	0.02486857
23	0xbdc6c7dc	-0.09706089
24	0xbdb7fdea	-0.08983977
25	0x3d6e02ce	0.058108144
26	0xbbf32ba0	-0.007420972
27	0x3dd6c547	0.104868464
28	0x3dc8f545	0.098124065
29	0xbb943820	-0.004523292
30	0xbc142a08	-0.009043224
31	0x3d949b35	0.07256166
32	0xbc93ce9c	-0.018042855
33	0x3d5d639a	0.054050066
34	0xbd82f578	-0.06394476
35	0x3cf8f29c	0.030389123
36	0x3d9109d5	0.070819534
37	0x3d401aa2	0.0469004
38	0x3d396d62	0.04527033
39	0xbd148e9c	-0.036268815
40	0x3cfc091c	0.030766062
41	0xbd081252	-0.033220597
42	0xbd46c7c7	-0.048530366
43	0x3d820a07	0.06349569
44	0x3dd19c5f	0.102349035
45	0xbb1877c0	-0.0023264736
46	0xbd973e4b	-0.07384928
47	0xbdc7dd12	-0.09758963
48	0xbd190a3a	-0.03736327
49	0x3ddb463b	0.10706755
50	0xbdb0d25c	-0.08633873
51	0x3d82a8bf	0.06379842
52	0xbd923ac3	-0.07140114
53	0xbc9da624	-0.019244261
54	0x3d91aa61	0.07112575
55	0xbd9332ee	-0.071874484
56	0x3c719ef8	0.014747374
57	0x3c6201e8	0.0137944
58	0xbc86ca8c	-0.016454004
59	0xbd3a3ace	-0.045466237
60	0x3d9c1b05	0.07622341
61	0x3cdc81dc	0.02691739
62	0x3c3f4bb8	0.011675768
63	0x3cb5803c	0.022155873
64	0xbdda7f6a	-0.106688336
65	0xbca8bed0	-0.020598799
66	0x3d76add2	0.06022436
67	0xbdb2a1e0	-0.087222815
68	0xbd1778fa	-0.036980607
69	0xbdccd823	-0.10002162
70	0x3d8c1381	0.068396576
71	0xbda89e5d	-0.082333304
72	0xbc812860	-0.015766323
73	0x3d2ff7de	0.042960994
74	0x3d21c3ea	0.03949348
75	0xbd892198	-0.066958606
76	0xbca3e884	-0.020008333
77	0x3c694e78	0.0142399
78	0xbd8136ca	-0.06309278
79	0x3bceaae0	0.006306991
80	0x3ce6cd74	0.02817414
81	0xbda001ae	-0.078128204
82	0x3ddaeb55	0.10689417
83	0xbd9777fc	-0.07395932
84	0x3d41a812	0.047279425
85	0xbd97ba16	-0.0740854
86	0x3d452a3e	0.04813599
87	0x3c3e9a00	0.011633396
88	0xbda57058	-0.080780685
89	0xbd9ea216	-0.07745759
90	0x3d5c903e	0.053848498
91	0xbdbd8c9e	-0.09255336
92	0x3c8930c8	0.016746894
93	0xbc1efd78	-0.009703986
94	0x3d8664e1	0.0656221
95	0x3bd234f0	0.006415002
96	0x3dc34691	0.09534944
97	0x3d587106	0.052842163
98	0xbc30cf78	-0.010791652
99	0xbc129980	-0.00894773
100	0xbd8e1850	-0.06938231
101	0x3c9e647c	0.019335024
102	0xbd017b72	-0.031611867
103	0x3c9b688c	0.01897075
104	0x3d2de52e	0.04245489
105	0xbd37a9b8	-0.04483959
106	0xbc6b0ce8	-0.014346339
107	0xbd8e2678	-0.06940931
108	0xbc97dd18	-0.018538043
109	0xbcabeac0	-0.020985961
110	0x3b0be4a0	0.0021345988
111	0x3d29132a	0.041278042
112	0xbdb32e0a	-0.08749016
113	0x3d876519	0.0661108
114	0xbdaf7741	-0.08567668
115	0xbd7191ac	-0.058976814
116	0xbd68bae6	-0.056818865
117	0xbd891ea9	-0.06695301
118	0xbdcdd41d	-0.10050223
119	0x3cb7f5ac	0.022456013
120	0x3c263958	0.010145508
121	0xbdb4ff28	-0.0883773
122	0x3dc55e05	0.096370734
123	0x3d5ef38e	0.05443149
124	0xbd4b457f	-0.049626824
125	0xbd2445da	-0.04010568
126	0xbd763c29	-0.060115967
127	0xbddbd6b7	-0.10734313
128	0x3d923ef3	0.07140913
129	0x3db3e7ad	0.08784423
130	0xbd8c258e	-0.068431005
131	0xbd82903c	-0.06375167
132	0x3b88fd20	0.0041805655
133	0x3d5dda6a	0.054163374
134	0xbd6002e5	-0.05469026
135	0xbc940ad0	-0.018071562
136	0x3d943b7f	0.072379105
137	0x3c664ca0	0.014056355
138	0x3d68b396	0.05681189
139	0xbc8f2e34	-0.017478086
140	0x3c544a90	0.01295723
141	0x3c003ca8	0.007826962
142	0x3daf0835	0.08546487
143	0x3c99bd44	0.018767007
144	0x3c4726f0	0.0121552795
145	0xbd10eb64	-0.035380736
146	0xbb1bc6c0	-0.0023769587
147	0xbdc7fb5b	-0.09764739
148	0xbdd86c38	-0.10567516
149	0xbcbe58e8	-0.023235753
150	0x3d3933ae	0.0452153
151	0xbc907b44	-0.017636903
152	0xbdab1c26	-0.08354978
153	0xbce4a2d8	-0.027909681
154	0xbd718cd5	-0.0589722
155	0x3d91b571	0.07114685
156	0x3c876a20	0.016530097
157	0x3d502d6a	0.05082456
158	0xbc4eded8	-0.012626372
159	0x3d5cc2ce	0.053896718
160	0xbd9adf0d	-0.07562075
161	0x3cf632ac	0.03005346
162	0xbd2b4658	-0.041815132
163	0x3dc283cd	0.09497795
164	0xbd45688e	-0.048195414
165	0x3d940eb7	0.07229369
166	0xbdc11aac	-0.094289154
167	0xbdc35812	-0.095382825
168	0x3d59051a	0.05298338
169	0x3d40b28e	0.047045283
170	0xbdc76669	-0.0973633
171	0x3d7156b2	0.05892057
172	0x3d81b6d1	0.063336976
173	0xbdcbea3a	-0.099567845
174	0x3d97c963	0.07411458
175	0xbd2ba6d2	-0.04190714
176	0xbdca1327	-0.09866934
177	0x3c737128	0.0148585215
178	0xbdc3e52c	-0.095651954
179	0xbba82e50	-0.005132474
180	0x3d3974f2	0.045277543
181	0xbab18100	-0.0013542473
182	0x3dca0cd1	0.09865726
183	0x3c88c330	0.016694635
184	0xbd806ed6	-0.0627114
185	0xbd9ad524	-0.075601846
186	0xbd5847e3	-0.05280293
187	0x3dc57071	0.09640587
188	0x3dcfd1cd	0.10147438
189	0x3cd508fc	0.02600526
190	0xbc029968	-0.007971145
191	0xbd09657c	-0.03354405
192	0x3d6e16be	0.058127157
193	0x3c80963c	0.015696637
194	0xbdcba44f	-0.09943449
195	0x3c8ded04	0.017324932
196	0xbdaefe2a	-0.08544572
197	0x3d986147	0.07440429
198	0x3d36d05a	0.044632293
199	0x3d92379b	0.07139512
200	0xbdba4a36	-0.09096186
201	0xbd332894	-0.04373987
202	0xbd926826	-0.07148771
203	0xbd554a64	-0.052072898
204	0x3d1726da	0.036902286
205	0xbd3ac0b2	-0.045593925
206	0x3cd70094	0.026245393
207	0xbdc7e686	-0.09760766
208	0xbd2094fa	-0.039204575
209	0x3d3ce2ce	0.046114735
210	0xbdcbb15e	-0.099459395
211	0xbdb4c1eb	-0.088260494
212	0x3d211b46	0.03933265
213	0xbd0eb8f4	-0.034844354
214	0x3c045b68	0.008078434
215	0xbd1a62c0	-0.03769183
216	0xbdaa766a	-0.08323367
217	0x3d31cfea	0.043411173
218	0x3d89a07d	0.06720064
219	0xbdda28a0	-0.1065228
220	0x3dca3753	0.098738335
221	0xbdd37ee1	-0.103269346
222	0x3d575c8a	0.052578487
223	0x3c0130b8	0.007885151
224	0x3ccfc79c	0.025363736
225	0xbd0fced8	-0.03510937
226	0xbdd820f4	-0.1055316
227	0xbdd3e34d	-0.103460886
228	0x3ceb39ec	0.028714143
229	0xbda118c8	-0.07866055
230	0xbd63504c	-0.0554965
231	0x3ca9708c	0.02068355
232	0xbca6a860	-0.02034396
233	0x3d48794e	0.04894381
234	0x3c1c3f00	0.009536505
235	0xbda0e5be	-0.0785632
236	0x3dbf4d0f	0.0934087
237	0x3d5ddfe2	0.05416859
238	0xbd814fca	-0.06314047
239	0xbda2bbae	-0.07945953
240	0xbdd5efb9	-0.10446114
241	0x3c80967c	0.015696757
242	0x3d74c092	0.05975396
243	0xbd6f41dc	-0.058412418
244	0xbd5a6115	-0.05331524
245	0xbd886c7d	-0.066613175
246	0xbd014488	-0.031559497
247	0xbdc307f8	-0.09523004
248	0x3d5b710a	0.0535746
249	0xbd564ad6	-0.052317463
250	0xbd9b5bfd	-0.07585905
251	0xbd9fe075	-0.07806484
252	0x3cd4769c	0.025935464
253	0xbd06d500	-0.032917976
254	0x3c79b1b0	0.015240118
255	0x3dd85c6f	0.10564505
