src/modeling/downstream_task/trained_models/modeling_gat_trained.pth (torch, 138652 bytes, 8 tensors)

conv1.att_src f4 [1, 8, 64]
000000 a5 56 4a 3e 8c 92 98 bd d1 9e 13 bb 75 e9 6b 3c
       0.19759615 -0.074498266 -0.0022525082 0.014398922
000010 59 dd 1a 3e e8 68 6b be 18 47 74 be d6 7b 5f bb
       0.151235 -0.22989237 -0.23855245 -0.0034100912
000020 11 8e 0e bd 98 3d 2f 3e 9c 34 4c 3d 02 81 14 3d
       -0.034803454 0.1711334 0.04985486 0.036255844
000030 4b 1d a0 3c c8 55 10 be 9a c0 19 3e 83 fe f1 bd
       0.019545218 -0.14095223 0.15014878 -0.118161224
000040 27 47 5d 3c be 51 27 bd 3f 20 86 be bb 7e 9b 3c
       0.013505734 -0.04084944 -0.26196477 0.018981328
000050 1f 14 ea 3d d9 f4 c1 bd 1c d4 2a be f9 51 d6 3c
       0.11429619 -0.09470529 -0.16682476 0.026162134
000060 b1 35 00 3d ae ea cc 3c 8c c4 2d bb 22 a3 b6 3d
       0.031301204 0.025014248 -0.0026514856 0.08917834
000070 61 ac 3c 3e 61 71 32 be da 8d 54 be b4 b2 55 bd
       0.18425132 -0.17426063 -0.20757237 -0.052172378
000080 b0 3b 55 3e 85 fc 1a 3e 88 00 8a 3d 65 ab 8e 3e
       0.2082355 0.15135391 0.067383826 0.2786514
000090 70 3e 11 bd c7 10 20 3d 91 ab 1b 3d 22 00 4b bd
       -0.035459936 0.0390785 0.038005415 -0.049560674
0000a0 f6 c4 0c be 40 59 7c be fb 70 06 3b cd dd 86 bd
       -0.1374701 -0.24643421 0.002051412 -0.06585274
0000b0 7b ea d1 3d 07 45 de 3d bf 0e 24 3e ab a9 45 bc
       0.10249802 0.1085301 0.1602125 -0.012064378
0000c0 42 44 b2 3d 94 63 c0 bd a0 8b 0b 3e 72 fe 2f 3e
       0.087044254 -0.09393993 0.13627481 0.17186907
0000d0 3f a6 77 3d 85 e0 aa bd 60 66 09 bd 84 63 9f bb
       0.06046128 -0.08343605 -0.033544898 -0.004864158
0000e0 cf 97 34 be e1 fb 0c 3e 06 28 27 bd 8a 35 90 3d
       -0.17636035 0.13767959 -0.040809654 0.07041462
0000f0 75 d0 3b be 33 5a a3 bd 5e dd 49 bc 73 d2 f0 bc
       -0.18341239 -0.079761885 -0.012320844 -0.029397225
000100 71 3c 2b 3d 5a 87 2a bd e9 d3 64 bd 1c 44 3e 3d
       0.04180569 -0.041632988 -0.055866156 0.046451673
000110 1e ff 2c bd 5a 19 9d bc c5 ce 6d 3c c7 aa 07 bd
       -0.042235486 -0.019177128 0.01451463 -0.03312185
000120 c1 c9 07 3e 8a 7e 0b bd 1f 93 be 3d 74 20 d4 bc
       0.13260557 -0.034056224 0.09305405 -0.025894381
000130 94 d8 93 3d 11 88 a4 3d f5 42 9b bc a1 80 03 3d
       0.072190434 0.08033765 -0.018952826 0.032105092
000140 d5 05 85 3d c3 4f 2f bd b9 3d ae bd f3 82 d1 ba
       0.06495253 -0.042800676 -0.085078664 -0.001598446
000150 46 5b 5c 3d 5b 2f e9 3c b7 70 cf 3d 0d e5 08 bd
       0.053797983 0.028464964 0.101289205 -0.033421565
000160 f7 86 48 3d 2f 50 97 3d 53 56 c1 bc 61 eb 45 3d
       0.048956838 0.07388341 -0.023600733 0.048320178
000170 9f 7f 2c 3c fd f6 3b 3d f8 18 eb 3c 7c 6c 0d 3d
       0.010528474 0.045889843 0.02869843 0.034527287
000180 96 01 31 bd 2f 28 1c bc 0f 26 3c 3d 66 a6 19 be
       -0.043214403 -0.009531065 0.045934733 -0.15004882
000190 63 80 00 be 5d db 69 3d 36 a8 c7 bb 00 35 07 3e
       -0.12548976 0.057093967 -0.0060930504 0.13203812
0001a0 f7 92 b0 3c e7 75 59 bd 35 6c 17 3a 03 ff 8c bc
       0.021554453 -0.053090956 0.0005776317 -0.017211443
0001b0 59 e7 40 bd 2d 2d 79 bd cd 06 84 bb 6e 0e b3 bd
       -0.04709563 -0.0608341 -0.004029131 -0.087429866
0001c0 9e 92 5a 3d cf 3c 70 bd 1d 7c cb 3c 15 be 89 ba
       0.05336248 -0.05865174 0.024839455 -0.0010508919
0001d0 47 07 5e 3d 64 50 18 3d 9e 7d 34 bd d4 c1 62 bc
       0.05420616 0.03718604 -0.04406511 -0.013840158
0001e0 97 84 c7 bc 22 58 a9 3c cb 81 3e bd f5 15 b0 bc
       -0.024355216 0.020671908 -0.0465105 -0.021494845
0001f0 80 0d ef bc 07 69 86 bd cb 91 de bb 00 52 0f be
       -0.029181242 -0.06563001 -0.006792282 -0.13996124
000200 d0 04 84 bc 58 53 a2 bc 82 ef c1 bd b8 12 d2 3d
       -0.016115576 -0.019815132 -0.094695106 0.102574766
000210 ab 1b 04 bd d7 9e 7b be 8a 32 a6 bd e8 c7 84 bd
       -0.03225295 -0.24572311 -0.08115108 -0.064834416
000220 0f 3d b3 bd fc a8 9d bc e8 ee a6 3d 0a b2 ed bd
       -0.087518804 -0.019245617 0.081510365 -0.11606224
000230 7a 06 0a 3e fe 80 2c be a5 0e 31 3d 81 12 10 3b
       0.13479033 -0.16846082 0.043226857 0.0021983685
000240 0b 10 00 3d 01 02 48 be c7 74 26 bd 14 e1 c6 3d
       0.0312653 -0.19532014 -0.04063871 0.09710899
000250 9e d6 a6 3c 54 1b 07 bd 18 ae a1 3c 08 e0 bd 3c
       0.02036601 -0.032985047 0.019736335 0.023178115
000260 05 90 40 be 4e 45 31 bd 8c bf 27 3e 2c e0 7e bd
       -0.18804939 -0.043278985 0.16381663 -0.062225506
000270 d9 25 0f bd 85 5b 2d 3c 0b e9 67 3d 30 88 8c 3d
       -0.034948204 0.010580902 0.05661873 0.06861913
000280 69 44 28 be 46 f5 ec 3c e6 2a 85 bd f3 69 f1 bc
       -0.16432346 0.02892555 -0.06502323 -0.029469466
000290 7d ae 0a 3d da de af 3d 3b de 79 bc 5a 46 90 bd
       0.03385781 0.085874274 -0.015250738 -0.070446685
0002a0 09 f2 53 3d 6f c8 20 3d 93 76 2c 3c df c1 09 3a
       0.051744495 0.03925365 0.010526317 0.00052550243
0002b0 4f aa d0 bd 22 e4 9d 3d e9 10 56 3d 9e 2b eb 3c
       -0.10188734 0.077095285 0.05226222 0.028707322
0002c0 76 86 71 bd 9f ed e9 3d f6 a2 ca 3d 9e 1c 89 bc
       -0.058966123 0.11422276 0.098943636 -0.016737279
0002d0 a3 02 cf 3c 45 ca 46 3c f7 7b 42 3e dc 02 8c 3c
       0.025269812 0.012133186 0.18992601 0.017091207
0002e0 fc 04 1a bd a1 5b 96 bd d2 5d 56 3d ff 0a 2e bc
       -0.03760241 -0.073416956 0.052335568 -0.010622739
0002f0 f0 9a 81 bc 3e 43 05 be 50 6f 28 be a7 00 ae bd
       -0.01582095 -0.13013932 -0.16448712 -0.08496218
000300 20 a3 3f 3d a0 04 41 3d d7 36 34 3d 6a 88 30 3c
       0.046786427 0.04712355 0.04399761 0.010774711
000310 63 76 31 bd 1e 76 87 bd 34 10 46 bd f3 57 65 bd
       -0.043325793 -0.06614326 -0.048355296 -0.055992078
000320 54 80 18 bd 63 a8 d9 bd bf f9 36 3d 52 67 0a bd
       -0.03723176 -0.1062782 0.04467177 -0.03378994
000330 85 7a 1c bd f6 38 61 3d 4c 16 82 bd c4 ef c5 bb
       -0.03820278 0.054985963 -0.06351909 -0.006040545
000340 9d 68 36 bb bf e1 3c bd 1e 1e 86 bc 0d 45 0f 3d
       -0.002783335 -0.046113726 -0.016371783 0.03497796
000350 db 69 05 bc 5e 74 47 bd 76 4c ca 3c 8a 3a 34 3d
       -0.008142914 -0.04869496 0.024694663 0.04400114
000360 30 2b 47 3d 38 9d a4 3b 65 c4 6b 3d 49 4f 29 bc
       0.04862517 0.0050236247 0.057560343 -0.010333844
000370 d0 5d 9c bd 24 66 72 bc 6d 99 1b bc 01 78 10 3d
       -0.07635081 -0.01479486 -0.009497029 0.035270695
000380 17 07 8f 3b 6a 1e 52 bd ac b8 90 bc a4 f2 05 3d
       0.004364859 -0.051298536 -0.017666183 0.032702103
000390 78 42 42 3c 63 39 a1 3b 6e b4 f0 3d a5 f0 a5 bd
       0.011856668 0.004920171 0.11753164 -0.0810254
0003a0 9c eb 3b 3d 35 9c 1e bd 9b d1 6a 3c da 45 c8 bd
       0.04587899 -0.03872319 0.0143322 -0.09778948
0003b0 ba 65 e5 bc 50 8e 5b bd 36 86 52 bd d6 38 ce bc
       -0.028002609 -0.053602517 -0.051397525 -0.025173586
0003c0 f1 41 80 3d 3d 05 0c 3d 10 22 00 3c 0f 2e e7 3c
       0.06262577 0.034184683 0.007820621 0.028220205
0003d0 ac c2 df bd ab 28 06 3c 75 11 0d be be 84 fe bc
       -0.109258026 0.008188407 -0.1377619 -0.031069156
0003e0 ce 12 aa bc 62 f7 6c bd ba 89 40 3c 43 03 69 3d
       -0.02076092 -0.05785311 0.011751587 0.056887876
0003f0 ad 36 4e bc f2 c8 05 be 42 5c ba 3d fc e4 43 3d
       -0.012586278 -0.13064936 0.09099628 0.0478258

conv1.att_dst f4 [1, 8, 64]
000000 78 29 3d be d3 36 99 bd 33 f5 18 bd 73 d0 16 3e
       -0.1847285 -0.0748116 -0.037343215 0.14727955
000010 ef ac 63 3b ba 6f 05 bd 81 e1 05 bd 3f 03 f7 bd
       0.0034740528 -0.032577254 -0.03268576 -0.12061166
000020 81 49 21 bc b5 fc 13 3e fb 7a 4b be 8b c3 f9 3d
       -0.009844185 0.14451869 -0.19871132 0.121955
000030 e9 72 86 bb 66 ec 2e 3c 32 da be bd 21 2c 46 3e
       -0.004103054 0.010676479 -0.09318961 0.19352771
000040 1c 10 83 bd c8 4a 4e be 94 c9 27 be 73 49 03 3d
       -0.06399557 -0.20145714 -0.1638549 0.03205247
000050 23 4b 49 3c c8 fb 14 bd 1a d1 4e bd ee 98 d3 bc
       0.01228598 -0.03637293 -0.050492384 -0.025829758
000060 24 1f e4 bd 80 88 98 bd 24 21 10 bd 4c 74 9f bd
       -0.11138752 -0.0744791 -0.035187855 -0.07785854
000070 84 f2 29 3d f2 62 b0 bb 51 4f f9 ba f1 93 a3 3c
       0.041491047 -0.005382889 -0.001902083 0.019968005
000080 75 ff 43 bc db 61 2a 3e fb de f9 3d f5 de 6f 3d
       -0.011962761 0.16638891 0.12200733 0.058562238
000090 8c 15 8d bb 8a ec c4 bb 00 f4 73 3d be e4 56 3e
       -0.004305547 -0.006009643 0.05955887 0.20985696
0000a0 5a f1 98 3d 61 09 28 be 55 0f ff bb 39 76 e4 bd
       0.07467909 -0.16409828 -0.00778381 -0.11155362
0000b0 01 e9 fb bd 6d ec 54 3d e3 21 90 3d fa bf 9f bc
       -0.12300301 0.051983286 0.070377134 -0.019500721
0000c0 b4 d0 86 3d c2 6e 05 3e 99 25 30 be 01 e5 61 3e
       0.06582776 0.13030532 -0.17201842 0.22060014
0000d0 db a7 dd 3c 9a 44 73 bd ca 97 02 bd 96 50 00 3e
       0.027057579 -0.059391595 -0.03188304 0.12530741
0000e0 06 16 7e bd 56 d9 dd bd d9 d1 5a be 60 bc 38 3d
       -0.062032722 -0.10832469 -0.21369113 0.045101523
0000f0 9d 12 21 3d c0 08 c9 ba 5c 30 b8 3d 26 07 03 bd
       0.03932439 -0.0015337691 0.08993599 -0.03198924
000100 1d be 2f 3d f5 f5 84 bc 1e 8b dc bc 8e ec b8 bd
       0.042905916 -0.016230563 -0.026921805 -0.09029494
000110 65 f5 9a 3d 7e 19 9f 3c 50 c1 63 3c 32 c9 9c 3d
       0.075663365 0.019421335 0.01390107 0.076555625
000120 9b 2f 0a 3e c4 c1 eb bc db ae c9 3d dc 17 b4 bc
       0.13494723 -0.028778918 0.09847804 -0.021984033
000130 e9 a7 38 3d 5e b7 8f bd 4d 29 95 bc 04 5e be 3c
       0.045082007 -0.070173964 -0.01820817 0.02323819
000140 df 01 4a bd 19 4d 8f 3d f1 60 a0 3c fd b3 10 bd
       -0.04931819 0.06997127 0.019577475 -0.0353279
000150 4a f0 43 bb c4 b4 5d bc 80 13 c2 3c 3f 86 2f bc
       -0.0029897862 -0.013531867 0.023690939 -0.010713159
000160 c7 2d 65 3c 3a ac f7 bb 2a 04 58 bc 85 6a 04 3d
       0.013987965 -0.007558373 -0.013184587 0.032328147
000170 d8 2e 37 bd fd 61 08 bd 96 e7 f0 3d c0 20 0b 3e
       -0.044722408 -0.033296574 0.117629215 0.13586712
000180 61 a4 2a bc 10 48 a3 bd 4c 7c 24 3d 95 91 02 bd
       -0.010415168 -0.07972729 0.0401576 -0.03187712
000190 79 b9 05 bd ce ae e7 3c 3a e5 c4 bd 3d 02 ec 3c
       -0.032647584 0.028281596 -0.09614034 0.028809661
0001a0 e8 11 33 bd 09 44 7b bd e0 c6 7d 3d e0 ec cb 3d
       -0.04371825 -0.06134418 0.06195724 0.0995729
0001b0 a5 b0 1f 3c bf 10 d9 ba f5 fe 72 3b 74 d7 a1 bb
       0.009746705 -0.0016560777 0.0037078236 -0.004939014
0001c0 2f f6 e9 bc 66 ba 8c bc f3 7d 13 3c fe ea 6e 3c
       -0.028559772 -0.017178725 0.009002197 0.014582394
0001d0 85 60 24 bd b7 12 ab 3d 2a 02 ae bd 27 5f 0e bd
       -0.04013111 0.08353179 -0.084965065 -0.034758713
0001e0 ac a6 ad 3a ec 11 20 3e 21 1e 8d 3c 03 c2 28 bd
       0.0013248525 0.15631837 0.01722628 -0.04120065
0001f0 e0 66 10 bd df c5 af 3b fd 9e e2 bb 24 c8 a0 bd
       -0.03525436 0.0053641642 -0.0069159255 -0.07850674
000200 42 1d aa 3c 64 6b 9b bc 33 97 ad 3c cb 24 4d bd
       0.020765904 -0.018972106 0.021190261 -0.050083917
000210 32 ef 76 bd 67 63 a1 bc 7c d3 58 bd dd bc b1 3c
       -0.06028671 -0.019700719 -0.052936062 0.021696502
000220 00 18 9d 3c 9e 0b 7f 3d 97 6a 9d bc 08 77 c0 bc
       0.019176483 0.06226694 -0.019215865 -0.023494259
000230 3d dc 2b bc d4 4d db 3c 3b 4b 6a 3c 8e f7 98 3c
       -0.010489521 0.02677051 0.014300163 0.01867273
000240 65 8f 9b 3c 85 5a 6e bc 17 76 a4 3d 9c 89 95 3c
       0.018989274 -0.014547949 0.08030336 0.018254094
000250 80 59 cf bc 5d 4d 94 bc 98 5f ac 3c fb 99 ce 3c
       -0.025311232 -0.018103296 0.021041676 0.025219908
000260 cb 46 32 bc d4 6f 7b 3c 15 f7 ea bc 0a ab 0a bd
       -0.010881136 0.015346486 -0.028682271 -0.03385452
000270 49 82 25 bc 17 a1 b2 bb ac fd 9c bc 80 6c 33 bc
       -0.010101863 -0.0054513323 -0.019163929 -0.010951161
000280 8a a0 96 bc b2 d1 5a bc 82 8b db bc 01 7c 94 bc
       -0.018387098 -0.013355659 -0.026799921 -0.018125536
000290 7c 23 a1 bc a9 ac a6 3c 1a 2f 2a bc bc d5 9a bc
       -0.01967024 0.020346003 -0.010387206 -0.018900745
0002a0 e1 88 d4 bc 0b f4 84 3d ae 6d 26 bc bc cb 9d 3c
       -0.025944175 0.0649186 -0.010157986 0.019262187
0002b0 70 61 96 bc af 96 a5 3c 30 e8 2a 3d 39 7f 80 3c
       -0.018357009 0.020213453 0.041725338 0.015685664
0002c0 d6 e5 12 bd 17 f6 cf bc f8 d8 7d bc e0 7d 83 3d
       -0.03586372 -0.0253859 -0.015493624 0.06420493
0002d0 12 a5 9b 3d 81 73 d0 bc 6b b5 ae 3c cd 97 98 bc
       0.07599844 -0.025445702 0.021326741 -0.018627072
0002e0 d9 e2 3a 3c 3f d2 c5 3c 05 55 a2 bc b8 d1 c2 3c
       0.011406624 0.024148105 -0.019815931 0.023781642
0002f0 7e 46 63 3d 53 16 dd 3c d3 ef 50 3c f8 7d eb 3c
       0.05548715 0.026988184 0.012752491 0.02874659
000300 a1 be 3f 3d f3 99 f2 ba b2 c7 74 bb 1c 45 3a bb
       0.046812657 -0.0018509015 -0.0037350473 -0.002842254
000310 e0 5a 00 bb f9 df 5b bc 67 c2 4a bb 15 10 1d 3d
       -0.0019585416 -0.013420098 -0.0030938627 0.038345415
000320 3a 43 4e bb ae 33 e6 ba d9 36 03 ba e7 e3 1b 3d
       -0.0031473176 -0.0017563009 -0.00050054264 0.03805914
000330 1a 54 30 bd 1b 3f 43 bb 59 5d b1 ba b4 72 b5 bc
       -0.043048956 -0.0029792252 -0.0013531848 -0.022149421
000340 b3 19 00 3b a6 56 fc bb 7d 36 8a bc 41 4e 3a 3b
       0.0019546568 -0.007700759 -0.016871685 0.002842799
000350 a7 eb 04 bb 70 10 a9 b8 62 1e 07 bb d3 72 94 39
       -0.0020282061 -8.06161e-05 -0.0020617475 0.0002831431
000360 87 75 24 bb 00 08 39 3a 45 80 95 3a 54 a8 c4 bc
       -0.0025094466 0.0007058382 0.0011406025 -0.024006046
000370 3c f2 5a bb 77 e7 d1 bb 30 59 e9 3b 26 9f 1b bd
       -0.0033408543 -0.0064057666 0.0071212277 -0.037993573
000380 b3 61 44 bd 10 a0 c3 b9 c6 f2 d2 3b 5b 4f ed 3a
       -0.047944736 -0.00037312554 0.0064376323 0.0018105315
000390 a3 19 d4 bb 87 2b c1 ba e2 03 f0 3b 4b 3c ac 3c
       -0.0064727827 -0.0014737704 0.0073246816 0.021024844
0003a0 65 e0 8b b9 b4 6f a8 bc 5d 00 08 bd a3 e5 0e 3a
       -0.00026679333 -0.020561077 -0.03320347 0.00054510887
0003b0 ee 63 67 bb a9 a3 07 3d 0d ab a0 3a 3d b7 df ba
       -0.0035307365 0.033115063 0.0012258008 -0.0017068159
0003c0 e5 43 cd 3b 92 8a a6 3a b1 9f fc 3b 17 62 71 3a
       0.006264197 0.0012706092 0.0077094664 0.0009208037
0003d0 be a8 26 bb af 1c 4c 3a 7b ac 69 ba 1e 33 70 3b
       -0.0025430168 0.00077862566 -0.0008913946 0.0036651562
0003e0 86 65 b9 3a f0 fb ca 3b 59 65 3d 3d a9 e5 5d 39
       0.0014144636 0.006194584 0.04623923 0.00021161757
0003f0 d0 01 c7 3b 2b d2 5d 38 c3 83 fd 39 e9 78 9f bb
       0.006073214 5.288624e-05 0.0004835409 -0.0048667085

conv1.bias f4 [512]
000000 7a 98 18 3b ae 9e ac 3c 46 51 4c 3d ad 6f 52 bc
       0.0023284242 0.021071758 0.049882196 -0.012844008
000010 ca c3 77 3c e9 5b 10 bc 46 06 32 3d 23 71 2b 3d
       0.015122363 -0.008810976 0.043463014 0.041855942
000020 9b e3 99 bd 29 b0 44 bd e6 4b 8c 3d e9 99 bc bd
       -0.075141154 -0.048019562 0.06850414 -0.092090435
000030 a4 67 ce bc d0 22 2d bd c3 01 37 bd 54 b4 ab bc
       -0.025195904 -0.042269528 -0.044679414 -0.02096001
000040 86 2a 71 3d 9c 97 95 bd ab 40 93 3d c8 4b 11 ba
       0.058878444 -0.07304308 0.07190069 -0.00055426033
000050 0f 62 3e bd 0d 6c 02 bd d7 60 91 3d f3 0b 0c bd
       -0.046480235 -0.031841327 0.07098549 -0.034191083
000060 b4 8e 33 bc d5 46 8b bd 12 69 89 bd fa d9 01 bc
       -0.010959316 -0.068006195 -0.06709494 -0.007925505
000070 47 bc 2b 3b 71 c9 2f 3d b8 b4 a1 bd 70 c0 a7 bc
       0.0026204751 0.04291672 -0.078957975 -0.020477504
000080 c7 f4 ab 3c b0 51 b2 bd c0 b2 43 3d 48 62 bc 3a
       0.020990742 -0.08706987 0.04777789 0.0014372552
000090 97 84 31 bd fe dc 85 3c c6 cb d3 3c 8a 35 17 bd
       -0.04333934 0.016340729 0.025854003 -0.036916293
0000a0 76 5a b6 3c 03 d7 9e bd 82 a7 8e 3d 86 ab ba bc
       0.022259932 -0.07755854 0.06965543 -0.022786867
0000b0 48 a5 e3 3b ff c2 82 bd 15 26 b8 bc c5 2c 0a bc
       0.0069471933 -0.06384849 -0.022479096 -0.008433525
0000c0 82 1b ae bc 7b 9c 50 3c 0d f7 8a 3c 3f c5 3b bc
       -0.021253351 0.01273262 0.016963506 -0.011460601
0000d0 fe cb 34 3c bc f2 10 3d 7c c1 92 3d a9 26 e9 3c
       0.011034964 0.03538774 0.071658105 0.028460817
0000e0 29 86 f2 3c 88 ef 6f ba 48 52 8b 3d 13 b3 b3 bd
       0.029604988 -0.00091528194 0.06802803 -0.0877439
0000f0 f5 be af bc 09 90 49 bc 85 df 2b 3d 14 10 9e bd
       -0.02145336 -0.012302407 0.04196121 -0.077179104
000100 ac cc dc 3c 4f 5b 40 3d ff 5f 1d bc 76 da 24 bd
       0.026953064 0.04696208 -0.009605407 -0.040247403
000110 0e ed eb bc 86 01 ba bc 3a b9 56 bc 16 59 82 bd
       -0.02879956 -0.022705805 -0.013105685 -0.06364648
000120 02 57 e8 bc 8d b7 7f 3b 12 b6 5c bd 02 ad 71 3d
       -0.028361801 0.0039019317 -0.053884573 0.059002884
000130 b1 68 a2 bd e9 9b 5f bd 58 40 7a 3c 60 98 fc bc
       -0.079301246 -0.054592047 0.01527413 -0.030834377
000140 a1 0f 11 3d 11 6d 81 bb 4c 74 25 bd df f5 51 bd
       0.035415296 -0.0039497693 -0.040394112 -0.05125987
000150 1b 40 ff bc 2b 40 5b bd 98 1a b0 bd a7 36 33 bd
       -0.031158498 -0.053527992 -0.08598822 -0.043753292
000160 a1 2f 53 3d a2 d2 58 bd 8e 48 83 3d e8 02 6e bd
       0.051559094 -0.05293525 0.06410323 -0.05810824
000170 ff ec 90 bc 23 ea 17 3d 81 50 7b bd 47 65 cf bb
       -0.017691134 0.037088525 -0.06135607 -0.006329212
000180 49 c9 46 bd f0 03 bc 3c 27 cd 45 3c e6 04 b1 bb
       -0.048531804 0.022951096 0.012072838 -0.0054021953
000190 0e f8 5c 3d a2 16 93 bd 8c df 81 3d c4 b1 42 3d
       0.0539475 -0.07182051 0.06341466 0.04753281
0001a0 a5 89 72 3b 9c 86 92 3d da 10 60 3b aa 79 97 3d
       0.0037008312 0.07154581 0.0034189732 0.073962525
0001b0 1c dd 62 3b 49 55 38 3d e9 23 69 bd 4e cc 5d 3d
       0.0034616655 0.04500321 -0.056919012 0.05414992
0001c0 e2 24 a1 bd 4f 2f 35 bd 8f b6 9b bd 44 f4 e9 3c
       -0.07868363 -0.04423457 -0.0760318 0.028558858
0001d0 b0 86 64 3d 5d 35 86 bd 46 23 20 3d 8d ce 20 3d
       0.05579251 -0.06553147 0.03909614 0.039259482
0001e0 36 2a 64 bd 26 4d 2f bd 91 a3 05 3c 75 b6 34 bd
       -0.055704318 -0.042798184 0.008156673 -0.044119317
0001f0 55 be fb 3c fe 99 25 3d c2 2c b4 bc ea 2d 9b 3b
       0.030730406 0.04043006 -0.021993998 0.004735698
000200 44 23 5f bd 05 e3 1e 3d 68 3e 84 bc 5f 9c 5c bd
       -0.05447699 0.03879072 -0.016143039 -0.053860065
000210 3a f2 29 bd 87 72 04 3d 4d 93 23 bd 4a ff 22 bd
       -0.04149077 0.032335784 -0.0399354 -0.039794244
000220 f0 31 bc 3b ba 37 16 3d fd 97 f5 3c 07 a3 8e bd
       0.0057432577 0.03667424 0.0299797 -0.06964689
000230 cd e6 48 bc 1c c5 68 bd 94 dd d6 3c 24 94 62 3d
       -0.012262058 -0.056828603 0.026228704 0.05531706
000240 42 2f e2 bc 51 48 05 3c 45 24 46 bc 31 b8 18 bd
       -0.027610425 0.008134917 -0.012093608 -0.037285034
000250 72 b6 21 bd 12 a2 88 3d 18 b9 70 bd c8 27 c8 bc
       -0.039480634 0.066715375 -0.05877027 -0.024433032
000260 5c b8 b2 bd e4 39 4b 3c 00 a3 85 bd f6 25 5c bc
       -0.0872657 0.012403939 -0.065252304 -0.013436785
000270 46 c3 68 3d 7c aa 9a bd d1 c1 af bc b5 b8 43 bd
       0.056826852 -0.075520486 -0.021454724 -0.047783572
000280 29 3a 85 bc d5 43 d3 bc 7b 33 8f 3d 6f d3 95 bc
       -0.016263084 -0.02578918 0.06992241 -0.018289296
000290 f1 64 1f 3d b2 68 ce bb 88 9b 4a bc 0b 97 68 3d
       0.038914625 -0.0062991017 -0.012366183 0.05678467
0002a0 66 61 01 3d 50 d4 1a bd 48 1a 91 bd 7d ae f4 3c
       0.031587027 -0.037800133 -0.07085091 0.029868359
0002b0 17 7d a1 3b 45 f5 2b bd bf b9 07 3d 4e 08 d7 bc
       0.004928242 -0.041981954 0.033136126 -0.026249077
0002c0 8c bf a0 bc 70 11 4d bd 91 40 28 3d b3 11 2b bc
       -0.019622587 -0.050065458 0.0410772 -0.010441232
0002d0 e7 9c 75 bd 8a 50 1c bb 69 f0 8b bb 12 08 7c 3d
       -0.059964087 -0.0023851716 -0.0042706025 0.061531134
0002e0 cd 64 b2 3c 00 91 51 3c 3d 64 73 3c ec 16 0c 3d
       0.021776581 0.012790918 0.014855442 0.034201548
0002f0 2e f5 57 bd 1d 1c 3d bc db 1b 87 3c 8a e3 02 3d
       -0.052724056 -0.011542347 0.016492775 0.03195528
000300 e3 12 b7 bc ee e4 2e bc 31 02 8b bd 08 35 7a bc
       -0.022347873 -0.010674698 -0.06787527 -0.015271433
000310 e1 8a 2e bc 86 92 ed 3c 94 d8 13 bd 60 95 96 bc
       -0.0106532285 0.029000532 -0.036095217 -0.018381774
000320 3f 1f 67 3d 82 08 4f 3d 28 c5 3e bc 71 d6 63 bc
       0.056426283 0.050545223 -0.011643685 -0.013906107
000330 fc 6c c7 3c 8f 3a ec bd c4 79 5a bd ae cb d1 3d
       0.02434396 -0.11534607 -0.05333878 0.10243927
000340 58 0f ca 3c 8d 0c 54 3d ad e7 b6 3c e0 ea 9f bd
       0.02466552 0.05176978 0.022327268 -0.07808471
000350 b4 78 1a 3c 00 8a b2 3c 4a ea c7 3c b3 72 a3 bc
       0.009428192 0.02179432 0.02440371 -0.019952154
000360 32 0b 09 bd fc 26 58 3d 4c 78 4b bd e3 56 87 3d
       -0.033457942 0.052771553 -0.04967527 0.06608369
000370 95 b3 2d 3d 3e 0b dd bb 62 ad 74 bd 87 8f 6c bd
       0.04240759 -0.006745725 -0.059735663 -0.057754066
000380 72 55 19 bd 94 5f 7b 3d bb c4 a1 bd 46 2d cd bc
       -0.037435003 0.061370447 -0.078988515 -0.025046002
000390 97 c9 3b bd 32 85 91 ba 9b 8e 4b bd 53 8d f6 bc
       -0.045846548 -0.0011102317 -0.049696546 -0.030096686
0003a0 55 59 63 3c d5 d2 82 bd e3 b3 b6 3b ef 82 d3 3d
       0.013876279 -0.06387869 0.0055756434 0.10327708
0003b0 34 b6 a4 3c bc 32 ad 3c 9c 29 73 3d f4 62 b9 bb
       0.020106412 0.021142356 0.059365854 -0.005657548
0003c0 94 f0 80 3d c2 99 90 bc 6f a3 4e bd bb 12 be bc
       0.06295887 -0.017651442 -0.05044883 -0.02320229
0003d0 1a 34 36 3d 7d 22 68 bb c0 27 73 bd 32 f8 96 3c
       0.04448328 -0.0035420947 -0.05936408 0.018428896
0003e0 0a 89 85 3d 6c 30 8b bd 7c bf 15 3d 12 34 1c 3d
       0.06520279 -0.06796345 0.036559567 0.038135596
0003f0 48 01 67 bd 1c 8c e5 3c 59 f9 88 bb 2b e3 3d 3c
       -0.056397706 0.02802091 -0.004180115 0.011589806

conv1.lin.weight f4 [512, 60]
000000 7d 93 de 3d ea 7e 3c be 06 9c b3 3c 9e fa 41 3b
       0.10867975 -0.18407789 0.021924984 0.0029598842
000010 0d ea 9d 3d 43 ac 49 bd 3d 68 49 3b c3 d5 72 3d
       0.07710657 -0.049236547 0.0030732297 0.05928589
000020 03 12 36 bd 10 e6 97 3b 28 64 c3 ba ef ad 31 3d
       -0.04445077 0.00463558 -0.0014907168 0.043378767
000030 e2 a5 26 bc b1 cb 05 3e 2b 6f be 3d 2d 69 e0 bc
       -0.0101713855 0.13065983 0.09298547 -0.027393902
000040 8a 24 d4 bc 81 bf d2 3d d8 61 14 3d e7 11 e0 3b
       -0.02589633 0.10290433 0.036226124 0.0068380716
000050 e0 3e 71 3d 94 15 ab 3d 27 cb a9 3d 1a 1d 96 3d
       0.058897853 0.08353725 0.08290701 0.073297694
000060 77 d1 11 3d 21 fa 42 3c 98 f7 47 bd 7a fe 9c 3d
       0.035600152 0.011900456 -0.04882011 0.07665725
000070 73 22 72 3d a2 26 4c bc 3c 3e bb bb 60 5d 90 3c
       0.059114885 -0.012460383 -0.005714206 0.01762265
000080 40 ef 3c 3d c3 db af 3c be 7f a7 3c 7f e3 34 3c
       0.046126604 0.021467095 0.020446654 0.011040567
000090 0a ae 46 3c 3e fa ef 3c d7 69 b7 3c b9 48 1a bc
       0.012126455 0.02929413 0.022389336 -0.0094167525
0000a0 b9 60 b8 3c d9 27 2e bc 88 b5 66 bd 4f e7 df bd
       0.022507058 -0.010629618 -0.056325465 -0.109327905
0000b0 89 d1 14 3d 21 90 60 3a a7 8b 33 3d 51 8d 26 3d
       0.03633264 0.0008566399 0.043834355 0.040662114
0000c0 ea 8f ae 3d 4d aa 25 bb 80 1b 0a bd 0d 16 fa bc
       0.08523543 -0.002527851 -0.033717632 -0.030528093
0000d0 5d 2e fd bc 05 53 8c bc 15 69 32 bd 69 97 8f 3c
       -0.030905897 -0.01712943 -0.043557245 0.017528253
0000e0 fd a5 d8 3d 99 7d 08 bd 8c db 65 3d 41 09 49 bd
       0.10578535 -0.033322904 0.05611758 -0.04908109
0000f0 e8 ad 83 bd c9 e2 0f bd 59 a6 0d 3b 9c ce c3 ba
       -0.06429654 -0.03512839 0.0021614044 -0.0014938894
000100 b7 3b ab bd 90 5f a9 bc 8a 5f ae bd be 1a 94 bc
       -0.08360999 -0.02067545 -0.085143164 -0.018079158
000110 36 c0 f0 ba 46 81 a5 bc ab 4c a5 bd 42 8a 68 bb
       -0.001836783 -0.020203244 -0.08071264 -0.0035482799
000120 c2 2d 56 bc 11 cd 86 bd 23 0f 3d bd 81 5a 1b 3d
       -0.013072433 -0.06582082 -0.046157014 0.037928108
000130 86 ed fb bb 28 d5 2f bd 12 56 59 3c c3 f9 e7 bb
       -0.007688227 -0.04292789 0.01326515 -0.0070793345
000140 c9 52 15 3d a0 c2 53 3c c9 ce c6 3a 49 be 64 bc
       0.036455903 0.01292482 0.0015167828 -0.013961383
000150 0d 9a 6d bd da f3 d2 3b a4 0b 34 3d 5b de a6 bc
       -0.058008242 0.006437761 0.043956414 -0.0203697
000160 ef 31 13 bb e4 9a b0 3c f4 86 91 3c ac 8b 04 bb
       -0.0022460183 0.021558233 0.017764546 -0.0020224852
000170 40 5e ab bb 45 ae ed 39 7e d9 9e bc e0 a5 29 3b
       -0.0052297413 0.00045334004 -0.019390818 0.0025886223
000180 61 cb a0 ba 43 a7 43 3b e7 5e c0 b9 fe 63 f3 3c
       -0.0012267643 0.0029854334 -0.00036691802 0.029710766
000190 72 59 08 bb 93 4e dc 3c 6f d8 15 bd 9b d1 c8 bc
       -0.0020805267 0.026892936 -0.03658336 -0.02451401
0001a0 d6 94 1e bd 6c 8f dc bc 96 c7 e4 3c e5 6b 45 bb
       -0.03871616 -0.026923858 0.027927201 -0.0030124125
0001b0 23 fd f8 bc ba ee 40 bd 43 cb ef bc d0 97 01 3d
       -0.030394142 -0.047102667 -0.029271727 0.03163892
0001c0 20 f5 1a bd 9a b0 b1 bc 22 ae 22 bd 58 eb e0 3c
       -0.037831426 -0.021690655 -0.039716847 0.02745597
0001d0 87 14 d9 bd a6 36 2a 3c e2 35 d8 3c 8f 67 73 3c
       -0.105996184 0.010389006 0.02639288 0.014856233
0001e0 c7 c3 91 bb 40 f8 c7 3c 73 63 9e bc 7d a7 c6 38
       -0.0044483873 0.024410367 -0.01933453 9.472573e-05
0001f0 c2 77 10 3e df 57 8d bd ab b4 0e bc 63 d0 f3 ba
       0.14108184 -0.06901526 -0.008710067 -0.0018601533
000200 3d b3 29 3c 8f 1d d5 bc f9 a3 1a bd ac 61 30 bd
       0.010357675 -0.026015071 -0.037754033 -0.043061897
000210 83 41 bf bc f0 97 5a 3d 77 39 10 bb bf c8 66 3d
       -0.023346668 0.053367555 -0.0022006908 0.05634379
000220 3f fb b5 bd 4f fa f2 3a 34 d0 83 3c 07 0f f2 3c
       -0.08885812 0.0018537733 0.01609049 0.029548181
000230 39 91 f8 bc 0d 10 1b bc f7 2a 73 bb 46 5a 22 bc
       -0.030342685 -0.009464276 -0.0037104466 -0.009909218
000240 21 1b 83 3c 90 f1 c7 bc 5a aa 36 bd a0 7b 91 3c
       0.016004147 -0.024407178 -0.044596054 0.017759144
000250 b4 eb 17 bb 72 78 af bc 40 16 a6 bc a2 04 48 bb
       -0.0023181261 -0.021419737 -0.020274282 -0.003052034
000260 af f5 1c bb 64 10 66 bb ef 57 0a b9 be 77 7a 3b
       -0.002395015 -0.0035104984 -0.00013193463 0.0038218345
000270 96 88 46 bb 96 56 3d b9 72 07 5f bb eb 46 1f 3d
       -0.0030293814 -0.000180567 -0.0034031537 0.038885992
000280 54 4e a5 bc 97 7a 1a 3d ef d0 f2 39 78 aa ac bc
       -0.020178951 0.037714567 0.00046313505 -0.02107738
000290 6a e6 c9 bb 32 36 27 3b 7d e5 9f bd 13 a0 5b bd
       -0.0061615007 0.002551448 -0.07807443 -0.053619456
0002a0 f3 e8 74 bd 67 c8 25 3d a8 39 2f ba 74 5b 0b bd
       -0.05979247 0.04047432 -0.00066843117 -0.034022763
0002b0 e2 85 67 bd e2 75 72 39 b7 a4 8c bb ac 39 f8 bc
       -0.056524165 0.00023122833 -0.0042920965 -0.030300938
0002c0 e3 62 43 3c da c9 b2 ba 0c 20 df bc 62 4c 60 3d
       0.011925432 -0.0013640479 -0.02723696 0.054760344
0002d0 f4 4c 06 bd 7d 0d 94 bd b8 6e 2c 3c f7 a5 06 3a
       -0.032788232 -0.07229135 0.010524444 0.0005136425
0002e0 31 48 0d 3d 92 43 87 bc e9 c9 e8 bc 5d 8e 0c bd
       0.034492675 -0.016511712 -0.02841659 -0.034315456
0002f0 86 15 a6 bc a6 fb c3 3d ed 74 c5 bc a6 0a e9 3c
       -0.020273935 0.095694825 -0.024103606 0.02844746
000300 da b0 e8 bc d1 89 be 3b e7 0f 40 3d ec 60 54 bd
       -0.028404642 0.005814769 0.046890166 -0.051850244
000310 e5 de da bd 74 60 9a bd ef 01 d1 bc aa db 90 bd
       -0.10687045 -0.07537928 -0.025513617 -0.070731476
000320 40 8c d9 bd 74 76 65 3d c2 de 49 bd 57 a4 29 3d
       -0.10622454 0.05602117 -0.049284704 0.041416492
000330 ef 9e 89 3d 4a 81 82 bc 2c 47 da bc 0d 14 90 3c
       0.06719767 -0.01593079 -0.026645266 0.017587686
000340 05 79 ab ba 9b 07 f2 bc 71 12 b7 bc 3b 48 45 ba
       -0.0013082331 -0.029544642 -0.02234766 -0.0007525717
000350 81 cf 4c bb ad 72 10 bb e3 92 49 b9 21 ce 0f 3b
       -0.0031251612 -0.0022041008 -0.00019223573 0.002194293
000360 d9 f5 f7 bb 41 3c b1 bb eb ac ab ba da a7 94 3d
       -0.007567149 -0.005408794 -0.0013097798 0.07258578
000370 87 5c 93 3d b3 68 ce 3c e4 28 bb 3d 94 fe 22 3c
       0.071953826 0.025196409 0.09138659 0.0099483915
000380 6b c1 7c 3d 8e 31 4a 3b b5 ae 93 3c 95 c7 09 b8
       0.061707895 0.003085229 0.018027643 -3.284922e-05
000390 54 5d 8b 3c fa 54 93 ba fe ca 93 3c 2a bb 48 3d
       0.017012276 -0.0011240535 0.01804113 0.04900662
0003a0 dc 80 a8 3c 21 82 58 ba 0b 73 d3 3c 2d f6 81 3b
       0.020569257 -0.0008259137 0.025811693 0.003966114
0003b0 df 27 bb bd 7b 33 cd 3b 2d 82 96 3c 96 60 e4 3a
       -0.09138464 0.0062622405 0.01837262 0.0017423804
0003c0 38 00 6f 3c 3e 86 86 bd 63 02 50 3d 5e dd 1f ba
       0.0145874545 -0.065685734 0.050783526 -0.0006098355
0003d0 af 46 00 bc b0 3a c9 ba f9 42 40 bd 24 9c b8 bc
       -0.007829352 -0.0015352573 -0.04693887 -0.022535391
0003e0 44 01 5b bc 42 61 01 bd 60 f5 7d bc 6f 1b 88 3c
       -0.013367001 -0.031586893 -0.0155003965 0.016614644
0003f0 a4 b7 a4 bc 14 72 98 bc 54 61 ba bc f0 d0 9c bd
       -0.020107098 -0.018609084 -0.022751488 -0.07657039

conv2.att_src f4 [1, 1, 3]
000000 47 f2 82 bf c7 70 7a bf 41 6b 19 3f
       -1.0230187 -0.97828335 0.5992928

conv2.att_dst f4 [1, 1, 3]
000000 12 7c e3 be 97 a5 47 bf 94 95 ec be
       -0.44430596 -0.77987045 -0.4620787

conv2.bias f4 [3]
000000 ff da 85 be 62 5d 86 bc e4 42 31 3e
       -0.26143643 -0.01640195 0.17310673

conv2.lin.weight f4 [3, 512]
000000 bc 0e 34 3c c7 c6 11 3d 0f cf 11 bd 5c af f8 3c
       0.010989841 0.03558996 -0.035597857 0.030357055
000010 a3 93 bf 3c 13 e4 0f bd b4 3a c4 bd 50 d8 8c bd
       0.023385828 -0.035129618 -0.09581509 -0.06877196
000020 eb 3f c1 3d 10 be 02 3d 3e 01 c1 3c fc 14 cb bd
       0.094360195 0.03191954 0.023560163 -0.09916112
000030 ff dc 1e 3e 2d be 7f 3c 44 f9 7c 3d fb c5 9b 3d
       0.15513991 0.015609306 0.061761156 0.07606121
000040 0e a2 96 bd 67 50 74 3d a9 4e 64 ba 5a 8a 0f bc
       -0.07355128 0.05964699 -0.0008709231 -0.008761013
000050 f9 c6 dc 3d 1d 79 e9 3b d3 1a dc bd e7 a9 82 3d
       0.107801385 0.0071250335 -0.10747304 0.063800626
000060 1c 5b 3a 3d f5 7b 83 3c 4d 2e 0c 3d ec 62 23 3d
       0.045497045 0.016050318 0.034223843 0.03988926
000070 67 a9 97 bd 6f 47 35 bc 30 6a 70 3d 92 38 64 3c
       -0.07405358 -0.011064394 0.05869502 0.013929503
000080 d3 9b 83 bd 18 44 8b 3d c3 f2 32 bd c7 1c 88 bd
       -0.064262055 0.06800097 -0.043688547 -0.06646114
000090 71 86 33 bd f0 5b bc bc e4 99 8e bd 61 f4 62 3d
       -0.043829385 -0.022993058 -0.06962946 0.05540884
0000a0 97 8c d6 bd c6 ec 3f bc 03 76 84 bd 9c 5e 79 3d
       -0.10476034 -0.011714166 -0.064678214 0.060881242
0000b0 20 d5 e5 bd a0 85 33 3d 62 63 64 3d 23 da 94 3c
       -0.11222291 0.043828607 0.05575884 0.018170422
0000c0 b4 66 d7 3c 28 c7 8b bd b2 b3 9d bd 3a 4c 50 bd
       0.02629409 -0.068250954 -0.0770029 -0.050853945
0000d0 11 5b 80 bd 91 ac 09 be ce 49 7f bd 21 23 15 ba
       -0.062673695 -0.13444735 -0.062326245 -0.00056891335
0000e0 1c b7 3d bc 7b cf d3 bd b7 30 da bd b2 44 76 bc
       -0.011579301 -0.10342308 -0.10653823 -0.015031027
0000f0 66 cc fc bb 69 cb a3 bd 0e 6e 94 3c 67 af 40 3d
       -0.007714796 -0.07997782 0.018118884 0.047042277
000100 a6 fa a4 bd 51 bf 0b be 82 8c b3 bc 1f d3 b6 3d
       -0.0805562 -0.136472 -0.021917585 0.08926987
000110 98 9c 1c 3d 33 f3 51 3c 64 65 d4 bc 5a ac 83 bb
       0.038235277 0.012814331 -0.025927253 -0.0040183486
000120 ae e0 c6 3d f3 4d 03 3d 6f 32 62 bd 1d 2a bb bd
       0.09710823 0.03205676 -0.05522388 -0.09138892
000130 87 ce 03 3e 15 b1 82 3d 69 af 97 bd 90 39 cf 3c
       0.12871753 0.06381432 -0.07406504 0.025296003
000140 8c cc ea bd ac 8d 88 3d 46 e3 cf bc 84 8b 47 bc
       -0.114647955 0.06667647 -0.025376927 -0.012179259
000150 cd 66 9e 3d 49 bd 7b 3d 20 3f 8d 3d ab 5d 4f bd
       0.077344514 0.061459813 0.06896806 -0.050626438
000160 06 ab f3 bc 66 89 65 3d 23 20 78 bd 2e f1 07 3e
       -0.029744636 0.056039236 -0.060577523 0.13275596
000170 55 03 61 3d a2 84 16 bd 72 18 bb 3d b2 30 9d bd
       0.05493482 -0.036747582 0.09135522 -0.076753035
000180 d6 61 b2 3c a9 54 93 bd 09 7c 67 3d 36 d0 12 3d
       0.021775167 -0.07193882 0.056514774 0.035843097
000190 7b 08 4a bd 48 a7 a6 3c e8 f5 84 3c 4f 9e d2 bd
       -0.049324494 0.020343438 0.016230538 -0.10284101
0001a0 ce 6b 95 bd 8e 20 64 bd 56 c1 1a 3b 9f 2f 0a be
       -0.07295953 -0.05569511 0.0023613772 -0.13494729
0001b0 e0 43 80 3d 73 21 f3 bc e3 2d 25 3d 13 d3 18 be
       0.06262946 -0.029679036 0.040326964 -0.14924268
0001c0 9d 94 6b 3d 98 70 a4 3d e2 6e 89 3c b8 41 0f be
       0.057514776 0.08029288 0.016776506 -0.13989913
0001d0 ae e3 55 3d 57 28 16 3e c7 a3 c8 bd 30 68 47 bd
       0.052219085 0.14663826 -0.09796863 -0.048683345
0001e0 d7 6f 20 3d 30 73 42 3d dc 8c 31 bd 52 47 d7 bc
       0.03916916 0.047473133 -0.043347225 -0.026279125
0001f0 8c e5 62 bd 82 e8 9b bd 57 52 8d 3c f5 1b fe 3c
       -0.055394694 -0.07612707 0.017251177 0.03101919
000200 eb 8e 15 bd 39 d8 d5 bd 10 90 03 3d f1 3c 49 3d
       -0.03651325 -0.10441632 0.03211981 0.049130384
000210 e7 c4 d6 bd 9c 76 bc 3c ac 33 9a 3d 37 8b a1 3d
       -0.10486775 0.023005776 0.07529387 0.07887881
000220 a3 b7 87 bb 85 57 b1 bd bf 51 82 bd 31 5d 69 3d
       -0.0041417642 -0.08659271 -0.06363248 0.05697364
000230 f7 4d 52 3d 9c b7 de bc 30 12 d3 bc 1b 3f 9a bd
       0.051343884 -0.027187161 -0.025765508 -0.07531568
000240 a3 2d cb 3c eb 60 02 be 00 bb a6 3d cb e4 4a 3d
       0.024802035 -0.12732284 0.08141136 0.0495346
000250 d4 b3 2b bd 99 83 d3 bd 1c 22 26 3d d4 86 59 bd
       -0.041919544 -0.10327835 0.040559873 -0.053107098
000260 24 2a b0 3d 9d 2d 87 bc 04 f8 9f 3c 9d 8e 1e 3b
       0.08601788 -0.016501242 0.019527443 0.002419389
000270 78 4b dc bd 4e 37 72 3c 7f 69 a4 bd d8 ed 62 3d
       -0.10756582 0.0147836935 -0.08027934 0.055402607
000280 60 7d d2 3d ba 0d 42 3d d0 7a 82 bc 76 e1 69 bd
       0.1027782 0.047376372 -0.015927702 -0.057099782
000290 85 ec a2 bc 6a 23 d3 3d 0b 69 fb 3d 30 d7 98 bd
       -0.019888172 0.10309489 0.12275895 -0.07462919
0002a0 51 46 ff bd bf 99 3e 3d 49 b1 3d 3d 05 76 af bd
       -0.12464584 0.046533342 0.04631165 -0.08567432
0002b0 1c 6d 74 bc 00 2f 6b 3d b2 6b 9b bd 4f bb 8a 3d
       -0.014918592 0.05741787 -0.075889006 0.067740075
0002c0 45 6f 18 bd 9b 3e 11 bd 7b f8 00 bd 66 2e ee bd
       -0.03721549 -0.035460096 -0.03148697 -0.116299435
0002d0 8a 22 7a bc 69 03 c1 3d c6 f8 9b 3c 5a 10 0d bd
       -0.015267024 0.094244786 0.019039523 -0.034439422
0002e0 b2 fe 3f 3d 1c 22 8a bd 8f d6 4c bd 33 ce 20 bd
       0.046873756 -0.06744787 -0.050009307 -0.039259147
0002f0 9a 4d 07 3e 0d c8 97 3c 6d 39 58 3d a2 e4 cf bc
       0.13213196 0.018528009 0.05278914 -0.025377575
000300 c7 c7 83 3d 99 42 82 3d e5 7b 5e 3d 6a 48 10 3c
       0.06434589 0.06360359 0.054317374 0.008806327
000310 fc 1f 1c 3d 75 59 d2 bd 92 4b 83 3d 53 b6 e2 bd
       0.03811644 -0.10270969 0.06410898 -0.11069932
000320 39 b3 0a be 80 f6 3c 3c 7f cc 00 bd fd b5 43 3b
       -0.1354493 0.01153338 -0.031445023 0.0029863112
000330 93 26 81 3d 56 9c 01 3e 28 95 79 3d 37 ef 16 bd
       0.063061856 0.12657294 0.060933262 -0.036849227
000340 7d 9d ad bd f2 13 19 be 74 9a 2f bd d2 e8 d3 bc
       -0.08477304 -0.14949015 -0.042871907 -0.025867853
000350 58 c6 de bd ca 0b d4 b9 7e 10 a3 3c f9 43 6e 3d
       -0.10877675 -0.00040444575 0.019905325 0.058170293
000360 2b 46 ff 3d d7 69 85 bd ee d1 36 3d 47 4e 0f bd
       0.12464555 -0.06514328 0.0446338 -0.03498676
000370 bb 23 01 3a b8 44 6a bc c6 5e 96 3d ad 7c 6f 3d
       0.0004926284 -0.01429861 0.07342295 0.05846851
000380 30 f6 9c 3d bf 89 60 3c 89 62 92 3d 9b fd 7e 3b
       0.07664144 0.013704716 0.071477 0.0038908485
000390 88 fe 03 bd e6 eb 30 3d de b5 85 bd 75 47 1b 3d
       -0.03222516 0.04319372 -0.06528829 0.037909944
0003a0 e2 87 03 3e 7b 47 a7 3d f1 22 b0 3c db 55 c6 bb
       0.12844804 0.08167931 0.021501036 -0.0060527152
0003b0 a2 79 1b 3c 30 e4 a1 bd 62 6b 1e be f5 3e c1 bd
       0.009489449 -0.079048514 -0.15470651 -0.09435836
0003c0 d9 03 60 ba 1e 14 e7 bc 6a 86 8a 3b 53 ed d9 bc
       -0.0008545495 -0.028207835 0.004227449 -0.026602423
0003d0 d1 94 56 bd 22 9f 46 bc 23 c2 b9 3d 11 42 7a bd
       -0.052388016 -0.012122901 0.09070232 -0.061098162
0003e0 72 63 9d ba 2d 05 b9 3d 84 fe 66 3d ce e1 d5 bd
       -0.0012007786 0.0903419 0.05639507 -0.104434595
0003f0 95 ea 88 3d fa 25 d8 3b 91 68 25 3d c9 c1 9d bd
       0.06685368 0.006596324 0.040382925 -0.07702977
